results/ppo/defender_1.onnx (onnx, 73618 bytes, 5 tensors)

network_body._body_endoder.seq_layers.0.weight f4 [128, 1]
0	0x3f9a6a1d	1.2063633
1	0xbe43b8b2	-0.19113424
2	0x3f09d0c6	0.5383419
3	0xbf4a99da	-0.7914101
4	0xbdd4c790	-0.10389626
5	0xbfc0462c	-1.5021415
6	0x3f085915	0.5326093
7	0x3ef7ee1f	0.4842386
8	0x3f5ea74a	0.8697401
9	0xbecd9ee0	-0.40160275
10	0xbf14c486	-0.5811237
11	0xbdf9ef6e	-0.12203871
12	0xbec30404	-0.38089
13	0x3fdeac23	1.7396282
14	0xbf69397d	-0.91103345
15	0x3f16de56	0.5893301
16	0x3e953388	0.29140878
17	0xbd0a370a	-0.033743896
18	0xbd9aa553	-0.07551064
19	0xbec1dc82	-0.37863547
20	0x3f811556	1.0084636
21	0xbeaf84e7	-0.34281084
22	0xbe941d74	-0.2892872
23	0x3e4ceda2	0.20012525
24	0x3f06fe1d	0.52731496
25	0x3fbcffcd	1.4765564
26	0xbe8ac961	-0.27106765
27	0xbc1b176a	-0.009466032
28	0xbf2ce45f	-0.67535967
29	0xbf6b6a17	-0.91958755
30	0x3f0a8586	0.5410999
31	0x4058763d	3.3822167
32	0x3ea3f559	0.32023123
33	0x3fef1fca	1.8681576
34	0x3ea4f8cd	0.3222107
35	0xbf60ee04	-0.87863183
36	0xc00997ea	-2.149897
37	0x3ec7d9a5	0.39033237
38	0x3f708249	0.939488
39	0xbef8eb8d	-0.4861721
40	0x3f8969fa	1.0735466
41	0xbf78c364	-0.9717314
42	0x3f45b2d0	0.7722597
43	0xbfe542bb	-1.791099
44	0xbff9d428	-1.951787
45	0x3f5b45fe	0.85653675
46	0xbf88aa3e	-1.0676954
47	0x3f2eb988	0.6825185
48	0x3f427e22	0.75973713
49	0xbf932436	-1.1495426
50	0x3e190c05	0.14945991
51	0x3f179b0c	0.5922096
52	0x3f24475d	0.6417139
53	0x3f951cf7	1.1649464
54	0x4013aee1	2.3075488
55	0xbebd84f3	-0.37015495
56	0xbf4c049f	-0.7969455
57	0xbebc2ae3	-0.3675147
58	0xbf39817a	-0.7246319
59	0x3f3d7da0	0.74019814
60	0x3fd3e0e4	1.6553006
61	0x3f2da69c	0.6783235
62	0xbfddcb79	-1.732772
63	0x3f77bb8d	0.96770555
64	0x40149e43	2.3221595
65	0xbec42dae	-0.383161
66	0x3e5314c0	0.20613384
67	0xc0156542	-2.3343053
68	0xbf137d5c	-0.5761316
69	0x3eb5ced5	0.35509363
70	0x403c7338	2.9445324
71	0xbff7111d	-1.9302098
72	0xbfc317e3	-1.5241665
73	0xbfc9f708	-1.5778513
74	0x3fb89f21	1.4423562
75	0x3e594f4d	0.21221657
76	0xbedd4736	-0.43218392
77	0x3f424c24	0.7589743
78	0x3f384717	0.71983474
79	0x3ee8bf97	0.4545867
80	0x3ed6450c	0.41849554
81	0x3fb36f5b	1.4018358
82	0xbd276645	-0.040869016
83	0x3f21d610	0.6321726
84	0xbf892504	-1.0714421
85	0xbf06858c	-0.52547526
86	0x3f99a48b	1.200334
87	0x40085fbe	2.1308436
88	0xbdf4c9e0	-0.11952567
89	0x3f260791	0.64855295
90	0xbf82c80f	-1.0217303
91	0x3f90b85d	1.1306263
92	0x3e3ae7c6	0.18252477
93	0x3fa2c5f6	1.2716663
94	0x3ea33742	0.31878096
95	0x3f9dd0f5	1.2329394
96	0x3e75e8c5	0.24014576
97	0x3d9a5fdf	0.07537817
98	0xbfbefe99	-1.4921447
99	0x3ea2ebfa	0.3182066
100	0xbff3e9e3	-1.9055752
101	0x3f92e902	1.1477358
102	0x3f3b4991	0.7315913
103	0x3edcaba1	0.43099692
104	0xc01c9497	-2.4465692
105	0x3f952e44	1.1654744
106	0x3fc0cbdc	1.5062213
107	0x3f05577c	0.52086616
108	0xbfb9cf4e	-1.4516389
109	0xbfa99f9b	-1.3251833
110	0xbe217ae8	-0.15769541
111	0x3f59538f	0.84893125
112	0x3eec5fe7	0.46166918
113	0x3f50d8d6	0.81580865
114	0x3e811663	0.25212392
115	0xbfc8a92e	-1.567663
116	0x3d6402bf	0.05566668
117	0x3dc255b6	0.09489004
118	0xbf49b797	-0.7879576
119	0xbead1604	-0.3380586
120	0x3eb1ecfc	0.34751117
121	0x3c92e3b8	0.01793085
122	0xbece3081	-0.4027138
123	0x3fa2b897	1.2712582
124	0xbfc574f3	-1.5426315
125	0x3fb8c89c	1.4436221
126	0xbf42bde7	-0.7607102
127	0xbf244fb2	-0.64184105

network_body._body_endoder.seq_layers.0.bias f4 [128]
0	0x00000000	0.0
1	0x00000000	0.0
2	0x00000000	0.0
3	0x00000000	0.0
4	0x00000000	0.0
5	0x00000000	0.0
6	0x00000000	0.0
7	0x00000000	0.0
8	0x00000000	0.0
9	0x00000000	0.0
10	0x00000000	0.0
11	0x00000000	0.0
12	0x00000000	0.0
13	0x00000000	0.0
14	0x00000000	0.0
15	0x00000000	0.0
16	0x00000000	0.0
17	0x00000000	0.0
18	0x00000000	0.0
19	0x00000000	0.0
20	0x00000000	0.0
21	0x00000000	0.0
22	0x00000000	0.0
23	0x00000000	0.0
24	0x00000000	0.0
25	0x00000000	0.0
26	0x00000000	0.0
27	0x00000000	0.0
28	0x00000000	0.0
29	0x00000000	0.0
30	0x00000000	0.0
31	0x00000000	0.0
32	0x00000000	0.0
33	0x00000000	0.0
34	0x00000000	0.0
35	0x00000000	0.0
36	0x00000000	0.0
37	0x00000000	0.0
38	0x00000000	0.0
39	0x00000000	0.0
40	0x00000000	0.0
41	0x00000000	0.0
42	0x00000000	0.0
43	0x00000000	0.0
44	0x00000000	0.0
45	0x00000000	0.0
46	0x00000000	0.0
47	0x00000000	0.0
48	0x00000000	0.0
49	0x00000000	0.0
50	0x00000000	0.0
51	0x00000000	0.0
52	0x00000000	0.0
53	0x00000000	0.0
54	0x00000000	0.0
55	0x00000000	0.0
56	0x00000000	0.0
57	0x00000000	0.0
58	0x00000000	0.0
59	0x00000000	0.0
60	0x00000000	0.0
61	0x00000000	0.0
62	0x00000000	0.0
63	0x00000000	0.0
64	0x00000000	0.0
65	0x00000000	0.0
66	0x00000000	0.0
67	0x00000000	0.0
68	0x00000000	0.0
69	0x00000000	0.0
70	0x00000000	0.0
71	0x00000000	0.0
72	0x00000000	0.0
73	0x00000000	0.0
74	0x00000000	0.0
75	0x00000000	0.0
76	0x00000000	0.0
77	0x00000000	0.0
78	0x00000000	0.0
79	0x00000000	0.0
80	0x00000000	0.0
81	0x00000000	0.0
82	0x00000000	0.0
83	0x00000000	0.0
84	0x00000000	0.0
85	0x00000000	0.0
86	0x00000000	0.0
87	0x00000000	0.0
88	0x00000000	0.0
89	0x00000000	0.0
90	0x00000000	0.0
91	0x00000000	0.0
92	0x00000000	0.0
93	0x00000000	0.0
94	0x00000000	0.0
95	0x00000000	0.0
96	0x00000000	0.0
97	0x00000000	0.0
98	0x00000000	0.0
99	0x00000000	0.0
100	0x00000000	0.0
101	0x00000000	0.0
102	0x00000000	0.0
103	0x00000000	0.0
104	0x00000000	0.0
105	0x00000000	0.0
106	0x00000000	0.0
107	0x00000000	0.0
108	0x00000000	0.0
109	0x00000000	0.0
110	0x00000000	0.0
111	0x00000000	0.0
112	0x00000000	0.0
113	0x00000000	0.0
114	0x00000000	0.0
115	0x00000000	0.0
116	0x00000000	0.0
117	0x00000000	0.0
118	0x00000000	0.0
119	0x00000000	0.0
120	0x00000000	0.0
121	0x00000000	0.0
122	0x00000000	0.0
123	0x00000000	0.0
124	0x00000000	0.0
125	0x00000000	0.0
126	0x00000000	0.0
127	0x00000000	0.0

network_body._body_endoder.seq_layers.2.weight f4 [128, 128]
0	0x3d6a44a1	0.057194356
1	0x3a94698e	0.0011322962
2	0xbd571fae	-0.052520446
3	0xbde83e92	-0.11340059
4	0xbe5cd976	-0.2156733
5	0x3c1aad65	0.009440755
6	0x3d25baeb	0.040461462
7	0xbdfb478f	-0.12269508
8	0x3c9b2866	0.018940162
9	0xbe009c66	-0.12559661
10	0xbd387272	-0.04503102
11	0xbc8557d3	-0.01627723
12	0x3d91b10b	0.071138464
13	0x3e89f81b	0.26947102
14	0xbe1a9950	-0.15097547
15	0xbe0af98f	-0.13571762
16	0x3d0e2bef	0.034709867
17	0xbdd4a940	-0.103838444
18	0xbe0bc37f	-0.13648795
19	0x3d8da87a	0.069169
20	0xbdd65e78	-0.10467237
21	0xbd27e5ef	-0.040990766
22	0x3e61c409	0.22047438
23	0x3d2900bc	0.041260466
24	0xbcce32eb	-0.025170764
25	0x3c4c464c	0.012467932
26	0xbd307d82	-0.043088444
27	0x3d91fff1	0.07128895
28	0x3d2eaa8c	0.042643115
29	0x3caf80a1	0.02142364
30	0x3b9ff825	0.004881876
31	0x3d191f3c	0.037383303
32	0x3c6adbb8	0.014334612
33	0xbb8d07cd	-0.0043039084
34	0xbdad6532	-0.08466567
35	0x3e294cfd	0.16533275
36	0x3dd5273a	0.104078725
37	0x3c45eab2	0.0120798815
38	0x3d9398a0	0.07206845
39	0x3bf00820	0.0073251873
40	0xbc36c098	-0.011154316
41	0x3d2751f0	0.040849626
42	0xbd339c5d	-0.04385029
43	0xbe6e5855	-0.23275883
44	0x3db48c03	0.088157676
45	0x3c2871df	0.010281055
46	0x3cf6bfc4	0.030120738
47	0x3ca5cf87	0.020240558
48	0x3d73c963	0.05951823
49	0x3e00b7c0	0.12570095
50	0x3d15c4e2	0.036564715
51	0x3e1da4c7	0.15394889
52	0xbd5701fb	-0.052492123
53	0x3e6b194b	0.22958867
54	0x3c2b7598	0.010465048
55	0xbd344dba	-0.04401944
56	0x3e36fc85	0.17869766
57	0x3e13a77e	0.14419362
58	0xbdec7939	-0.11546559
59	0x3d84f75b	0.06492492
60	0xbdd867e5	-0.10566691
61	0x3e644e98	0.22295606
62	0xbd911556	-0.07084148
63	0xbdaaf31d	-0.083471514
64	0x3d442f41	0.047896627
65	0x3c89154f	0.016733794
66	0x3da8d293	0.08243289
67	0xbdd229ee	-0.10261904
68	0x3e1431ae	0.14472076
69	0xbe4026b3	-0.18764763
70	0x3d9b990a	0.07597549
71	0xbd68c3ba	-0.056827284
72	0xbb8db5cf	-0.004324652
73	0x3dcc7e84	0.099850684
74	0x3d337dd4	0.04382117
75	0xbe063558	-0.13106287
76	0xbd0a4eb4	-0.033766463
77	0x3d843c00	0.064567566
78	0xbcc8ac4d	-0.024496222
79	0x3c3f794b	0.011686633
80	0xbd712eff	-0.05888271
81	0x3db83920	0.08995271
82	0x3d5357ef	0.051597532
83	0xbe176b44	-0.14787012
84	0xbd47578c	-0.048667476
85	0x3cd92797	0.026508136
86	0xbcfb91f5	-0.030709246
87	0xbd6cfe90	-0.057859957
88	0xbd967cb8	-0.07348007
89	0x3a81bd02	0.0009898248
90	0x3d0bb19e	0.034104936
91	0xbcfd9626	-0.030955385
92	0x3ac6f69d	0.0015179698
93	0x3d9244b0	0.07142007
94	0x3c876cd6	0.01653139
95	0xbe0d80de	-0.1381869
96	0x3d030c00	0.031993866
97	0x3e961cd0	0.29318857
98	0xbe2061e7	-0.15662347
99	0xbdf8c81d	-0.121475436
100	0xbdc15a2b	-0.09441026
101	0xbd5966ed	-0.053076673
102	0x3b874181	0.0041276817
103	0xbc1efc8e	-0.009703768
104	0x3b136ea4	0.0022496367
105	0x3c40a15a	0.011757219
106	0x3dc0ce08	0.09414297
107	0xbd329c7b	-0.043606263
108	0xbd952fc8	-0.07284504
109	0x3cbbf86c	0.022945605
110	0xbd8cfcd3	-0.0688416
111	0xbd2da412	-0.042392798
112	0x3da6f7d0	0.08152735
113	0xbdc82e75	-0.09774486
114	0xbca4a2c4	-0.020097144
115	0xbddec093	-0.10876574
116	0xbda7da1c	-0.08195898
117	0xbd672c21	-0.05643857
118	0x3e3a1d13	0.18175153
119	0xbd7525f5	-0.05985065
120	0x3d0bda97	0.03414401
121	0xbde68549	-0.11255891
122	0xbc23d49a	-0.009999419
123	0x3cd263ce	0.025682356
124	0xbdfc8274	-0.123295695
125	0xbdb7c9a7	-0.08974009
126	0x3db70522	0.08936526
127	0x3c86857c	0.016421072
128	0x3dc2f26d	0.09518895
129	0xbc800307	-0.015626444
130	0x3c52f42b	0.012875597
131	0x3d61c1b3	0.055116367
132	0xbd3a3c7c	-0.04546784
133	0xbd68688f	-0.05674034
134	0xbd5d879d	-0.05408441
135	0x3cfe7332	0.031060789
136	0xbd76562e	-0.06014078
137	0xb9e5065c	-0.00043683022
138	0xbd3a3a70	-0.045465887
139	0x3d07c450	0.033146203
140	0x3bf48c6a	0.0074630277
141	0xbd97b59b	-0.07407685
142	0xbd89ae42	-0.0672269
143	0x3bd0d9cd	0.00637362
144	0xbd1744d9	-0.036930893
145	0x3e936e9d	0.2879533
146	0x3c8e489b	0.017368605
147	0xbe3929fb	-0.1808242
148	0xbd29078b	-0.04126696
149	0xbd9e300d	-0.07724009
150	0x3d0e531e	0.034747235
151	0x3e36481e	0.17800948
152	0xbd9161b0	-0.070987105
153	0x3e063445	0.13105877
154	0x3dd5a014	0.10430923
155	0xbdd9a58b	-0.10627278
156	0xb9dd83e4	-0.0004225067
157	0xbd9fda0e	-0.078052625
158	0x3d31c830	0.043403804
159	0xbdfb36a3	-0.122662805
160	0x3d0e8001	0.034790043
161	0xbca0800f	-0.019592313
162	0xbd901fda	-0.07037325
163	0xbd17955a	-0.037007667
164	0x3dd9a484	0.10627082
165	0xbdec0d6c	-0.115259975
166	0xbdc18ef1	-0.09451092
167	0x3d3ddad7	0.04635128
168	0x3df0afad	0.117522575
169	0x3dab4bb8	0.083640516
170	0xba8baa3e	-0.0010655595
171	0xbc98a98d	-0.018635536
172	0xbbb09112	-0.0053883875
173	0xbd8c37a9	-0.06846554
174	0xbe0cdc95	-0.1375602
175	0x3e8e2572	0.27762944
176	0x3da059c5	0.07829622
177	0xbd12a2cd	-0.03579979
178	0x3df275ed	0.11838899
179	0xbd22db52	-0.03975994
180	0xbd2558a6	-0.040367745
181	0x3d3a08fd	0.04541873
182	0x3dbf33fc	0.09336087
183	0x3ccacbeb	0.024755439
184	0x3da0267d	0.07819841
185	0xbb918781	-0.004441202
186	0xbd98fcad	-0.07470069
187	0xbcdfcedb	-0.027320316
188	0x3e4a69c0	0.19766903
189	0xbdb759f5	-0.08952705
190	0xbd5fe63b	-0.054662924
191	0xbdfab656	-0.12241809
192	0xbb594336	-0.0033151633
193	0xbd3c462c	-0.04596536
194	0xbd249598	-0.040181726
195	0xbdfafdee	-0.122554645
196	0xbb3bc572	-0.0028651622
197	0x3e41b1b5	0.18915446
198	0x3da01407	0.0781632
199	0xbdc188e9	-0.09449942
200	0xbcf44e02	-0.029822353
201	0xbe2a607b	-0.16638367
202	0xbd58d515	-0.052937586
203	0xbd9e4cae	-0.07729469
204	0x3c4397a8	0.011938013
205	0x3dc1644a	0.09442957
206	0x3ceac89c	0.028660111
207	0x3dcd189f	0.10014462
208	0x3d8ee51a	0.069772914
209	0xbe1350d8	-0.14386308
210	0xbde39628	-0.111126244
211	0x3dab1929	0.08354408
212	0x3d52b6da	0.051443912
213	0x3d175eac	0.03695552
214	0xbd297666	-0.04137268
215	0x3d122173	0.03567643
216	0xbe4e5b4d	-0.20152016
217	0xbd8f94c6	-0.07010798
218	0x3c741a2f	0.014898821
219	0xbdcd655c	-0.100290984
220	0xbd3a23c9	-0.045444284
221	0x3e26493c	0.16238874
222	0x3d2a8efb	0.041640263
223	0x3d40da11	0.047082964
224	0x3dc66934	0.09688035
225	0x3e40a129	0.18811478
226	0x3de044d5	0.10950629
227	0x3e131a31	0.1436546
228	0x3e5edfb4	0.21765023
229	0x3de1654d	0.1100565
230	0xbd6a145f	-0.057148334
231	0xbdbb7341	-0.09152842
232	0xbda23655	-0.07920519
233	0xbd3520f2	-0.044220872
234	0x3c09c0ca	0.008407781
235	0xbe106a62	-0.14103082
236	0x3e994f09	0.29943112
237	0x3e0556b0	0.1302135
238	0xbdbaf950	-0.09129584
239	0xbc1a4436	-0.009415677
240	0x3b9f7215	0.0048658946
241	0x3c667ba5	0.014067565
242	0xbbe03204	-0.0068419
243	0x3b93f52a	0.00451531
244	0x3d899d6b	0.06719478
245	0x3c222d66	0.009898519
246	0x3d6171af	0.055040058
247	0x3d78d07e	0.06074571
248	0x3c973b5e	0.018460926
249	0x3dc6d460	0.09708476
250	0x3dfda39d	0.123847224
251	0xbd9e9773	-0.077437304
252	0x3dbd68d2	0.092485085
253	0xbd32d784	-0.043662563
254	0x3cb26189	0.021775024
255	0xbd822202	-0.06354143

action_model._discrete_distribution.branches.0.weight f4 [4, 128]
0	0xba5cd12d	-0.00084235036
1	0x3ba3cdbf	0.004998892
2	0x3bf0be9f	0.0073469426
3	0xbc0c4038	-0.008560233
4	0x3c3ebb66	0.011641359
5	0xbc021dd2	-0.00794168
6	0x3c136e11	0.00899841
7	0xba64194b	-0.0008701279
8	0x3b6f2aa0	0.0036493912
9	0xb93b2b6b	-0.00017849884
10	0x3ade5bd7	0.0016964626
11	0xbc162a4c	-0.009165358
12	0x3b5961aa	0.0033169785
13	0x3b3874f5	0.0028145884
14	0xbc665e88	-0.014060624
15	0xba907f77	-0.0011024316
16	0xbc31d1b0	-0.010853216
17	0x3b231927	0.0024886818
18	0xba2ff6d1	-0.0006712499
19	0xbc717aad	-0.014738721
20	0xbbaa85ed	-0.0052039535
21	0x3c317a15	0.010832329
22	0xbc4eff45	-0.012634103
23	0xbc455484	-0.012044076
24	0xbc86c81f	-0.016452847
25	0x3ac06188	0.0014677504
26	0xbc05535f	-0.008137553
27	0x3b96d8f3	0.004603499
28	0x3a82a307	0.0009966799
29	0xbb397735	-0.0028299813
30	0xbc826953	-0.015919363
31	0xbc74ce1a	-0.014941717
32	0x3c53d898	0.012930058
33	0xbb1d477f	-0.0023998914
34	0x3c58afb2	0.013225483
35	0x3af20d18	0.0018467037
36	0xba8b8506	-0.0010644502
37	0x3c8b84a8	0.017031029
38	0x3c0154ab	0.007893722
39	0xbc06f420	-0.008236915
40	0x3993acee	0.00028166868
41	0x3be38f57	0.0069445777
42	0xba9d414d	-0.001199761
43	0xbc51659b	-0.012780572
44	0xbc1c716b	-0.009548525
45	0x3add8e7f	0.0016903429
46	0x3b410db2	0.0029457626
47	0x3c80eab6	0.015736919
48	0xba3b4ab5	-0.0007144616
49	0x3b891624	0.0041835476
50	0x3ccbc74a	0.024875302
51	0x3c2788cb	0.010225485
52	0xbab8a93a	-0.0014088519
53	0x3c1ce5cb	0.009576271
54	0xbb879c8d	-0.0041385354
55	0xbca75e21	-0.020430626
56	0x3c3e2f1d	0.011607912
57	0x3beebf2f	0.0072859745
58	0x37ddb4c3	2.6429427e-05
59	0x3adcdefd	0.0016851124
60	0x3adf2598	0.0017024754
61	0x3bd391af	0.006456576
62	0x3ad8eb3f	0.0016549601
63	0x36da23a2	6.5010545e-06
64	0xbc95f967	-0.0183074
65	0xbad6f66f	-0.0016400347
66	0x3a923be8	0.001115677
67	0x3c1bdd6a	0.009513238
68	0xbbfca8ff	-0.0077105756
69	0xba43d948	-0.0007471037
70	0x3c489da7	0.0122446185
71	0xbc0cfadb	-0.0086047305
72	0xbc2805fb	-0.010255332
73	0x3b36eedf	0.0027913374
74	0xbcaa206b	-0.020767411
75	0x3ba9485b	0.005166096
76	0x3bdfe1d8	0.0068323426
77	0x3b82d7ae	0.003992996
78	0xbc12692f	-0.008936211
79	0xbb82c7b7	-0.003991093
80	0x3b14f6b9	0.0022730066
81	0x3c4adf99	0.012382411
82	0x3a9243f8	0.0011159172
83	0xbad3578b	-0.0016124112
84	0x3b51829a	0.0031968714
85	0xbac358af	-0.0014903749
86	0x3c32d278	0.0109144375
87	0x3ba9e8da	0.005185229
88	0x3bf38d9a	0.0074326517
89	0xbaa3fa00	-0.0012510419
90	0x3bfe479b	0.007760001
91	0x3b13486f	0.0022473594
92	0x3c9639fb	0.018338194
93	0xbbdf36d7	-0.0068119573
94	0x3b9cbbcc	0.0047831293
95	0xbc6c69cd	-0.014429522
96	0xba3580a7	-0.0006923773
97	0xb96ddbe8	-0.00022684003
98	0x3b4b0d46	0.0030983253
99	0xbc886c34	-0.016653158
100	0x3c0345dd	0.008012262
101	0xbc56664f	-0.013085916
102	0x3b800d59	0.003907841
103	0xbc82732b	-0.015924057
104	0xb9ccad2e	-0.0003903894
105	0x3be07050	0.006849326
106	0xbcbb8a21	-0.022893013
107	0x3c660cff	0.014041184
108	0xbb2c9b1f	-0.0026337577
109	0xbc4d103b	-0.012516077
110	0x3c339f9c	0.010963347
111	0x3cc000bd	0.023437852
112	0xbc017f15	-0.007903834
113	0xbca8ddc3	-0.020613557
114	0xbbcbfeae	-0.0062254285
115	0x3c271f65	0.010200356
116	0xbb7e9095	-0.0038843502
117	0xbc5be070	-0.013420209
118	0xbbf7cfea	-0.007562627
119	0x3be3f540	0.0069567263
120	0x3bf69767	0.007525373
121	0xba4f8eab	-0.00079176825
122	0x3c47c959	0.012194001
123	0x3a8192e3	0.0009885695
124	0xba6f7cc3	-0.00091357174
125	0xbbb4f2f7	-0.0055221277
126	0xbca1f2ab	-0.019769033
127	0xbc0b27c1	-0.008493365
128	0xbc43e755	-0.011957009
129	0xbc3a76a5	-0.011380826
130	0x3c8fd02d	0.01755532
131	0x39c94622	0.0003838996
132	0x39cd4ca5	0.00039157752
133	0x3bf36bcb	0.0074286214
134	0xbc14db4d	-0.0090854885
135	0x3c1668c5	0.009180252
136	0xbb594b6d	-0.003315653
137	0x3b0230cf	0.0019865518
138	0xbc959550	-0.018259674
139	0xbbffa680	-0.007801831
140	0xb7e8096b	-2.766094e-05
141	0xbc413679	-0.011792772
142	0xbb9bca87	-0.0047543678
143	0xbc97ef1c	-0.018546633
144	0xbc15a240	-0.009132922
145	0x3c0d847e	0.008637546
146	0x3a6af1a8	0.0008962401
147	0x3beb1fdd	0.0071754293
148	0xbb58785d	-0.0033030726
149	0x3b09f7a1	0.002105214
150	0xbb2f69e4	-0.0026765997
151	0x3c97feba	0.01855408
152	0xbaf63fdf	-0.0018787346
153	0x3bd06ffb	0.0063610054
154	0x3c49931f	0.012303143
155	0xbc186cf1	-0.009303317
156	0xbc0d4203	-0.008621695
157	0xbb60965d	-0.003426931
158	0xba736ab2	-0.0009285613
159	0x3c169c88	0.009192593
160	0x3b9e72e8	0.0048354752
161	0x3bb3afb2	0.005483591
162	0xbc11a1ca	-0.008888671
163	0xbae49562	-0.0017439539
164	0x3b1b04c3	0.0023653961
165	0x3b392ad4	0.0028254287
166	0xbb4bde1b	-0.0031107727
167	0xbc962d85	-0.018332252
168	0xbb485cd5	-0.003057291
169	0xbc1fea61	-0.00976047
170	0xbc7bff3b	-0.015380676
171	0xbb3dcc96	-0.0028961054
172	0x3b607997	0.003425216
173	0x3be91cb2	0.0071140165
174	0xbbe35c8b	-0.006938522
175	0xbc292876	-0.010324588
176	0x3af05a32	0.0018337427
177	0x3c0e0038	0.008667044
178	0xbc00f10a	-0.007869968
179	0x3c5b37c0	0.013379991
180	0x3c545660	0.0129600465
181	0x3c4430a3	0.0119744865
182	0x3c3354bb	0.010945494
183	0xbc41d353	-0.011830169
184	0x3ace1dfa	0.0015725486
185	0xbc2018a8	-0.0097715035
186	0x3b1cc26f	0.0023919602
187	0x3c56740f	0.013089194
188	0xbc57ad13	-0.013163823
189	0x3b3ae1d8	0.002851596
190	0x3b40dcbc	0.0029428443
191	0x3bdf995a	0.006823701
192	0xbc75d84b	-0.015005182
193	0x3c994c3f	0.018713115
194	0xbc27bad9	-0.010237419
195	0x398b6673	0.00026588477
196	0xbc0a7340	-0.008450329
197	0x3c32bb68	0.010908939
198	0xbb54960b	-0.0032438065
199	0x394239ab	0.00018522765
200	0xbc75a93f	-0.014993965
201	0x3b57893b	0.0032888192
202	0xbbcb360b	-0.006201511
203	0x3bc42aa6	0.0059865294
204	0x3b938b08	0.004502658
205	0xbc2f9a0a	-0.010717878
206	0xbb8c45a5	-0.004280763
207	0xbbdc457d	-0.006722151
208	0xbb250673	-0.0025180846
209	0xbb97b0c2	-0.0046292255
210	0x3c1769b8	0.009241514
211	0x3bbd39dc	0.0057747196
212	0x3c507a43	0.012724462
213	0x3ba4cb2b	0.0050291023
214	0xbbc1b447	-0.0059113833
215	0xbadf53d5	-0.0017038534
216	0x3bed752a	0.007246633
217	0x3aabe217	0.0013113645
218	0xba9af298	-0.0011821566
219	0x3c318e14	0.010837097
220	0xba17055f	-0.0005760993
221	0x3ce4c7fb	0.02792739
222	0x39948f8e	0.00028335716
223	0x3bf10eb2	0.007356488
224	0xbbb918b5	-0.0056486973
225	0xbbe0bc18	-0.00685836
226	0x3b553c6b	0.0032537233
227	0xb9974037	-0.00028848808
228	0xb9cc15b0	-0.0003892607
229	0x3b98b1f4	0.0046598855
230	0xba8db970	-0.0010812711
231	0xbc5831e2	-0.013195487
232	0x3be1ed4a	0.006894742
233	0xbbec9055	-0.007219354
234	0xbc14629e	-0.009056715
235	0xbc411a35	-0.011786033
236	0x3b7223f7	0.0036947706
237	0x3b92d764	0.004481243
238	0xba8b6f25	-0.0010637982
239	0x3c0e7b45	0.008696382
240	0xbbfd9460	-0.007738635
241	0x3bd502d5	0.0065005817
242	0xbb960858	-0.0045786314
243	0xbbe47275	-0.006971652
244	0x3afd9ebf	0.0019349678
245	0x3c82302b	0.015892109
246	0xbc705e55	-0.014670928
247	0xbb6cfa47	-0.003615992
248	0xbc01f783	-0.007932547
249	0xbb802fa4	-0.003911929
250	0xbc3825a4	-0.011239443
251	0x3c3d7050	0.011562422
252	0xbb672098	-0.003526723
253	0xbb0c4caf	-0.0021408012
254	0xbae06b72	-0.0017121865
255	0x3ae8770b	0.0017735673

action_model._discrete_distribution.branches.0.bias f4 [4]
0	0x00000000	0.0
1	0x00000000	0.0
2	0x00000000	0.0
3	0x00000000	0.0
