results/ppo/defender_1/checkpoint.pt (torch, 145122 bytes, 11 tensors)

network_body._body_endoder.seq_layers.0.weight f4 [128, 1]
0	0x3f9a6a1d	1.2063633
1	0xbe43b8b2	-0.19113424
2	0x3f09d0c6	0.5383419
3	0xbf4a99da	-0.7914101
4	0xbdd4c790	-0.10389626
5	0xbfc0462c	-1.5021415
6	0x3f085915	0.5326093
7	0x3ef7ee1f	0.4842386
8	0x3f5ea74a	0.8697401
9	0xbecd9ee0	-0.40160275
10	0xbf14c486	-0.5811237
11	0xbdf9ef6e	-0.12203871
12	0xbec30404	-0.38089
13	0x3fdeac23	1.7396282
14	0xbf69397d	-0.91103345
15	0x3f16de56	0.5893301
16	0x3e953388	0.29140878
17	0xbd0a370a	-0.033743896
18	0xbd9aa553	-0.07551064
19	0xbec1dc82	-0.37863547
20	0x3f811556	1.0084636
21	0xbeaf84e7	-0.34281084
22	0xbe941d74	-0.2892872
23	0x3e4ceda2	0.20012525
24	0x3f06fe1d	0.52731496
25	0x3fbcffcd	1.4765564
26	0xbe8ac961	-0.27106765
27	0xbc1b176a	-0.009466032
28	0xbf2ce45f	-0.67535967
29	0xbf6b6a17	-0.91958755
30	0x3f0a8586	0.5410999
31	0x4058763d	3.3822167
32	0x3ea3f559	0.32023123
33	0x3fef1fca	1.8681576
34	0x3ea4f8cd	0.3222107
35	0xbf60ee04	-0.87863183
36	0xc00997ea	-2.149897
37	0x3ec7d9a5	0.39033237
38	0x3f708249	0.939488
39	0xbef8eb8d	-0.4861721
40	0x3f8969fa	1.0735466
41	0xbf78c364	-0.9717314
42	0x3f45b2d0	0.7722597
43	0xbfe542bb	-1.791099
44	0xbff9d428	-1.951787
45	0x3f5b45fe	0.85653675
46	0xbf88aa3e	-1.0676954
47	0x3f2eb988	0.6825185
48	0x3f427e22	0.75973713
49	0xbf932436	-1.1495426
50	0x3e190c05	0.14945991
51	0x3f179b0c	0.5922096
52	0x3f24475d	0.6417139
53	0x3f951cf7	1.1649464
54	0x4013aee1	2.3075488
55	0xbebd84f3	-0.37015495
56	0xbf4c049f	-0.7969455
57	0xbebc2ae3	-0.3675147
58	0xbf39817a	-0.7246319
59	0x3f3d7da0	0.74019814
60	0x3fd3e0e4	1.6553006
61	0x3f2da69c	0.6783235
62	0xbfddcb79	-1.732772
63	0x3f77bb8d	0.96770555
64	0x40149e43	2.3221595
65	0xbec42dae	-0.383161
66	0x3e5314c0	0.20613384
67	0xc0156542	-2.3343053
68	0xbf137d5c	-0.5761316
69	0x3eb5ced5	0.35509363
70	0x403c7338	2.9445324
71	0xbff7111d	-1.9302098
72	0xbfc317e3	-1.5241665
73	0xbfc9f708	-1.5778513
74	0x3fb89f21	1.4423562
75	0x3e594f4d	0.21221657
76	0xbedd4736	-0.43218392
77	0x3f424c24	0.7589743
78	0x3f384717	0.71983474
79	0x3ee8bf97	0.4545867
80	0x3ed6450c	0.41849554
81	0x3fb36f5b	1.4018358
82	0xbd276645	-0.040869016
83	0x3f21d610	0.6321726
84	0xbf892504	-1.0714421
85	0xbf06858c	-0.52547526
86	0x3f99a48b	1.200334
87	0x40085fbe	2.1308436
88	0xbdf4c9e0	-0.11952567
89	0x3f260791	0.64855295
90	0xbf82c80f	-1.0217303
91	0x3f90b85d	1.1306263
92	0x3e3ae7c6	0.18252477
93	0x3fa2c5f6	1.2716663
94	0x3ea33742	0.31878096
95	0x3f9dd0f5	1.2329394
96	0x3e75e8c5	0.24014576
97	0x3d9a5fdf	0.07537817
98	0xbfbefe99	-1.4921447
99	0x3ea2ebfa	0.3182066
100	0xbff3e9e3	-1.9055752
101	0x3f92e902	1.1477358
102	0x3f3b4991	0.7315913
103	0x3edcaba1	0.43099692
104	0xc01c9497	-2.4465692
105	0x3f952e44	1.1654744
106	0x3fc0cbdc	1.5062213
107	0x3f05577c	0.52086616
108	0xbfb9cf4e	-1.4516389
109	0xbfa99f9b	-1.3251833
110	0xbe217ae8	-0.15769541
111	0x3f59538f	0.84893125
112	0x3eec5fe7	0.46166918
113	0x3f50d8d6	0.81580865
114	0x3e811663	0.25212392
115	0xbfc8a92e	-1.567663
116	0x3d6402bf	0.05566668
117	0x3dc255b6	0.09489004
118	0xbf49b797	-0.7879576
119	0xbead1604	-0.3380586
120	0x3eb1ecfc	0.34751117
121	0x3c92e3b8	0.01793085
122	0xbece3081	-0.4027138
123	0x3fa2b897	1.2712582
124	0xbfc574f3	-1.5426315
125	0x3fb8c89c	1.4436221
126	0xbf42bde7	-0.7607102
127	0xbf244fb2	-0.64184105

network_body._body_endoder.seq_layers.0.bias f4 [128]
0	0x00000000	0.0
1	0x00000000	0.0
2	0x00000000	0.0
3	0x00000000	0.0
4	0x00000000	0.0
5	0x00000000	0.0
6	0x00000000	0.0
7	0x00000000	0.0
8	0x00000000	0.0
9	0x00000000	0.0
10	0x00000000	0.0
11	0x00000000	0.0
12	0x00000000	0.0
13	0x00000000	0.0
14	0x00000000	0.0
15	0x00000000	0.0
16	0x00000000	0.0
17	0x00000000	0.0
18	0x00000000	0.0
19	0x00000000	0.0
20	0x00000000	0.0
21	0x00000000	0.0
22	0x00000000	0.0
23	0x00000000	0.0
24	0x00000000	0.0
25	0x00000000	0.0
26	0x00000000	0.0
27	0x00000000	0.0
28	0x00000000	0.0
29	0x00000000	0.0
30	0x00000000	0.0
31	0x00000000	0.0
32	0x00000000	0.0
33	0x00000000	0.0
34	0x00000000	0.0
35	0x00000000	0.0
36	0x00000000	0.0
37	0x00000000	0.0
38	0x00000000	0.0
39	0x00000000	0.0
40	0x00000000	0.0
41	0x00000000	0.0
42	0x00000000	0.0
43	0x00000000	0.0
44	0x00000000	0.0
45	0x00000000	0.0
46	0x00000000	0.0
47	0x00000000	0.0
48	0x00000000	0.0
49	0x00000000	0.0
50	0x00000000	0.0
51	0x00000000	0.0
52	0x00000000	0.0
53	0x00000000	0.0
54	0x00000000	0.0
55	0x00000000	0.0
56	0x00000000	0.0
57	0x00000000	0.0
58	0x00000000	0.0
59	0x00000000	0.0
60	0x00000000	0.0
61	0x00000000	0.0
62	0x00000000	0.0
63	0x00000000	0.0
64	0x00000000	0.0
65	0x00000000	0.0
66	0x00000000	0.0
67	0x00000000	0.0
68	0x00000000	0.0
69	0x00000000	0.0
70	0x00000000	0.0
71	0x00000000	0.0
72	0x00000000	0.0
73	0x00000000	0.0
74	0x00000000	0.0
75	0x00000000	0.0
76	0x00000000	0.0
77	0x00000000	0.0
78	0x00000000	0.0
79	0x00000000	0.0
80	0x00000000	0.0
81	0x00000000	0.0
82	0x00000000	0.0
83	0x00000000	0.0
84	0x00000000	0.0
85	0x00000000	0.0
86	0x00000000	0.0
87	0x00000000	0.0
88	0x00000000	0.0
89	0x00000000	0.0
90	0x00000000	0.0
91	0x00000000	0.0
92	0x00000000	0.0
93	0x00000000	0.0
94	0x00000000	0.0
95	0x00000000	0.0
96	0x00000000	0.0
97	0x00000000	0.0
98	0x00000000	0.0
99	0x00000000	0.0
100	0x00000000	0.0
101	0x00000000	0.0
102	0x00000000	0.0
103	0x00000000	0.0
104	0x00000000	0.0
105	0x00000000	0.0
106	0x00000000	0.0
107	0x00000000	0.0
108	0x00000000	0.0
109	0x00000000	0.0
110	0x00000000	0.0
111	0x00000000	0.0
112	0x00000000	0.0
113	0x00000000	0.0
114	0x00000000	0.0
115	0x00000000	0.0
116	0x00000000	0.0
117	0x00000000	0.0
118	0x00000000	0.0
119	0x00000000	0.0
120	0x00000000	0.0
121	0x00000000	0.0
122	0x00000000	0.0
123	0x00000000	0.0
124	0x00000000	0.0
125	0x00000000	0.0
126	0x00000000	0.0
127	0x00000000	0.0

network_body._body_endoder.seq_layers.2.weight f4 [128, 128]
0	0x3d6a44a1	0.057194356
1	0x3a94698e	0.0011322962
2	0xbd571fae	-0.052520446
3	0xbde83e92	-0.11340059
4	0xbe5cd976	-0.2156733
5	0x3c1aad65	0.009440755
6	0x3d25baeb	0.040461462
7	0xbdfb478f	-0.12269508
8	0x3c9b2866	0.018940162
9	0xbe009c66	-0.12559661
10	0xbd387272	-0.04503102
11	0xbc8557d3	-0.01627723
12	0x3d91b10b	0.071138464
13	0x3e89f81b	0.26947102
14	0xbe1a9950	-0.15097547
15	0xbe0af98f	-0.13571762
16	0x3d0e2bef	0.034709867
17	0xbdd4a940	-0.103838444
18	0xbe0bc37f	-0.13648795
19	0x3d8da87a	0.069169
20	0xbdd65e78	-0.10467237
21	0xbd27e5ef	-0.040990766
22	0x3e61c409	0.22047438
23	0x3d2900bc	0.041260466
24	0xbcce32eb	-0.025170764
25	0x3c4c464c	0.012467932
26	0xbd307d82	-0.043088444
27	0x3d91fff1	0.07128895
28	0x3d2eaa8c	0.042643115
29	0x3caf80a1	0.02142364
30	0x3b9ff825	0.004881876
31	0x3d191f3c	0.037383303
32	0x3c6adbb8	0.014334612
33	0xbb8d07cd	-0.0043039084
34	0xbdad6532	-0.08466567
35	0x3e294cfd	0.16533275
36	0x3dd5273a	0.104078725
37	0x3c45eab2	0.0120798815
38	0x3d9398a0	0.07206845
39	0x3bf00820	0.0073251873
40	0xbc36c098	-0.011154316
41	0x3d2751f0	0.040849626
42	0xbd339c5d	-0.04385029
43	0xbe6e5855	-0.23275883
44	0x3db48c03	0.088157676
45	0x3c2871df	0.010281055
46	0x3cf6bfc4	0.030120738
47	0x3ca5cf87	0.020240558
48	0x3d73c963	0.05951823
49	0x3e00b7c0	0.12570095
50	0x3d15c4e2	0.036564715
51	0x3e1da4c7	0.15394889
52	0xbd5701fb	-0.052492123
53	0x3e6b194b	0.22958867
54	0x3c2b7598	0.010465048
55	0xbd344dba	-0.04401944
56	0x3e36fc85	0.17869766
57	0x3e13a77e	0.14419362
58	0xbdec7939	-0.11546559
59	0x3d84f75b	0.06492492
60	0xbdd867e5	-0.10566691
61	0x3e644e98	0.22295606
62	0xbd911556	-0.07084148
63	0xbdaaf31d	-0.083471514
64	0x3d442f41	0.047896627
65	0x3c89154f	0.016733794
66	0x3da8d293	0.08243289
67	0xbdd229ee	-0.10261904
68	0x3e1431ae	0.14472076
69	0xbe4026b3	-0.18764763
70	0x3d9b990a	0.07597549
71	0xbd68c3ba	-0.056827284
72	0xbb8db5cf	-0.004324652
73	0x3dcc7e84	0.099850684
74	0x3d337dd4	0.04382117
75	0xbe063558	-0.13106287
76	0xbd0a4eb4	-0.033766463
77	0x3d843c00	0.064567566
78	0xbcc8ac4d	-0.024496222
79	0x3c3f794b	0.011686633
80	0xbd712eff	-0.05888271
81	0x3db83920	0.08995271
82	0x3d5357ef	0.051597532
83	0xbe176b44	-0.14787012
84	0xbd47578c	-0.048667476
85	0x3cd92797	0.026508136
86	0xbcfb91f5	-0.030709246
87	0xbd6cfe90	-0.057859957
88	0xbd967cb8	-0.07348007
89	0x3a81bd02	0.0009898248
90	0x3d0bb19e	0.034104936
91	0xbcfd9626	-0.030955385
92	0x3ac6f69d	0.0015179698
93	0x3d9244b0	0.07142007
94	0x3c876cd6	0.01653139
95	0xbe0d80de	-0.1381869
96	0x3d030c00	0.031993866
97	0x3e961cd0	0.29318857
98	0xbe2061e7	-0.15662347
99	0xbdf8c81d	-0.121475436
100	0xbdc15a2b	-0.09441026
101	0xbd5966ed	-0.053076673
102	0x3b874181	0.0041276817
103	0xbc1efc8e	-0.009703768
104	0x3b136ea4	0.0022496367
105	0x3c40a15a	0.011757219
106	0x3dc0ce08	0.09414297
107	0xbd329c7b	-0.043606263
108	0xbd952fc8	-0.07284504
109	0x3cbbf86c	0.022945605
110	0xbd8cfcd3	-0.0688416
111	0xbd2da412	-0.042392798
112	0x3da6f7d0	0.08152735
113	0xbdc82e75	-0.09774486
114	0xbca4a2c4	-0.020097144
115	0xbddec093	-0.10876574
116	0xbda7da1c	-0.08195898
117	0xbd672c21	-0.05643857
118	0x3e3a1d13	0.18175153
119	0xbd7525f5	-0.05985065
120	0x3d0bda97	0.03414401
121	0xbde68549	-0.11255891
122	0xbc23d49a	-0.009999419
123	0x3cd263ce	0.025682356
124	0xbdfc8274	-0.123295695
125	0xbdb7c9a7	-0.08974009
126	0x3db70522	0.08936526
127	0x3c86857c	0.016421072
128	0x3dc2f26d	0.09518895
129	0xbc800307	-0.015626444
130	0x3c52f42b	0.012875597
131	0x3d61c1b3	0.055116367
132	0xbd3a3c7c	-0.04546784
133	0xbd68688f	-0.05674034
134	0xbd5d879d	-0.05408441
135	0x3cfe7332	0.031060789
136	0xbd76562e	-0.06014078
137	0xb9e5065c	-0.00043683022
138	0xbd3a3a70	-0.045465887
139	0x3d07c450	0.033146203
140	0x3bf48c6a	0.0074630277
141	0xbd97b59b	-0.07407685
142	0xbd89ae42	-0.0672269
143	0x3bd0d9cd	0.00637362
144	0xbd1744d9	-0.036930893
145	0x3e936e9d	0.2879533
146	0x3c8e489b	0.017368605
147	0xbe3929fb	-0.1808242
148	0xbd29078b	-0.04126696
149	0xbd9e300d	-0.07724009
150	0x3d0e531e	0.034747235
151	0x3e36481e	0.17800948
152	0xbd9161b0	-0.070987105
153	0x3e063445	0.13105877
154	0x3dd5a014	0.10430923
155	0xbdd9a58b	-0.10627278
156	0xb9dd83e4	-0.0004225067
157	0xbd9fda0e	-0.078052625
158	0x3d31c830	0.043403804
159	0xbdfb36a3	-0.122662805
160	0x3d0e8001	0.034790043
161	0xbca0800f	-0.019592313
162	0xbd901fda	-0.07037325
163	0xbd17955a	-0.037007667
164	0x3dd9a484	0.10627082
165	0xbdec0d6c	-0.115259975
166	0xbdc18ef1	-0.09451092
167	0x3d3ddad7	0.04635128
168	0x3df0afad	0.117522575
169	0x3dab4bb8	0.083640516
170	0xba8baa3e	-0.0010655595
171	0xbc98a98d	-0.018635536
172	0xbbb09112	-0.0053883875
173	0xbd8c37a9	-0.06846554
174	0xbe0cdc95	-0.1375602
175	0x3e8e2572	0.27762944
176	0x3da059c5	0.07829622
177	0xbd12a2cd	-0.03579979
178	0x3df275ed	0.11838899
179	0xbd22db52	-0.03975994
180	0xbd2558a6	-0.040367745
181	0x3d3a08fd	0.04541873
182	0x3dbf33fc	0.09336087
183	0x3ccacbeb	0.024755439
184	0x3da0267d	0.07819841
185	0xbb918781	-0.004441202
186	0xbd98fcad	-0.07470069
187	0xbcdfcedb	-0.027320316
188	0x3e4a69c0	0.19766903
189	0xbdb759f5	-0.08952705
190	0xbd5fe63b	-0.054662924
191	0xbdfab656	-0.12241809
192	0xbb594336	-0.0033151633
193	0xbd3c462c	-0.04596536
194	0xbd249598	-0.040181726
195	0xbdfafdee	-0.122554645
196	0xbb3bc572	-0.0028651622
197	0x3e41b1b5	0.18915446
198	0x3da01407	0.0781632
199	0xbdc188e9	-0.09449942
200	0xbcf44e02	-0.029822353
201	0xbe2a607b	-0.16638367
202	0xbd58d515	-0.052937586
203	0xbd9e4cae	-0.07729469
204	0x3c4397a8	0.011938013
205	0x3dc1644a	0.09442957
206	0x3ceac89c	0.028660111
207	0x3dcd189f	0.10014462
208	0x3d8ee51a	0.069772914
209	0xbe1350d8	-0.14386308
210	0xbde39628	-0.111126244
211	0x3dab1929	0.08354408
212	0x3d52b6da	0.051443912
213	0x3d175eac	0.03695552
214	0xbd297666	-0.04137268
215	0x3d122173	0.03567643
216	0xbe4e5b4d	-0.20152016
217	0xbd8f94c6	-0.07010798
218	0x3c741a2f	0.014898821
219	0xbdcd655c	-0.100290984
220	0xbd3a23c9	-0.045444284
221	0x3e26493c	0.16238874
222	0x3d2a8efb	0.041640263
223	0x3d40da11	0.047082964
224	0x3dc66934	0.09688035
225	0x3e40a129	0.18811478
226	0x3de044d5	0.10950629
227	0x3e131a31	0.1436546
228	0x3e5edfb4	0.21765023
229	0x3de1654d	0.1100565
230	0xbd6a145f	-0.057148334
231	0xbdbb7341	-0.09152842
232	0xbda23655	-0.07920519
233	0xbd3520f2	-0.044220872
234	0x3c09c0ca	0.008407781
235	0xbe106a62	-0.14103082
236	0x3e994f09	0.29943112
237	0x3e0556b0	0.1302135
238	0xbdbaf950	-0.09129584
239	0xbc1a4436	-0.009415677
240	0x3b9f7215	0.0048658946
241	0x3c667ba5	0.014067565
242	0xbbe03204	-0.0068419
243	0x3b93f52a	0.00451531
244	0x3d899d6b	0.06719478
245	0x3c222d66	0.009898519
246	0x3d6171af	0.055040058
247	0x3d78d07e	0.06074571
248	0x3c973b5e	0.018460926
249	0x3dc6d460	0.09708476
250	0x3dfda39d	0.123847224
251	0xbd9e9773	-0.077437304
252	0x3dbd68d2	0.092485085
253	0xbd32d784	-0.043662563
254	0x3cb26189	0.021775024
255	0xbd822202	-0.06354143

network_body._body_endoder.seq_layers.2.bias f4 [128]
0	0x00000000	0.0
1	0x00000000	0.0
2	0x00000000	0.0
3	0x00000000	0.0
4	0x00000000	0.0
5	0x00000000	0.0
6	0x00000000	0.0
7	0x00000000	0.0
8	0x00000000	0.0
9	0x00000000	0.0
10	0x00000000	0.0
11	0x00000000	0.0
12	0x00000000	0.0
13	0x00000000	0.0
14	0x00000000	0.0
15	0x00000000	0.0
16	0x00000000	0.0
17	0x00000000	0.0
18	0x00000000	0.0
19	0x00000000	0.0
20	0x00000000	0.0
21	0x00000000	0.0
22	0x00000000	0.0
23	0x00000000	0.0
24	0x00000000	0.0
25	0x00000000	0.0
26	0x00000000	0.0
27	0x00000000	0.0
28	0x00000000	0.0
29	0x00000000	0.0
30	0x00000000	0.0
31	0x00000000	0.0
32	0x00000000	0.0
33	0x00000000	0.0
34	0x00000000	0.0
35	0x00000000	0.0
36	0x00000000	0.0
37	0x00000000	0.0
38	0x00000000	0.0
39	0x00000000	0.0
40	0x00000000	0.0
41	0x00000000	0.0
42	0x00000000	0.0
43	0x00000000	0.0
44	0x00000000	0.0
45	0x00000000	0.0
46	0x00000000	0.0
47	0x00000000	0.0
48	0x00000000	0.0
49	0x00000000	0.0
50	0x00000000	0.0
51	0x00000000	0.0
52	0x00000000	0.0
53	0x00000000	0.0
54	0x00000000	0.0
55	0x00000000	0.0
56	0x00000000	0.0
57	0x00000000	0.0
58	0x00000000	0.0
59	0x00000000	0.0
60	0x00000000	0.0
61	0x00000000	0.0
62	0x00000000	0.0
63	0x00000000	0.0
64	0x00000000	0.0
65	0x00000000	0.0
66	0x00000000	0.0
67	0x00000000	0.0
68	0x00000000	0.0
69	0x00000000	0.0
70	0x00000000	0.0
71	0x00000000	0.0
72	0x00000000	0.0
73	0x00000000	0.0
74	0x00000000	0.0
75	0x00000000	0.0
76	0x00000000	0.0
77	0x00000000	0.0
78	0x00000000	0.0
79	0x00000000	0.0
80	0x00000000	0.0
81	0x00000000	0.0
82	0x00000000	0.0
83	0x00000000	0.0
84	0x00000000	0.0
85	0x00000000	0.0
86	0x00000000	0.0
87	0x00000000	0.0
88	0x00000000	0.0
89	0x00000000	0.0
90	0x00000000	0.0
91	0x00000000	0.0
92	0x00000000	0.0
93	0x00000000	0.0
94	0x00000000	0.0
95	0x00000000	0.0
96	0x00000000	0.0
97	0x00000000	0.0
98	0x00000000	0.0
99	0x00000000	0.0
100	0x00000000	0.0
101	0x00000000	0.0
102	0x00000000	0.0
103	0x00000000	0.0
104	0x00000000	0.0
105	0x00000000	0.0
106	0x00000000	0.0
107	0x00000000	0.0
108	0x00000000	0.0
109	0x00000000	0.0
110	0x00000000	0.0
111	0x00000000	0.0
112	0x00000000	0.0
113	0x00000000	0.0
114	0x00000000	0.0
115	0x00000000	0.0
116	0x00000000	0.0
117	0x00000000	0.0
118	0x00000000	0.0
119	0x00000000	0.0
120	0x00000000	0.0
121	0x00000000	0.0
122	0x00000000	0.0
123	0x00000000	0.0
124	0x00000000	0.0
125	0x00000000	0.0
126	0x00000000	0.0
127	0x00000000	0.0

action_model._discrete_distribution.branches.0.weight f4 [4, 128]
0	0xba5cd12d	-0.00084235036
1	0x3ba3cdbf	0.004998892
2	0x3bf0be9f	0.0073469426
3	0xbc0c4038	-0.008560233
4	0x3c3ebb66	0.011641359
5	0xbc021dd2	-0.00794168
6	0x3c136e11	0.00899841
7	0xba64194b	-0.0008701279
8	0x3b6f2aa0	0.0036493912
9	0xb93b2b6b	-0.00017849884
10	0x3ade5bd7	0.0016964626
11	0xbc162a4c	-0.009165358
12	0x3b5961aa	0.0033169785
13	0x3b3874f5	0.0028145884
14	0xbc665e88	-0.014060624
15	0xba907f77	-0.0011024316
16	0xbc31d1b0	-0.010853216
17	0x3b231927	0.0024886818
18	0xba2ff6d1	-0.0006712499
19	0xbc717aad	-0.014738721
20	0xbbaa85ed	-0.0052039535
21	0x3c317a15	0.010832329
22	0xbc4eff45	-0.012634103
23	0xbc455484	-0.012044076
24	0xbc86c81f	-0.016452847
25	0x3ac06188	0.0014677504
26	0xbc05535f	-0.008137553
27	0x3b96d8f3	0.004603499
28	0x3a82a307	0.0009966799
29	0xbb397735	-0.0028299813
30	0xbc826953	-0.015919363
31	0xbc74ce1a	-0.014941717
32	0x3c53d898	0.012930058
33	0xbb1d477f	-0.0023998914
34	0x3c58afb2	0.013225483
35	0x3af20d18	0.0018467037
36	0xba8b8506	-0.0010644502
37	0x3c8b84a8	0.017031029
38	0x3c0154ab	0.007893722
39	0xbc06f420	-0.008236915
40	0x3993acee	0.00028166868
41	0x3be38f57	0.0069445777
42	0xba9d414d	-0.001199761
43	0xbc51659b	-0.012780572
44	0xbc1c716b	-0.009548525
45	0x3add8e7f	0.0016903429
46	0x3b410db2	0.0029457626
47	0x3c80eab6	0.015736919
48	0xba3b4ab5	-0.0007144616
49	0x3b891624	0.0041835476
50	0x3ccbc74a	0.024875302
51	0x3c2788cb	0.010225485
52	0xbab8a93a	-0.0014088519
53	0x3c1ce5cb	0.009576271
54	0xbb879c8d	-0.0041385354
55	0xbca75e21	-0.020430626
56	0x3c3e2f1d	0.011607912
57	0x3beebf2f	0.0072859745
58	0x37ddb4c3	2.6429427e-05
59	0x3adcdefd	0.0016851124
60	0x3adf2598	0.0017024754
61	0x3bd391af	0.006456576
62	0x3ad8eb3f	0.0016549601
63	0x36da23a2	6.5010545e-06
64	0xbc95f967	-0.0183074
65	0xbad6f66f	-0.0016400347
66	0x3a923be8	0.001115677
67	0x3c1bdd6a	0.009513238
68	0xbbfca8ff	-0.0077105756
69	0xba43d948	-0.0007471037
70	0x3c489da7	0.0122446185
71	0xbc0cfadb	-0.0086047305
72	0xbc2805fb	-0.010255332
73	0x3b36eedf	0.0027913374
74	0xbcaa206b	-0.020767411
75	0x3ba9485b	0.005166096
76	0x3bdfe1d8	0.0068323426
77	0x3b82d7ae	0.003992996
78	0xbc12692f	-0.008936211
79	0xbb82c7b7	-0.003991093
80	0x3b14f6b9	0.0022730066
81	0x3c4adf99	0.012382411
82	0x3a9243f8	0.0011159172
83	0xbad3578b	-0.0016124112
84	0x3b51829a	0.0031968714
85	0xbac358af	-0.0014903749
86	0x3c32d278	0.0109144375
87	0x3ba9e8da	0.005185229
88	0x3bf38d9a	0.0074326517
89	0xbaa3fa00	-0.0012510419
90	0x3bfe479b	0.007760001
91	0x3b13486f	0.0022473594
92	0x3c9639fb	0.018338194
93	0xbbdf36d7	-0.0068119573
94	0x3b9cbbcc	0.0047831293
95	0xbc6c69cd	-0.014429522
96	0xba3580a7	-0.0006923773
97	0xb96ddbe8	-0.00022684003
98	0x3b4b0d46	0.0030983253
99	0xbc886c34	-0.016653158
100	0x3c0345dd	0.008012262
101	0xbc56664f	-0.013085916
102	0x3b800d59	0.003907841
103	0xbc82732b	-0.015924057
104	0xb9ccad2e	-0.0003903894
105	0x3be07050	0.006849326
106	0xbcbb8a21	-0.022893013
107	0x3c660cff	0.014041184
108	0xbb2c9b1f	-0.0026337577
109	0xbc4d103b	-0.012516077
110	0x3c339f9c	0.010963347
111	0x3cc000bd	0.023437852
112	0xbc017f15	-0.007903834
113	0xbca8ddc3	-0.020613557
114	0xbbcbfeae	-0.0062254285
115	0x3c271f65	0.010200356
116	0xbb7e9095	-0.0038843502
117	0xbc5be070	-0.013420209
118	0xbbf7cfea	-0.007562627
119	0x3be3f540	0.0069567263
120	0x3bf69767	0.007525373
121	0xba4f8eab	-0.00079176825
122	0x3c47c959	0.012194001
123	0x3a8192e3	0.0009885695
124	0xba6f7cc3	-0.00091357174
125	0xbbb4f2f7	-0.0055221277
126	0xbca1f2ab	-0.019769033
127	0xbc0b27c1	-0.008493365
128	0xbc43e755	-0.011957009
129	0xbc3a76a5	-0.011380826
130	0x3c8fd02d	0.01755532
131	0x39c94622	0.0003838996
132	0x39cd4ca5	0.00039157752
133	0x3bf36bcb	0.0074286214
134	0xbc14db4d	-0.0090854885
135	0x3c1668c5	0.009180252
136	0xbb594b6d	-0.003315653
137	0x3b0230cf	0.0019865518
138	0xbc959550	-0.018259674
139	0xbbffa680	-0.007801831
140	0xb7e8096b	-2.766094e-05
141	0xbc413679	-0.011792772
142	0xbb9bca87	-0.0047543678
143	0xbc97ef1c	-0.018546633
144	0xbc15a240	-0.009132922
145	0x3c0d847e	0.008637546
146	0x3a6af1a8	0.0008962401
147	0x3beb1fdd	0.0071754293
148	0xbb58785d	-0.0033030726
149	0x3b09f7a1	0.002105214
150	0xbb2f69e4	-0.0026765997
151	0x3c97feba	0.01855408
152	0xbaf63fdf	-0.0018787346
153	0x3bd06ffb	0.0063610054
154	0x3c49931f	0.012303143
155	0xbc186cf1	-0.009303317
156	0xbc0d4203	-0.008621695
157	0xbb60965d	-0.003426931
158	0xba736ab2	-0.0009285613
159	0x3c169c88	0.009192593
160	0x3b9e72e8	0.0048354752
161	0x3bb3afb2	0.005483591
162	0xbc11a1ca	-0.008888671
163	0xbae49562	-0.0017439539
164	0x3b1b04c3	0.0023653961
165	0x3b392ad4	0.0028254287
166	0xbb4bde1b	-0.0031107727
167	0xbc962d85	-0.018332252
168	0xbb485cd5	-0.003057291
169	0xbc1fea61	-0.00976047
170	0xbc7bff3b	-0.015380676
171	0xbb3dcc96	-0.0028961054
172	0x3b607997	0.003425216
173	0x3be91cb2	0.0071140165
174	0xbbe35c8b	-0.006938522
175	0xbc292876	-0.010324588
176	0x3af05a32	0.0018337427
177	0x3c0e0038	0.008667044
178	0xbc00f10a	-0.007869968
179	0x3c5b37c0	0.013379991
180	0x3c545660	0.0129600465
181	0x3c4430a3	0.0119744865
182	0x3c3354bb	0.010945494
183	0xbc41d353	-0.011830169
184	0x3ace1dfa	0.0015725486
185	0xbc2018a8	-0.0097715035
186	0x3b1cc26f	0.0023919602
187	0x3c56740f	0.013089194
188	0xbc57ad13	-0.013163823
189	0x3b3ae1d8	0.002851596
190	0x3b40dcbc	0.0029428443
191	0x3bdf995a	0.006823701
192	0xbc75d84b	-0.015005182
193	0x3c994c3f	0.018713115
194	0xbc27bad9	-0.010237419
195	0x398b6673	0.00026588477
196	0xbc0a7340	-0.008450329
197	0x3c32bb68	0.010908939
198	0xbb54960b	-0.0032438065
199	0x394239ab	0.00018522765
200	0xbc75a93f	-0.014993965
201	0x3b57893b	0.0032888192
202	0xbbcb360b	-0.006201511
203	0x3bc42aa6	0.0059865294
204	0x3b938b08	0.004502658
205	0xbc2f9a0a	-0.010717878
206	0xbb8c45a5	-0.004280763
207	0xbbdc457d	-0.006722151
208	0xbb250673	-0.0025180846
209	0xbb97b0c2	-0.0046292255
210	0x3c1769b8	0.009241514
211	0x3bbd39dc	0.0057747196
212	0x3c507a43	0.012724462
213	0x3ba4cb2b	0.0050291023
214	0xbbc1b447	-0.0059113833
215	0xbadf53d5	-0.0017038534
216	0x3bed752a	0.007246633
217	0x3aabe217	0.0013113645
218	0xba9af298	-0.0011821566
219	0x3c318e14	0.010837097
220	0xba17055f	-0.0005760993
221	0x3ce4c7fb	0.02792739
222	0x39948f8e	0.00028335716
223	0x3bf10eb2	0.007356488
224	0xbbb918b5	-0.0056486973
225	0xbbe0bc18	-0.00685836
226	0x3b553c6b	0.0032537233
227	0xb9974037	-0.00028848808
228	0xb9cc15b0	-0.0003892607
229	0x3b98b1f4	0.0046598855
230	0xba8db970	-0.0010812711
231	0xbc5831e2	-0.013195487
232	0x3be1ed4a	0.006894742
233	0xbbec9055	-0.007219354
234	0xbc14629e	-0.009056715
235	0xbc411a35	-0.011786033
236	0x3b7223f7	0.0036947706
237	0x3b92d764	0.004481243
238	0xba8b6f25	-0.0010637982
239	0x3c0e7b45	0.008696382
240	0xbbfd9460	-0.007738635
241	0x3bd502d5	0.0065005817
242	0xbb960858	-0.0045786314
243	0xbbe47275	-0.006971652
244	0x3afd9ebf	0.0019349678
245	0x3c82302b	0.015892109
246	0xbc705e55	-0.014670928
247	0xbb6cfa47	-0.003615992
248	0xbc01f783	-0.007932547
249	0xbb802fa4	-0.003911929
250	0xbc3825a4	-0.011239443
251	0x3c3d7050	0.011562422
252	0xbb672098	-0.003526723
253	0xbb0c4caf	-0.0021408012
254	0xbae06b72	-0.0017121865
255	0x3ae8770b	0.0017735673

action_model._discrete_distribution.branches.0.bias f4 [4]
0	0x00000000	0.0
1	0x00000000	0.0
2	0x00000000	0.0
3	0x00000000	0.0

network_body._body_endoder.seq_layers.0.weight f4 [128, 1]
0	0xbf72ba18	-0.94815207
1	0x3f7ae2f2	0.9800254
2	0xbf15a9d7	-0.5846228
3	0xbd1c4337	-0.03815004
4	0x3fb90847	1.4455651
5	0xbf06be39	-0.52634007
6	0x3c53c63a	0.012925679
7	0xbee22276	-0.44166917
8	0x3f3b00f4	0.7304833
9	0x3eb98463	0.36233816
10	0x3f838285	1.0274206
11	0xbed06c86	-0.40707797
12	0x3dfbf41e	0.12302421
13	0xbf525a3c	-0.82168937
14	0xbf12de7f	-0.5737075
15	0x3f159308	0.58427477
16	0xbeb2d021	-0.34924415
17	0xbf7a7831	-0.9783965
18	0xbee62ef8	-0.4495771
19	0xbfe30d8c	-1.7738509
20	0x3ee451b6	0.4459359
21	0x3e946df3	0.28990135
22	0xbced5bfa	-0.028974522
23	0xbd1eb7b3	-0.038749408
24	0x3f73a9df	0.9518108
25	0x3ee38c9f	0.44443223
26	0xbead4285	-0.33839813
27	0xbed1483d	-0.40875426
28	0xbff4405d	-1.9082142
29	0xbf00b4e9	-0.50276047
30	0xbf82e026	-1.0224655
31	0xbfa7030d	-1.3047806
32	0xbfd42b5b	-1.6575731
33	0x3dd80776	0.10548298
34	0x3f14dc2c	0.58148456
35	0x3eae4db5	0.3404366
36	0x3dc34d88	0.09536272
37	0xbf0d622f	-0.5522794
38	0xbf3b6ef0	-0.7321615
39	0x3e1014fa	0.14070502
40	0x3f2c54ba	0.6731678
41	0x3f01ecdc	0.50752044
42	0xbf02ccc1	-0.5109368
43	0xbe44596f	-0.19174741
44	0x3fb578d9	1.4177505
45	0x3da1f478	0.07907957
46	0xbfd3cefe	-1.6547544
47	0xc0043526	-2.065744
48	0xc007d543	-2.1223915
49	0xbf506ba0	-0.8141422
50	0x3f8ace1d	1.0844151
51	0xbf55b9f0	-0.83486843
52	0x3fad353e	1.3531873
53	0x3f028889	0.50989586
54	0xbd3f7949	-0.046746526
55	0x3f903b23	1.1268047
56	0x3ea06754	0.31328833
57	0xbd1c7235	-0.038194854
58	0xbf73cfc7	-0.9523892
59	0xbf3bbdc6	-0.73336446
60	0x3f9a3d3a	1.2049935
61	0x3ea63005	0.3245851
62	0x3e65078c	0.2236616
63	0xbf39a3ee	-0.7251576
64	0xbf83d95f	-1.0300711
65	0xbf9a3364	-1.2046933
66	0x3fdfc90d	1.7483231
67	0xc0112723	-2.2680137
68	0x3edd5b6f	0.4323382
69	0x3fd3b8d3	1.6540779
70	0xbf8afa50	-1.0857639
71	0xbf67d002	-0.9055177
72	0xbf2540ab	-0.645518
73	0x3e08b8f1	0.133518
74	0xbf904974	-1.1272416
75	0x3da21dd3	0.07915845
76	0x3eec3184	0.46131527
77	0x3f905a81	1.127762
78	0x3e12f7db	0.14352362
79	0x3da46652	0.080273286
80	0xbf9c43b6	-1.2208164
81	0xbf6fc23c	-0.93655753
82	0x3f8da6b6	1.1066501
83	0xbf97d589	-1.1862041
84	0xc01671cf	-2.3506963
85	0x3ed333b6	0.4125039
86	0xbf8f2f9f	-1.1186408
87	0xbf57ba19	-0.8426834
88	0x402484d3	2.570607
89	0x3d2e7381	0.04259062
90	0x3e9b6a81	0.30354694
91	0x3fd49bdc	1.6610065
92	0xbf84573c	-1.0339122
93	0x3fbd7f56	1.4804485
94	0xbf5ccb48	-0.8624768
95	0xbebdf6b4	-0.37102282
96	0x3f6529b8	0.8951678
97	0x3f78533a	0.97001994
98	0x40085626	2.130258
99	0xbf55149b	-0.83234566
100	0xbda4ede9	-0.0805319
101	0x3fab1a1b	1.3367342
102	0x3e3c0e71	0.18364884
103	0xc0017f7e	-2.0234065
104	0x3f86a630	1.0519466
105	0x3f9a9d18	1.2079191
106	0x3d857ef6	0.065183565
107	0x3f86e61d	1.0538975
108	0x3f16c52a	0.588946
109	0xbeae4f0f	-0.34044692
110	0xbf872b95	-1.0560175
111	0x3eeb881b	0.46002278
112	0x3fae18ff	1.3601378
113	0xbe925b71	-0.2858539
114	0x3d78df36	0.060759746
115	0x3f5cd70e	0.8626565
116	0x3ed31e92	0.4123426
117	0xbf4eb312	-0.8074199
118	0xbf0641d0	-0.5244417
119	0xbe0eb4d7	-0.13936172
120	0xbf49ed22	-0.7887746
121	0xbed5922b	-0.4171308
122	0xbe801b39	-0.2502077
123	0xbf845d98	-1.0341063
124	0xbfbef896	-1.4919612
125	0x3f4caeb4	0.79954076
126	0xbd9eaaf9	-0.07747454
127	0x3e61e2b6	0.2205914

network_body._body_endoder.seq_layers.0.bias f4 [128]
0	0x00000000	0.0
1	0x00000000	0.0
2	0x00000000	0.0
3	0x00000000	0.0
4	0x00000000	0.0
5	0x00000000	0.0
6	0x00000000	0.0
7	0x00000000	0.0
8	0x00000000	0.0
9	0x00000000	0.0
10	0x00000000	0.0
11	0x00000000	0.0
12	0x00000000	0.0
13	0x00000000	0.0
14	0x00000000	0.0
15	0x00000000	0.0
16	0x00000000	0.0
17	0x00000000	0.0
18	0x00000000	0.0
19	0x00000000	0.0
20	0x00000000	0.0
21	0x00000000	0.0
22	0x00000000	0.0
23	0x00000000	0.0
24	0x00000000	0.0
25	0x00000000	0.0
26	0x00000000	0.0
27	0x00000000	0.0
28	0x00000000	0.0
29	0x00000000	0.0
30	0x00000000	0.0
31	0x00000000	0.0
32	0x00000000	0.0
33	0x00000000	0.0
34	0x00000000	0.0
35	0x00000000	0.0
36	0x00000000	0.0
37	0x00000000	0.0
38	0x00000000	0.0
39	0x00000000	0.0
40	0x00000000	0.0
41	0x00000000	0.0
42	0x00000000	0.0
43	0x00000000	0.0
44	0x00000000	0.0
45	0x00000000	0.0
46	0x00000000	0.0
47	0x00000000	0.0
48	0x00000000	0.0
49	0x00000000	0.0
50	0x00000000	0.0
51	0x00000000	0.0
52	0x00000000	0.0
53	0x00000000	0.0
54	0x00000000	0.0
55	0x00000000	0.0
56	0x00000000	0.0
57	0x00000000	0.0
58	0x00000000	0.0
59	0x00000000	0.0
60	0x00000000	0.0
61	0x00000000	0.0
62	0x00000000	0.0
63	0x00000000	0.0
64	0x00000000	0.0
65	0x00000000	0.0
66	0x00000000	0.0
67	0x00000000	0.0
68	0x00000000	0.0
69	0x00000000	0.0
70	0x00000000	0.0
71	0x00000000	0.0
72	0x00000000	0.0
73	0x00000000	0.0
74	0x00000000	0.0
75	0x00000000	0.0
76	0x00000000	0.0
77	0x00000000	0.0
78	0x00000000	0.0
79	0x00000000	0.0
80	0x00000000	0.0
81	0x00000000	0.0
82	0x00000000	0.0
83	0x00000000	0.0
84	0x00000000	0.0
85	0x00000000	0.0
86	0x00000000	0.0
87	0x00000000	0.0
88	0x00000000	0.0
89	0x00000000	0.0
90	0x00000000	0.0
91	0x00000000	0.0
92	0x00000000	0.0
93	0x00000000	0.0
94	0x00000000	0.0
95	0x00000000	0.0
96	0x00000000	0.0
97	0x00000000	0.0
98	0x00000000	0.0
99	0x00000000	0.0
100	0x00000000	0.0
101	0x00000000	0.0
102	0x00000000	0.0
103	0x00000000	0.0
104	0x00000000	0.0
105	0x00000000	0.0
106	0x00000000	0.0
107	0x00000000	0.0
108	0x00000000	0.0
109	0x00000000	0.0
110	0x00000000	0.0
111	0x00000000	0.0
112	0x00000000	0.0
113	0x00000000	0.0
114	0x00000000	0.0
115	0x00000000	0.0
116	0x00000000	0.0
117	0x00000000	0.0
118	0x00000000	0.0
119	0x00000000	0.0
120	0x00000000	0.0
121	0x00000000	0.0
122	0x00000000	0.0
123	0x00000000	0.0
124	0x00000000	0.0
125	0x00000000	0.0
126	0x00000000	0.0
127	0x00000000	0.0

network_body._body_endoder.seq_layers.2.weight f4 [128, 128]
0	0x3dd6c8ed	0.10487542
1	0x3d2eb9de	0.042657726
2	0xbd5d1101	-0.053971294
3	0xbd446a82	-0.047953136
4	0xbd23e841	-0.040016416
5	0xbbafc1c8	-0.0053636767
6	0xbd7d2d0f	-0.06181055
7	0xbd8c7d26	-0.06859808
8	0x3e2b568e	0.16732237
9	0x3cc6e74d	0.024280215
10	0xbdcd6ec6	-0.10030894
11	0x3e2337fc	0.15939325
12	0x3e112092	0.14172581
13	0xbb1a34d3	-0.002353002
14	0x3d82d8b7	0.06388991
15	0xbdc2ee0e	-0.095180616
16	0x3ce2c025	0.027679512
17	0x3c24a120	0.010048181
18	0xbcd3e4a1	-0.025865855
19	0x3d093458	0.033497185
20	0x3e124c64	0.14286953
21	0x3d743f8d	0.05963092
22	0x3d001f98	0.03128013
23	0xbd117d22	-0.035519727
24	0x3d07100f	0.0329743
25	0xbcccd0d1	-0.025001915
26	0xbd0c6c8f	-0.034283217
27	0x3dbbc156	0.09167735
28	0x3cad0e74	0.021125056
29	0xbd1885a5	-0.03723683
30	0x3d7311ba	0.059343077
31	0xbdb6bae8	-0.08922368
32	0x3dd2be56	0.1029021
33	0x3e03b6cc	0.128627
34	0xbde22b16	-0.11043374
35	0xbdb20292	-0.086918965
36	0x3d85c423	0.06531551
37	0x3bac035e	0.005249425
38	0x3cb49998	0.022045895
39	0xbdf5309d	-0.11972163
40	0xbd18c12b	-0.037293594
41	0xbdb317cc	-0.08744773
42	0xbd16690b	-0.03672127
43	0xbd0c783c	-0.034294352
44	0xbcd57f44	-0.026061662
45	0xbd3763a7	-0.04477277
46	0x3dacb698	0.084332645
47	0x3d1c94f7	0.038228
48	0xbcec2eba	-0.028830875
49	0x3cbdec6b	0.023184022
50	0x3e35339b	0.17695467
51	0x3d959cf1	0.07305325
52	0x3d160ec8	0.03663519
53	0x3d9d8178	0.0769071
54	0xbc7586cf	-0.014985754
55	0x3c480738	0.012208752
56	0x3de2d445	0.110756435
57	0x3cc799ed	0.02436539
58	0x3d00a559	0.031407688
59	0xbde2c5e0	-0.11072898
60	0x3d19bfa0	0.037536263
61	0x3e06e8b7	0.13174711
62	0xba6c585c	-0.0009015852
63	0x3b821793	0.0039700954
64	0xbd62d8dd	-0.0553826
65	0xbe201393	-0.15632467
66	0xbd0f8308	-0.03503707
67	0x3d982bad	0.074302055
68	0x3e08bc53	0.1335309
69	0x3d906288	0.07050043
70	0x3df96e4f	0.12179243
71	0xbde91a86	-0.11382012
72	0xbc84cf90	-0.016212255
73	0xbdd19957	-0.102343254
74	0xbd763925	-0.06011309
75	0x3d069961	0.032861117
76	0xbd4b3774	-0.04961343
77	0x3cace22d	0.021103943
78	0xbc5263aa	-0.012841145
79	0xbd06e3dd	-0.03293215
80	0xbd3dcae8	-0.046336085
81	0xbdb6f773	-0.08933916
82	0xbdf105e5	-0.117687024
83	0x3dac2f9d	0.08407519
84	0x3d16a6fb	0.03678034
85	0xbd8bcf88	-0.06826693
86	0x3de4163b	0.111370526
87	0x3b465cb6	0.0030267662
88	0x3daa5fed	0.08319078
89	0xbd0a7fe6	-0.03381338
90	0xbd9aa753	-0.07551446
91	0x3d9ead85	0.0774794
92	0xbba2d285	-0.0049689435
93	0x3d96329b	0.07333871
94	0xbde1ca56	-0.11024921
95	0xbdd59c02	-0.10430147
96	0xbe76d8f5	-0.241062
97	0xbd8a4e56	-0.06753223
98	0x3d2686c1	0.040655855
99	0xbe39229e	-0.18079612
100	0x3b72d6b5	0.0037054245
101	0xbdc29f81	-0.09503079
102	0x3c424570	0.0118573755
103	0x3cc47b63	0.023984617
104	0xbdcf0b66	-0.10109596
105	0xbd61d1ff	-0.05513191
106	0xbe4138e6	-0.18869361
107	0xbe5b2b1b	-0.21403162
108	0x3def617f	0.11688518
109	0x3b7472f6	0.0037299967
110	0x3db906d3	0.09034505
111	0xbc18ee08	-0.009334095
112	0xbe0c0422	-0.13673452
113	0xbdc38af6	-0.09547989
114	0x3d4e7a3f	0.05040955
115	0xbcaad1f7	-0.020852072
116	0x3d659f14	0.05605991
117	0xbe595fb3	-0.21227913
118	0x3dde60f9	0.1085834
119	0x3a8f6c50	0.0010942314
120	0x3da88324	0.08228138
121	0xbb9038c4	-0.0044012982
122	0x3da1cbb3	0.07900181
123	0xbc295b55	-0.010336717
124	0xbdf652f3	-0.1202754
125	0x3c987d63	0.018614477
126	0xbdf843df	-0.121223204
127	0xbdc5421d	-0.09631751
128	0xbc4e5e7a	-0.012595767
129	0x3bb469c9	0.0055057746
130	0x3e1bb88b	0.15207116
131	0x3d01029b	0.031496625
132	0x3d6a7e17	0.057249155
133	0x3e2758bd	0.16342445
134	0xbd834ea0	-0.06411481
135	0x3d00dca1	0.031460408
136	0x3d80af26	0.06283407
137	0x3dd3dbbc	0.103446454
138	0x3dd6a0f1	0.10479916
139	0xbc401760	-0.011724323
140	0xbcf8300d	-0.03029635
141	0xbd13571a	-0.03597174
142	0xbc9cbe97	-0.01913385
143	0xbc83169f	-0.016001998
144	0xbcce784f	-0.025203852
145	0x3d3066da	0.043066837
146	0xbe1152f3	-0.14191799
147	0x3c8889e3	0.016667312
148	0xbd950bee	-0.07277666
149	0xbd1cae99	-0.038252447
150	0x3cf6a718	0.030108973
151	0x3db67a0b	0.089099966
152	0x3d8228d4	0.063554436
153	0x3e176b92	0.14787129
154	0x3c815fb0	0.015792698
155	0x3d5831ba	0.052781798
156	0xbd030c76	-0.031994306
157	0xbd78f798	-0.060783
158	0x3d945634	0.072430044
159	0xbd4f3017	-0.05058297
160	0xbe36937d	-0.178297
161	0xbd7579b3	-0.059930515
162	0xbbb14ea4	-0.005410986
163	0x3da19852	0.07890381
164	0xbd92d747	-0.07169967
165	0x3d5dee05	0.05418207
166	0x3daaee61	0.083462484
167	0xbdcce84f	-0.10005247
168	0x3ded2b2e	0.115805015
169	0x3e0de1ec	0.13855714
170	0xbe21abf1	-0.15788247
171	0xbd59b774	-0.05315347
172	0x3d98512c	0.07437357
173	0xbd997af9	-0.07494158
174	0xbd298bd3	-0.041393112
175	0x3ce0cb45	0.027440676
176	0xbdccc68f	-0.099988095
177	0x3deaa550	0.11457312
178	0x3dd6270a	0.10456665
179	0xbcd57b86	-0.026059877
180	0x3dcf6d28	0.10128242
181	0xbd4fcb29	-0.050730858
182	0xbdb75198	-0.0895111
183	0x3d9f6de5	0.077846326
184	0x3c9957cd	0.018718624
185	0x3d6c3e83	0.057676803
186	0x3cd492d4	0.02594892
187	0x3db0ecbc	0.086389035
188	0xbd08cf61	-0.033400897
189	0xbd82bf24	-0.063841134
190	0x3d980206	0.07422261
191	0x3d951d75	0.07281009
192	0xbc97a15e	-0.018509563
193	0x3d573cda	0.052548267
194	0xbb306bcf	-0.0026919728
195	0x3d5dd278	0.054155797
196	0xbd871cb4	-0.065972716
197	0x3dd2fcd2	0.10302128
198	0x3e04192f	0.12900232
199	0x3d60483b	0.054756384
200	0x3d8c51cf	0.06851541
201	0x3d8ad289	0.06778438
202	0x3de0e059	0.10980291
203	0xbdd3053d	-0.103037335
204	0x3d941580	0.07230663
205	0xbdf5cb92	-0.120017186
206	0xbc1f0f7a	-0.00970828
207	0xbd8393d5	-0.06424681
208	0x3cf8e70b	0.030383607
209	0x3d403b4e	0.046931557
210	0x3a9de57e	0.0012046543
211	0x3d8ca2d4	0.068669945
212	0xbc0efb35	-0.008726885
213	0xbe0e2965	-0.13882978
214	0xbe1a1d28	-0.15050185
215	0x3d519962	0.051171668
216	0xbd8f8ef1	-0.07009686
217	0xbdb654e1	-0.08902908
218	0x3e257e2b	0.1616141
219	0xbe4645e1	-0.19362594
220	0x3d0a2abd	0.033732165
221	0xbc156c49	-0.0091200555
222	0x3d55f43e	0.05223488
223	0xbd151139	-0.036393378
224	0x3dbbfd5e	0.09179185
225	0x3d852c05	0.06502537
226	0x3dbf5d1f	0.09343933
227	0x3d1b955d	0.03798424
228	0xbe3e60c4	-0.185916
229	0xbdf0e9c1	-0.11763335
230	0xbd8da9bf	-0.06917142
231	0xbd964383	-0.073370956
232	0xbe4b9017	-0.19879185
233	0x3ddd9be5	0.1082075
234	0x3c2f3086	0.010692721
235	0x3c79a5bf	0.015237271
236	0xbd2b765b	-0.04186092
237	0xbcb5f885	-0.02221323
238	0xbe16da1a	-0.14731637
239	0xbdd1d27d	-0.102452256
240	0xbc8bdbb2	-0.017072532
241	0xbdeb5dd8	-0.11492509
242	0x3c5c88ea	0.013460377
243	0x3badc405	0.0053029084
244	0xbd50be56	-0.05096277
245	0x3d30997b	0.04311512
246	0x3d8f4de8	0.06997281
247	0xbd968c71	-0.07351006
248	0x3ca2a1a5	0.019852469
249	0x3b9085f8	0.0044105016
250	0xbd8a4418	-0.06751269
251	0xbe3093e3	-0.17243914
252	0xbd67e05f	-0.05661046
253	0xbced4cb0	-0.028967232
254	0x3c939e76	0.018019896
255	0x3e8a4f56	0.27013654

network_body._body_endoder.seq_layers.2.bias f4 [128]
0	0x00000000	0.0
1	0x00000000	0.0
2	0x00000000	0.0
3	0x00000000	0.0
4	0x00000000	0.0
5	0x00000000	0.0
6	0x00000000	0.0
7	0x00000000	0.0
8	0x00000000	0.0
9	0x00000000	0.0
10	0x00000000	0.0
11	0x00000000	0.0
12	0x00000000	0.0
13	0x00000000	0.0
14	0x00000000	0.0
15	0x00000000	0.0
16	0x00000000	0.0
17	0x00000000	0.0
18	0x00000000	0.0
19	0x00000000	0.0
20	0x00000000	0.0
21	0x00000000	0.0
22	0x00000000	0.0
23	0x00000000	0.0
24	0x00000000	0.0
25	0x00000000	0.0
26	0x00000000	0.0
27	0x00000000	0.0
28	0x00000000	0.0
29	0x00000000	0.0
30	0x00000000	0.0
31	0x00000000	0.0
32	0x00000000	0.0
33	0x00000000	0.0
34	0x00000000	0.0
35	0x00000000	0.0
36	0x00000000	0.0
37	0x00000000	0.0
38	0x00000000	0.0
39	0x00000000	0.0
40	0x00000000	0.0
41	0x00000000	0.0
42	0x00000000	0.0
43	0x00000000	0.0
44	0x00000000	0.0
45	0x00000000	0.0
46	0x00000000	0.0
47	0x00000000	0.0
48	0x00000000	0.0
49	0x00000000	0.0
50	0x00000000	0.0
51	0x00000000	0.0
52	0x00000000	0.0
53	0x00000000	0.0
54	0x00000000	0.0
55	0x00000000	0.0
56	0x00000000	0.0
57	0x00000000	0.0
58	0x00000000	0.0
59	0x00000000	0.0
60	0x00000000	0.0
61	0x00000000	0.0
62	0x00000000	0.0
63	0x00000000	0.0
64	0x00000000	0.0
65	0x00000000	0.0
66	0x00000000	0.0
67	0x00000000	0.0
68	0x00000000	0.0
69	0x00000000	0.0
70	0x00000000	0.0
71	0x00000000	0.0
72	0x00000000	0.0
73	0x00000000	0.0
74	0x00000000	0.0
75	0x00000000	0.0
76	0x00000000	0.0
77	0x00000000	0.0
78	0x00000000	0.0
79	0x00000000	0.0
80	0x00000000	0.0
81	0x00000000	0.0
82	0x00000000	0.0
83	0x00000000	0.0
84	0x00000000	0.0
85	0x00000000	0.0
86	0x00000000	0.0
87	0x00000000	0.0
88	0x00000000	0.0
89	0x00000000	0.0
90	0x00000000	0.0
91	0x00000000	0.0
92	0x00000000	0.0
93	0x00000000	0.0
94	0x00000000	0.0
95	0x00000000	0.0
96	0x00000000	0.0
97	0x00000000	0.0
98	0x00000000	0.0
99	0x00000000	0.0
100	0x00000000	0.0
101	0x00000000	0.0
102	0x00000000	0.0
103	0x00000000	0.0
104	0x00000000	0.0
105	0x00000000	0.0
106	0x00000000	0.0
107	0x00000000	0.0
108	0x00000000	0.0
109	0x00000000	0.0
110	0x00000000	0.0
111	0x00000000	0.0
112	0x00000000	0.0
113	0x00000000	0.0
114	0x00000000	0.0
115	0x00000000	0.0
116	0x00000000	0.0
117	0x00000000	0.0
118	0x00000000	0.0
119	0x00000000	0.0
120	0x00000000	0.0
121	0x00000000	0.0
122	0x00000000	0.0
123	0x00000000	0.0
124	0x00000000	0.0
125	0x00000000	0.0
126	0x00000000	0.0
127	0x00000000	0.0

value_heads.value_heads.extrinsic.weight f4 [1, 128]
0	0x3e08e3c2	0.13368133
1	0xbe3f9eb5	-0.18712886
2	0xbe17c20c	-0.14820117
3	0x3c0b17b0	0.008489534
4	0x3bf26700	0.0073975325
5	0x3dbea6dc	0.0930917
6	0x3de24400	0.11048126
7	0x3e0b84ea	0.13624921
8	0xbda58404	-0.080818206
9	0x3cb68c58	0.022283718
10	0x3e44737e	0.19184682
11	0xbdbe5e6e	-0.09295355
12	0x3dee6c78	0.116417825
13	0xbe2f7cf1	-0.17137505
14	0xbe053c73	-0.13011341
15	0xbe57cf6e	-0.21075222
16	0x3e02ec76	0.12785515
17	0xbc7b7dc0	-0.015349805
18	0xbe2fa42f	-0.17152475
19	0x3e50c994	0.20389396
20	0xbd813c30	-0.06310308
21	0x3d85d1e4	0.06534174
22	0xbe2c1b84	-0.16807371
23	0x3dd3617c	0.10321328
24	0xbbd3c360	-0.0064624995
25	0xbe0eeea0	-0.13958216
26	0x3da7838c	0.081793875
27	0xbc7aff30	-0.0153196305
28	0xbdd226d6	-0.102613136
29	0xbe0a7f60	-0.13525152
30	0x3e4f1d70	0.20226073
31	0xbd338914	-0.0438319
32	0xbe0c8e86	-0.13726243
33	0x3e13801c	0.14404339
34	0x3e049192	0.12946156
35	0xbdeb5ca4	-0.11492279
36	0xbdf0054c	-0.1171976
37	0xbe0ede37	-0.13951956
38	0xbc4f5ec0	-0.0126568675
39	0x3e4ff17a	0.2030696
40	0x3da64fc4	0.08120683
41	0xbe41c185	-0.18921478
42	0x3e4fce88	0.20293629
43	0x3e0c1402	0.13679507
44	0x3d500570	0.050786436
45	0xbd97d580	-0.07413769
46	0x3cc0f8c8	0.023556128
47	0x3dd190dc	0.10232708
48	0xbca341d0	-0.019928843
49	0xbe175a24	-0.1478048
50	0x3e13bc06	0.14427194
51	0xbdd26cb3	-0.10274639
52	0x3d31cda0	0.04340899
53	0xbcd19028	-0.025581434
54	0xbda53998	-0.08067626
55	0xbde278f7	-0.110582285
56	0xbe4ca78d	-0.1998579
57	0x3d9c0488	0.07618052
58	0xbe449cd6	-0.19200453
59	0x3e00aa5e	0.1256499
60	0xbd9f3fb0	-0.07775819
61	0xbdee782d	-0.116440155
62	0xbda95d86	-0.08269791
63	0xbe02a332	-0.12757567
64	0xbdd20a5e	-0.10255884
65	0x3d9173a4	0.07102135
66	0xbbfbb6e0	-0.0076817125
67	0x3d05e178	0.032685727
68	0x3dfac5b8	0.12244743
69	0xbe276782	-0.16348079
70	0x3dbdad20	0.092615366
71	0x3e2579e8	0.16159785
72	0xbc3afa90	-0.011412278
73	0xbe4d9b25	-0.20078714
74	0xbe59716c	-0.21234673
75	0x3e571f30	0.21007991
76	0x3e328a72	0.17435625
77	0x3d5a1d80	0.05325079
78	0xbd93d9dc	-0.07219288
79	0xbdcc6921	-0.09980989
80	0x3e0f32e4	0.13984257
81	0x3e1fb71a	0.15597191
82	0xbe3b810d	-0.18310948
83	0x3d825c4c	0.063652605
84	0xbb84d400	-0.0040535927
85	0xbd0cd9fc	-0.034387574
86	0x3e334ece	0.1751053
87	0xbdbbbc31	-0.09166754
88	0xbd97d956	-0.074145004
89	0x3d8d481c	0.068985194
90	0x3d3e57e8	0.046470553
91	0x3e2046ac	0.15651959
92	0x3bb9b4a0	0.005667284
93	0xbc578eb0	-0.013156578
94	0x3b9a8560	0.0047156066
95	0xbda8093e	-0.08204888
96	0x3e0ebf16	0.13940081
97	0xbdd72d37	-0.10506671
98	0x3e197766	0.14986953
99	0xbcc95208	-0.024575248
100	0xbd64e89c	-0.055885896
101	0x3e2b8eba	0.16753665
102	0xbc69b3c0	-0.014264047
103	0xbe4b1474	-0.19832021
104	0x3dd1ee8c	0.10250577
105	0xbb7af3c0	-0.003829226
106	0x3d61c7d0	0.055122197
107	0xbdbc9dc0	-0.09209776
108	0x3e10a77c	0.1412639
109	0xbe2dea78	-0.16983974
110	0x3da33fc0	0.07971144
111	0x3d8c8408	0.068611205
112	0xbd38756c	-0.045033857
113	0xbe5ab9bf	-0.21359919
114	0x3d8dc850	0.06922972
115	0x3c74b080	0.014934659
116	0x3e129090	0.14312959
117	0xbe2d47e6	-0.16921958
118	0xbd15bcd4	-0.036557034
119	0xbe3d0494	-0.18458778
120	0x3ca17168	0.019707397
121	0x3b44fcc0	0.0030057877
122	0x3c5d6c90	0.013514653
123	0xbdf8b81d	-0.12144492
124	0x3e1ba7f8	0.15200794
125	0x3e510c98	0.2041496
126	0xbdcdc430	-0.100471854
127	0xbdd4c549	-0.10389192
