results/ppo/defender_1/defender_1-66.onnx (onnx, 533910 bytes, 5 tensors)

network_body._body_endoder.seq_layers.0.weight f4 [128, 900]
-0.05211057 0.016502565 0.027102487 -0.013975877 -0.04601973 -0.03482042 0.05702687 0.010957117
-0.014426495 0.00027234227 0.042463385 -0.04630335 -0.03151854 -0.028571608 0.01904957 -0.046742886
-0.028784577 0.018959032 -0.009515599 -0.013172482 0.028777212 0.03176724 -0.06332509 -0.006867759
0.004025278 -0.01336128 0.0016265308 0.029083768 -0.052980725 -0.03651861 0.029833173 0.05089376
0.03161843 0.04421992 0.037771 0.0019064232 -0.0013443807 -0.0054450473 0.041390263 0.008023609
0.059030447 0.043768562 0.034885988 -0.08802202 -0.012574155 -0.019570567 -0.02560389 0.04021587
-0.04474278 -0.042434894 -0.066901036 -0.028733078 0.017310973 0.02587827 -0.0029144352 -0.05052101
0.03740241 -0.011309878 0.0026375542 0.015096699 -0.020018125 -0.022138013 -0.013050939 0.066034496
-0.030289019 -0.024189636 -0.0036183454 0.012303466 -0.022887666 -0.030704997 -0.027942244 -0.039741058
0.055226985 -0.015108051 -0.0213691 -0.011906408 0.004274262 -0.009909089 -0.012585214 0.00066156464
-0.024373218 -0.03552565 0.051427748 0.007198573 -0.066122755 0.010966003 -0.020499546 -0.0010929902
-0.01711177 -0.005580526 -0.024261823 -0.02958019 0.012319799 0.0001843531 0.0570882 0.05289686
0.022498123 0.0328448 0.029460847 -0.03223359 0.071234465 -0.013820512 -0.0004966448 0.0083555
-0.028306426 -0.030500786 0.012759826 0.023566974 -0.019897632 0.03800748 -0.03359455 0.013517756
0.0072140764 -0.041071028 0.012472343 0.033815287 0.022186326 0.017993828 0.06105287 0.03853367
0.011354632 0.055084433 0.018980289 -0.0032280444 -0.030110724 -0.044972923 -0.000735634 -0.045893226
0.020006964 -0.039390013 -0.00029558307 -0.039508116 0.015537331 -0.101488866 0.06035084 0.039287362
0.030525897 -0.016833358 0.008291276 -0.013765592 0.0051359395 0.027450835 0.04334 -0.056034844
-0.032910004 -0.015877077 -0.011321418 0.024190562 -0.0077880486 0.03896569 -0.030277338 -0.012764727
-0.028569767 0.03558161 0.02103584 0.061125074 0.02802297 -0.00015372732 -0.01994626 0.0034249874
-0.04692622 -0.038010187 -0.040903702 -0.03446739 -0.014696939 -0.015418969 -0.01841528 0.018143991
-0.044399608 -0.026094478 -0.039934296 -0.019213956 0.009476431 0.013198591 -0.015912477 0.057551265
-0.039671216 0.024277847 0.012142885 0.0062640207 0.0046765385 0.01044815 0.0066964487 0.023811571
-0.0020083254 -0.022996468 -0.021727974 -0.012085854 0.012430966 -0.039676826 -0.029709002 0.052059203
0.02497566 0.0032629287 -0.020539712 0.00046039748 0.008731469 -0.03804893 0.005974176 -0.024453491
0.0046863076 -0.07646824 -0.033362005 0.015833942 0.014150041 0.017535685 -0.006937773 0.0069372556
-0.039855532 -0.030943511 -0.008223534 0.010170534 -0.06087768 -0.031920303 0.09773502 0.04074116
-0.0033097628 -0.03796279 -0.025794873 0.004528615 -0.031476364 0.025548536 0.06718562 0.002225232
-0.03154824 0.0065665357 0.0134536335 0.04046222 -0.036598783 0.0071886266 -0.0069525735 -0.02064635
-0.053177916 0.005997198 -0.0071793804 -0.02760569 -0.055679955 0.0170191 -0.0069404985 -0.020777384
0.03318612 0.0042387913 0.010806773 0.054029167 0.016474782 -0.014733016 -0.019194951 0.025617655
0.026256304 -0.018609509 -0.033009037 -0.029854206 -0.034345523 0.030423399 -0.04908473 -0.01602189
00000000: e571 55bd 6330 873c 0906 de3c 14fb 64bc
00000010: 2f7f 3cbd db9f 0ebd 0295 693d 7b85 333c
00000020: 1b5d 6cbc 29c9 8e39 16ee 2d3d 95a8 3dbd
00000030: 9619 01bd 010f eabc d80d 9c3c 7875 3fbd
00000040: a2cd ebbc f94f 9b3c 51e7 1bbc 65d1 57bc
00000050: 30be eb3c 5e1e 023d 96b0 81bd f00a e1bb
00000060: 7be6 833b 45e9 5abc 5131 d53a 1541 ee3c
00000070: 5102 59bd 8a94 15bd b364 f43c fa75 503d
00000080: 5482 013d f21f 353d c4b5 1a3d f3e0 f93a
00000090: ee35 b0ba 5e6c b2bb d688 293d 7575 033c
000000a0: e9c9 713d aa46 333d 9ce4 0e3d e444 b4bd
000000b0: d403 4ebc 7452 a0bc 40bf d1bc 65b9 243d
000000c0: 3544 37bd 36d0 2dbd 6903 89bd a261 ebbc
000000d0: becf 8d3c aafe d33c 1c00 3fbb 1eef 4ebd
000000e0: 4533 193d 114d 39bc d1da 2c3b 2558 773c
000000f0: 0dfd a3bc c75a b5bc 9bd3 55bc 183d 873d
00000100: ad20 f8bc 5829 c6bc c321 6dbb 7a94 493c
00000110: ea7e bbbc 0c89 fbbc 22e7 e4bc 85c7 22bd
00000120: b135 623d c287 77bc 400e afbc 1813 43bc
00000130: 1c0f 8c3b bb59 22bc 3732 4ebc da6c 2d3a
00000140: 58aa c7bc 5883 11bd e7a5 523d 02e2 eb3b
00000150: 5e6b 87bd c0aa 333c aaee a7bc aa42 8fba
00000160: fc2d 8cbc d8dc b6bb bbc0 c6bc 2852 f2bc
00000170: fbd8 493c e94e 4139 51d5 693d 61aa 583d
00000180: fc4d b83c 4588 063d e057 f13c 5e07 04bd
00000190: 60e3 913d 6e6f 62bc 4531 02ba 82e5 083c
000001a0: e1e2 e7bc c9dc f9bc 970e 513c 870f c13c
000001b0: 5c00 a3bc bbad 1b3d 709a 09bd 9479 5d3c
000001c0: 0f64 ec3b 183a 28bd cc58 4c3c e681 0a3d
000001d0: 19c0 b53c cb67 933c 9312 7a3d 7bd5 1d3d
000001e0: c708 3a3c 37a0 613d 8d7c 9b3c 998d 53bb
000001f0: c4aa f6bc 8735 38bd 90d7 40ba 89fa 3bbd
00000200: a5e5 a33c 6c57 21bd 7df8 9ab9 43d3 21bd
00000210: 4a90 7e3c 65d9 cfbd 7132 773d c9eb 203d
00000220: 7211 fa3c 1ce6 89bc 22d8 073c 1489 61bc
00000230: 624b a83b 93e0 e03c 4985 313d cb84 65bd
00000240: a4cc 06bd a510 82bc 787d 39bc 492b c63c
00000250: e332 ffbb 7d9a 1f3d 2e08 f8bc 2523 51bc
00000260: 250b eabc 06be 113d 5b53 ac3c 495e 7a3d
00000270: 6d90 e53c dd31 21b9 5766 a3bc c175 603b
00000280: b535 40bd 92b0 1bbd a48a 27bd ae2d 0dbd
00000290: 6ecb 70bc d89f 7cbc a4db 96bc b5a2 943c
000002a0: 5ddc 35bd 16c4 d5bc 2592 23bd 9666 9dbc
000002b0: 0843 1b3c e73e 583c e25a 82bc e0ba 6b3d
000002c0: 497e 22bd 56e2 c63c f3f2 463c 6a42 cd3b
000002d0: a63d 993b b82e 2b3c e26d db3b 7c10 c33c
000002e0: 1c9e 03bb 1763 bcbc ddfe b1bc bf03 46bc
000002f0: 40ab 4b3c 2b84 22bd 4b60 f3bc 083c 553d
00000300: c199 cc3c dcd6 553b e642 a8bc 8161 f139
00000310: 6f0e 0f3c 32d9 1bbd 05c3 c33b b052 c8bc
00000320: 998f 993b 619b 9cbd 99a6 08bd 2fb6 813c
00000330: 93d5 673c ffa6 8f3c 4256 e3bb eb51 e33b
00000340: 8e3f 23bd 3f7d fdbc 00bc 06bc 50a2 263c
00000350: e05a 79bd ddbe 02bd 4c29 c83d 34e0 263d
00000360: 9be8 58bb df7e 1bbd c54f d3bc c764 943b
00000370: 5ced 00bd 2a4b d13c 9d98 893d 33d5 113b
00000380: ba38 01bd 182c d73b a16c 5c3c b6bb 253d
00000390: 9be8 15bd 928e eb3b 6ad2 e3bb 8922 a9bc
000003a0: 16d1 59bd 2584 c43b 0241 ebbb 5425 e2bc
000003b0: aa10 64bd a46b 8b3c 1f6d e3bb 5535 aabc
000003c0: 2bee 073d 8fe5 8a3b e40e 313c b04d 5d3d
000003d0: 1ff6 863c bf62 71bc bb3e 9dbc 1edc d13c
000003e0: 7617 d73c f872 98bc 7c34 07bd cf90 f4bc
000003f0: e4ad 0cbd 7e3a f93c 120d 49bd 5740 83bc

network_body._body_endoder.seq_layers.0.bias f4 [128]
0.0 0.0 0.0 0.0 0.0 0.0 0.0 0.0
0.0 0.0 0.0 0.0 0.0 0.0 0.0 0.0
0.0 0.0 0.0 0.0 0.0 0.0 0.0 0.0
0.0 0.0 0.0 0.0 0.0 0.0 0.0 0.0
0.0 0.0 0.0 0.0 0.0 0.0 0.0 0.0
0.0 0.0 0.0 0.0 0.0 0.0 0.0 0.0
0.0 0.0 0.0 0.0 0.0 0.0 0.0 0.0
0.0 0.0 0.0 0.0 0.0 0.0 0.0 0.0
0.0 0.0 0.0 0.0 0.0 0.0 0.0 0.0
0.0 0.0 0.0 0.0 0.0 0.0 0.0 0.0
0.0 0.0 0.0 0.0 0.0 0.0 0.0 0.0
0.0 0.0 0.0 0.0 0.0 0.0 0.0 0.0
0.0 0.0 0.0 0.0 0.0 0.0 0.0 0.0
0.0 0.0 0.0 0.0 0.0 0.0 0.0 0.0
0.0 0.0 0.0 0.0 0.0 0.0 0.0 0.0
0.0 0.0 0.0 0.0 0.0 0.0 0.0 0.0
00000000: 0000 0000 0000 0000 0000 0000 0000 0000
00000010: 0000 0000 0000 0000 0000 0000 0000 0000
00000020: 0000 0000 0000 0000 0000 0000 0000 0000
00000030: 0000 0000 0000 0000 0000 0000 0000 0000
00000040: 0000 0000 0000 0000 0000 0000 0000 0000
00000050: 0000 0000 0000 0000 0000 0000 0000 0000
00000060: 0000 0000 0000 0000 0000 0000 0000 0000
00000070: 0000 0000 0000 0000 0000 0000 0000 0000
00000080: 0000 0000 0000 0000 0000 0000 0000 0000
00000090: 0000 0000 0000 0000 0000 0000 0000 0000
000000a0: 0000 0000 0000 0000 0000 0000 0000 0000
000000b0: 0000 0000 0000 0000 0000 0000 0000 0000
000000c0: 0000 0000 0000 0000 0000 0000 0000 0000
000000d0: 0000 0000 0000 0000 0000 0000 0000 0000
000000e0: 0000 0000 0000 0000 0000 0000 0000 0000
000000f0: 0000 0000 0000 0000 0000 0000 0000 0000
00000100: 0000 0000 0000 0000 0000 0000 0000 0000
00000110: 0000 0000 0000 0000 0000 0000 0000 0000
00000120: 0000 0000 0000 0000 0000 0000 0000 0000
00000130: 0000 0000 0000 0000 0000 0000 0000 0000
00000140: 0000 0000 0000 0000 0000 0000 0000 0000
00000150: 0000 0000 0000 0000 0000 0000 0000 0000
00000160: 0000 0000 0000 0000 0000 0000 0000 0000
00000170: 0000 0000 0000 0000 0000 0000 0000 0000
00000180: 0000 0000 0000 0000 0000 0000 0000 0000
00000190: 0000 0000 0000 0000 0000 0000 0000 0000
000001a0: 0000 0000 0000 0000 0000 0000 0000 0000
000001b0: 0000 0000 0000 0000 0000 0000 0000 0000
000001c0: 0000 0000 0000 0000 0000 0000 0000 0000
000001d0: 0000 0000 0000 0000 0000 0000 0000 0000
000001e0: 0000 0000 0000 0000 0000 0000 0000 0000
000001f0: 0000 0000 0000 0000 0000 0000 0000 0000

network_body._body_endoder.seq_layers.2.weight f4 [128, 128]
-0.1166728 -0.03250609 -0.07314922 0.09356065 -0.08429001 0.055049147 0.119358025 -0.035076536
0.14142132 -0.11606946 -0.037767578 -0.10332078 0.01615815 0.003261285 0.050353955 -0.1286669
0.018854698 -0.005592805 -0.081810616 -0.028509358 0.0028760727 -0.03338815 0.077811934 0.19060609
-0.043264236 0.0075537977 0.12633026 0.25156176 -0.10407 -0.13140981 -0.109997466 -0.070325516
0.08319493 -0.11800154 0.12979575 -0.07057415 0.060799193 0.078580536 0.010597639 -0.096531846
0.11560184 0.080584206 -0.05558221 -0.12163949 0.13729234 -0.2287337 0.034684245 0.025966978
0.13150072 -0.012939061 -0.046311405 0.0018914926 -0.096101366 -0.14217265 0.0192692 -0.121397376
-0.1720039 -0.11468887 -0.06460501 -0.10166578 0.13670523 0.012938269 0.05410884 0.061381646
0.013760393 0.07432692 0.038034827 0.001250779 0.16525203 -0.11733106 -0.18630171 0.10610517
-0.1325649 -0.1308648 0.054035526 -0.069340065 -0.09057757 -0.019242201 0.04626429 0.012808879
-0.046126116 0.06956227 0.05881514 -0.0046303147 0.011787305 0.06842602 0.0028730521 0.054992598
-0.07668609 0.116445094 0.051988922 0.06559013 -0.10656256 0.061944213 -0.104931876 -0.06405997
-0.0023125913 -0.0401449 -0.11050943 0.09458226 -0.05256092 -0.03512144 0.06508304 -0.032020006
-0.05166809 0.034292053 0.080088295 0.12060297 -0.0023645372 0.027376756 -0.056799706 -0.00436246
0.048321612 0.0723833 -0.011668121 0.048432846 0.08713511 0.014929708 0.017979598 0.05668377
-0.04190589 0.041429948 -0.08341393 -0.13709249 -0.014375647 -0.042343434 -0.021732131 -0.102441706
0.101710066 -0.012605755 -0.061406676 -0.1702496 0.1610588 -0.009052413 0.019122867 -0.047220696
0.010670662 0.09267727 0.007495817 -0.062387656 -0.028618297 -0.13912994 0.065324284 0.009132364
-0.12413059 -0.10455922 0.059402693 0.07618527 -0.15434419 -0.06582985 -0.037584286 0.036215995
0.1436107 -0.09395062 -0.043547135 0.14271858 -0.072479464 0.096347675 0.09086948 0.16450977
-0.011938932 0.049876776 0.14210175 -0.0539948 0.15683056 -0.088685915 0.04002652 0.14980923
0.09809709 0.012866117 -0.0058928602 0.11886025 -0.035147414 0.1417964 0.008062346 -0.15282597
0.05393864 0.051719 -0.052846838 -0.0009028973 -0.021344846 0.116245955 -0.051409103 0.005275462
0.050141595 0.015749257 0.005476784 -0.041195266 0.055268575 0.030729482 0.14900209 -0.017783916
0.04447279 -0.021873036 0.031971373 -0.10562858 0.0946232 -0.04925997 0.20561892 -0.01002892
0.0047187014 -0.06955192 0.01868137 0.07030038 -0.07022572 -0.03866019 0.022336122 -0.024000945
0.077545956 0.029874213 -0.020638652 -0.021611046 0.043077815 -0.052328598 -0.12517981 0.13829261
-0.036520712 -0.06979506 0.07005497 0.04182589 -0.041881636 -0.13231249 0.09357114 -0.05823037
-0.1046232 0.010197948 -0.13702616 -0.016232552 0.21512821 0.08681822 0.021837648 -0.03583446
0.05513149 -0.04453902 0.0005406071 0.13059182 -0.06433932 -0.08618748 0.01949449 0.06368497
-0.006883996 0.14053966 -0.17879839 -0.09424763 0.037008524 -0.09905169 -0.11625508 0.051135127
-0.020174908 -0.04078425 -0.0055465726 0.044878706 0.012854765 -0.15568008 0.053358424 -0.14714734
00000000: 26f2 eebd 1b25 05bd 42cf 95bd ba9c bf3d
00000010: 3ea0 acbd 377b 613d fb71 f43d 6aac 0fbd
00000020: c0d0 103e d3b5 edbd 2db2 1abd d899 d3bd
00000030: 195e 843c 48bb 553b f33f 4e3d 41c1 03be
00000040: 2b75 9a3c d943 b7bb 538c a7bd 758c e9bc
00000050: 7e7c 3c3b 03c2 08bd dd5b 9f3d 3e2e 433e
00000060: d735 31bd d985 f73b b85c 013e b4cc 803e
00000070: a722 d5bd 4b90 06be 5a46 e1bd d306 90bd
00000080: 1a62 aa3d cbaa f1bd 2de9 043e 2e89 90bd
00000090: 9308 793d d5ee a03d b8a1 2d3c 7db2 c5bd
000000a0: a8c0 ec3d 5509 a53d 2caa 63bd 201e f9bd
000000b0: 5d96 0c3e 2b39 6abe 1111 0e3d b3b8 d43c
000000c0: 20a8 063e 5bfe 53bc 07b1 3dbd f6eb f73a
000000d0: cbd0 c4bd b595 11be 71da 9d3c 309f f8bd
000000e0: ca21 30be 00e2 eabd a24f 84bd 2636 d0bd
000000f0: 75fc 0b3e 09fb 533c 3ba1 5d3d 526b 7b3d
00000100: 4573 613c b638 983d 68ca 1b3d 2ef1 a33a
00000110: d437 293e 444b f0bd e0c5 3ebe ab4d d93d
00000120: 18bf 07be 6c01 06be 5b54 5d3d 2a02 8ebd
00000130: bc80 b9bd d2a1 9dbc a07f 3d3d 55dc 513c
00000140: bdee 3cbd aa76 8e3d 25e8 703d e5b9 97bb
00000150: 8a1f 413c f122 8c3d d149 3c3b eb3f 613d
00000160: 990d 9dbd c47a ee3d 56f2 543d 1e54 863d
00000170: 793d dabd 37b9 7d3d 86e6 d6bd e031 83bd
00000180: d88e 17bb fb6e 24bd c552 e2bd 58b4 c13d
00000190: 1f4a 57bd 80db 0fbd 424a 853d 6927 03bd
000001a0: eba1 53bd d375 0c3d 5505 a43d b1fe f63d
000001b0: 5af6 1abb 3845 e03c cfa6 68bd f8f2 8ebb
000001c0: e2ec 453d b23d 943d a62b 3fbc 8561 463d
000001d0: e473 b23d bc9b 743c f349 933c 3e2d 683d
000001e0: 83a5 2bbd 73b2 293d ecd4 aabd f961 0cbe
000001f0: d587 6bbc 4f70 2dbd 9507 b2bc f5cc d1bd
00000200: 5e4d d03d 5e88 4ebc 9185 7bbd e955 2ebe
00000210: 99ec 243e 9250 14bc 8fa7 9c3c 7d6a 41bd
00000220: 00d4 2e3c 95cd bd3d 789f f53b 338a 7fbd
00000230: eb70 eabc 1478 0ebe bdc8 853d e99f 153c
00000240: 2e38 febd 2523 d6bd 3d50 733d 0607 9c3d
00000250: 670c 1ebe cdd1 86bd fbf1 19bd 3957 143d
00000260: af0e 133e 2f69 c0bd 7b5e 32bd d224 123e
00000270: 1d70 94bd ee51 c53d c719 ba3d 4075 283e
00000280: 839b 43bc 974b 4c3d 1f83 113e a729 5dbd
00000290: 3198 203e f6a0 b5bd d9f2 233d 9767 193e
000002a0: 21e7 c83d 68cc 523c e518 c1bb 016d f33d
000002b0: bcf6 0fbd 1333 113e ee17 043c 697e 1cbe
000002c0: c3ee 5c3d 4dd7 533d ed75 58bd 6ab0 6cba
000002d0: 63db aebc 5c12 ee3d 5a92 52bd c8dd ac3b
000002e0: 4661 4d3d 9604 813c 9876 b33b 5ebc 28bd
000002f0: 4d61 623d 65bc fb3c 0194 183e 93af 91bc
00000300: 1a29 363d 152f b3bc 6af4 023d cc53 d8bd
00000310: cfc9 c13d d3c4 49bd c48d 523e 5750 24bc
00000320: 569f 9a3b 3d71 8ebd ac09 993c a5f9 8f3d
00000330: 81d2 8fbd 265a 1ebd 3efa b63c a19d c4bc
00000340: 6ad0 9e3d c4ba f43c 6412 a9bc a609 b1bc
00000350: 5d72 303d 8356 56bd 232f 00be 949c 0d3e
00000360: be96 15bd b6f0 8ebd fb78 8f3d a051 2b3d
00000370: 148c 2bbd ed7c 07be 3aa2 bf3d f882 6ebd
00000380: b044 d6bd 4b15 273c 9650 0cbe 21fa 84bc
00000390: 924a 5c3e c0cd b13d dee4 b23c 28c7 12bd
000003a0: 8fd1 613d 8c6e 36bd 87b7 0d3a ddb9 053e
000003b0: 55c4 83bd 1083 b0bd e9b2 9f3c 446d 823d
000003c0: 2593 e1bb a1e9 0f3e ed16 37be e704 c1bd
000003d0: 4096 173d 9ddb cabd 2517 eebd 1173 513d
000003e0: d945 a5bc 630d 27bd 06c0 b5bb bcd2 373d
000003f0: cb9c 523c 996a 1fbe 5d8e 5a3d cbad 16be

action_model._discrete_distribution.branches.0.weight f4 [4, 128]
0.0021067683 0.0076631317 0.004545589 -0.00515343 -0.0106104 -0.00030227192 -0.005629202 0.0018683787
-0.005025504 0.002857413 0.011535516 -0.0055869776 0.003823135 0.0011673308 -0.009778032 -0.009539975
0.0064681782 0.0021784254 0.008739872 -0.006008651 0.010478143 0.0021472508 -0.01903279 -0.0169853
0.008378039 0.000734345 0.012616761 0.013646341 1.068543e-05 0.0023188437 0.008110969 0.002836577
0.007612577 -0.008586724 -0.0006373418 -0.009892556 -0.014615871 0.0050147856 -0.00047621573 -0.0064002248
-0.0009237771 0.009139058 0.0033296966 0.0063431556 9.5428455e-05 0.0019352448 -0.015209101 -0.013878002
-0.008148688 -0.011185675 -0.008136183 -0.000345338 -0.0097324895 0.0009031726 -0.016953135 -0.0018784389
-0.0055030873 0.0065795477 0.0018229524 0.013110039 0.015215568 0.014120102 -0.007964486 0.005442831
-0.0027445764 -0.0005915965 0.0018040717 0.006355462 -0.006612399 -0.004579041 -0.0054701716 -0.0030329057
-0.0017532476 -0.0015975317 -0.010204339 -0.016747301 0.015634907 -0.029326564 0.013497322 -3.5726727e-05
-0.014375227 0.0023485862 -0.0015537402 -0.004030703 0.0074545643 0.004847847 -0.014487937 0.0026728369
-0.0053292564 0.0028287978 -0.004058343 -0.00981887 0.0089548305 -0.012407402 0.0006104565 -0.008236297
-0.0008454874 -0.0036643073 0.008878652 0.0071122497 -0.00031603625 0.006185883 -0.01379545 -0.0029596377
0.0034326632 0.0047250064 0.0072180307 0.0057912366 0.00060348085 0.011264051 -0.013825319 -0.0048740776
-0.0125574125 0.004629542 0.0071086995 0.011042981 0.008658177 -0.008395456 -0.006581209 0.017786311
0.0053498526 0.013049592 0.0026134031 0.0039441525 -0.002551997 0.011954812 0.009107866 -0.0035155267
0.0019741599 -0.006380744 0.002274785 -0.0025803975 -0.0044924915 -0.002420531 0.003562127 0.00882798
0.0012443508 -0.00455141 -0.0059783035 -0.00061137154 0.00066882244 0.017462255 -0.0130135985 0.011575849
0.0070457966 0.0022426578 -0.0034146856 -0.0058045196 0.019324875 0.0075935 -0.007111143 0.002268525
0.009603879 -0.0018421876 0.014742628 0.0017302718 0.0030475152 0.006218867 -0.00440976 -4.774715e-05
0.0010745623 0.0029222274 -0.010705786 -0.0023146125 0.007964281 0.005552958 -0.011921915 -0.018268295
0.008145503 -0.010180213 0.0064103114 0.0039246487 0.0002008037 0.004594459 0.005646035 0.0013395696
0.012370301 0.004253197 -0.0066819075 -0.0074463408 0.01260746 -0.0041135284 0.0044780574 -0.009136199
0.019334178 0.0022654291 -0.01105946 -0.0067562493 -0.005910357 0.0003795354 -0.006461484 0.0043147923
0.0020374719 0.011255361 -0.007880218 -0.00015782473 -0.015093766 0.014761259 -0.007773009 0.010745177
-0.00012828702 -0.014935682 0.0039045226 -0.009122849 -0.000684657 0.02027973 0.00844814 -0.00097098696
-0.012927422 -0.007159445 0.022498647 -1.280717e-05 0.01967468 -0.017771088 -0.0002815095 -0.0017768132
-0.014323684 -0.0140212 0.0030442616 0.003159317 -0.010860747 -0.0030794581 -0.012852442 -0.007752666
0.016962767 -0.0007656354 0.0029653772 0.003496977 -0.005527228 -0.005190125 0.014139301 0.006728054
-0.0051673125 -0.0028042009 -0.014632942 0.0076006064 0.008036841 0.007789972 -0.0005479224 -0.0011659596
0.0003408451 -0.0010884025 0.011271006 0.0016370912 -0.004566766 -0.004722671 -0.005257888 -0.0014768236
-0.0014431435 0.013232045 0.0037234288 0.00038542377 0.01257274 -0.021080079 -0.00737428 0.0030647726
00000000: b511 0a3b 021b fb3b 2af3 943b 1bde a8bb
00000010: 3ed7 2dbc 407a 9eb9 2b75 b8bb 63e4 f43a
00000020: fcac a4bb 6f43 3b3b 76ff 3c3c f712 b7bb
00000030: 908d 7a3b 1f01 993a 0a34 20bc 8e4d 1cbc
00000040: 03f3 d33b eac3 0e3b ae31 0f3c 38e4 c4bb
00000050: 84ac 2b3c e4b8 0c3b a7ea 9bbc c224 8bbc
00000060: 0b44 093c 0f81 403a 88b6 4e3c e794 5f3c
00000070: 9345 3337 bef7 173b dfe3 043c dde5 393b
00000080: ed72 f93b 55af 0cbc 4913 27ba 6314 22bc
00000090: 6877 6fbc 1253 a43b 98ac f9b9 fab8 d1bb
000000a0: a229 72ba fdbb 153c 0a37 5a3b 3fda cf3b
000000b0: c320 c838 0aa8 fd3a 982f 79bc 8f60 63bc
000000c0: 1382 05bc 1f44 37bc a04d 05bc 7b0e b5b9
000000d0: 0575 1fbc e3c2 6c3a 4de1 8abc f335 f6ba
000000e0: 3e53 b4bb 3f99 d73b 22f0 ee3a 7dcb 563c
000000f0: b84a 793c 0058 673c 7a7d 02bc c759 b23b
00000100: 5ade 33bb 5e15 1bba 9a76 ec3a 7b41 d03b
00000110: d3ac d8bb c80b 96bb 203f b3bb b7c3 46bb
00000120: 3acd e5ba 4564 d1ba 1a30 27bc a331 89bc
00000130: c714 803c 433e f0bc df23 5d3c 48d9 15b8
00000140: 1286 6bbc bdea 193b dfa6 cbba fd13 84bb
00000150: 6b45 f43b b0da 9e3b d05e 6dbc c32a 2f3b
00000160: 0ba1 aebb 5a63 393b d9fb 84bb 53df 20bc
00000170: 48b7 123c 6a48 4bbc 0b07 203a 89f1 06bc
00000180: b3a3 5dba e024 70bb c477 113c e00d e93b
00000190: abb1 a5b9 f3b2 ca3b 5006 62bc 7bf6 41bb
000001a0: 88f6 603b 3ad4 9a3b 3b85 ec3b 6ac4 bd3b
000001b0: ea32 1e3a db8c 383c 9783 62bc bab6 9fbb
000001c0: 9bbd 4dbc 6ab3 973b 18f0 e83b 9fed 343c
000001d0: 07db 0d3c 188d 09bc 2fa7 d7bb 99b4 913c
000001e0: d14d af3b f5cd 553c a145 2b3b f33d 813b
000001f0: 683f 27bb 1ede 433c 2939 153c c064 66bb
00000200: e860 013b 8f15 d1bb 8f14 153b e31b 29bb
00000210: c035 93bb c5a1 1ebb 9372 693b 3ba3 103c
00000220: 7c19 a33a ff23 95bb a5e5 c3bb 7344 20ba
00000230: ea53 2f3a 010d 8f3c fd36 55bc a1a8 3d3c
00000240: 6de0 e63b 8ef9 123b ebc8 5fbb d733 bebb
00000250: 334f 9e3c e5d2 f83b 9704 e9bb 89ab 143b
00000260: 9759 1d3c 8f75 f1ba 108b 713c 4aca e23a
00000270: d2b8 473b a3c7 cb3b bf7f 90bb 1d44 48b8
00000280: 54d8 8c3a d782 3f3b 5267 2fbc c1b0 17bb
00000290: 9e7c 023c 97f5 b53b 2354 43bc 64a7 95bc
000002a0: b774 053c e8ca 26bc 970d d23b 579a 803b
000002b0: d58e 5239 1e8d 963b 6002 b93b 7f94 af3a
000002c0: ceac 4a3c 675e 8b3b e7f3 dabb 6f00 f4bb
000002d0: 858f 4e3c c7ca 86bb abbc 923b ffaf 15bc
000002e0: b662 9e3c 9877 143b bd32 35bc 8763 ddbb
000002f0: abab c1bb 61fc c639 dbba d3bb 1a63 8d3b
00000300: 1b87 053b 6868 383c 081c 01bc c17d 25b9
00000310: d84b 77bc 35d9 713c bab4 febb 8a0c 303c
00000320: c984 06b9 cab4 74bc 05e3 7f3b 0178 15bc
00000330: 8e7a 33ba ad21 a63c 116a 0a3c d589 7eba
00000340: 8acd 53bc c799 eabb 154f b83c 60de 56b7
00000350: cb2c a13c ac94 91bc 9197 93b9 f5e3 e8ba
00000360: e3ad 6abc 2db9 65bc 3c82 473b 8b0c 4f3b
00000370: 46f1 31bc bcd0 49bb 0d93 52bc 130a febb
00000380: 80f5 8a3c ecb4 48ba c656 423b 8a2d 653b
00000390: c01d b5bb ed11 aabb 87a8 673c 0277 dc3b
000003a0: 8f52 a9bb afc6 37bb 02bf 6fbc 820e f93b
000003b0: f4ac 033c 0543 ff3b 73a2 0fba 1dd3 98ba
000003c0: 74b3 b239 baa8 8eba 07aa 383c aa93 d63a
000003d0: cfa4 95bb a3c0 9abb 5d4a acbb fa91 c1ba
000003e0: dc27 bdba 38cb 583c c504 743b b412 ca39
000003f0: e5fd 4d3c 21b0 acbc f2a3 f1bb 5ada 483b

action_model._discrete_distribution.branches.0.bias f4 [4]
0.0 0.0 0.0 0.0
00000000: 0000 0000 0000 0000 0000 0000 0000 0000
