results/ppo/defender_1/defender_1-769.onnx (onnx, 533910 bytes, 5 tensors)

network_body._body_endoder.seq_layers.0.weight f4 [128, 900]
0.009766343 -0.002157257 -0.023802148 0.020628102 0.03732635 -0.023512788 -0.0067043155 -0.019176064
0.018912854 -0.05004813 0.055457298 0.014979669 -0.00054587953 0.067316435 -0.071041375 -0.0073729786
-0.041133482 -0.036024865 -0.07705894 0.063991256 -0.015828319 0.017634489 0.0076978984 0.048436143
-0.03739589 -0.010494631 -0.0050494885 -0.020641662 0.010923899 0.03108467 -0.010036701 -0.078193344
0.02806377 -0.022818685 0.009515337 0.040493537 -0.0030935537 0.015101699 -0.09832316 0.037835147
-0.035094574 -0.0016898656 -0.0016560348 -0.002926245 0.02260982 0.017853133 0.013682026 -0.008823206
-0.023020893 -0.019492857 -0.01791403 0.0067666224 0.027029859 -0.0019521884 -0.009899954 0.019091846
-0.035795245 0.008200382 0.0018616884 -0.044475656 -0.03088808 0.010554779 -0.026973972 0.057682592
-0.037455767 -0.02160343 -0.010322684 -0.00011175308 0.025573669 -0.012710129 0.018871333 0.017368788
-0.02930343 0.0052676755 -0.010271937 0.06867596 0.011971724 -0.004520735 0.025466911 0.03512488
-0.059040345 0.038195353 -0.0019142291 -0.017790075 -0.016745724 0.025293287 0.031820837 0.02192374
-0.034681257 -0.027107708 -0.029673833 0.005277481 -0.021808632 0.05256639 -0.028621126 0.00013743075
0.041856736 -0.017382782 0.012640268 0.023104109 0.029936796 -0.01356044 -0.010506029 0.03017177
0.06835136 0.02414124 -0.02608759 -0.008834121 0.012836789 -0.04984951 0.035052624 0.023491476
0.065376125 -0.0045087757 0.046181537 -0.05542774 -0.014328097 0.040626775 -0.025129018 -0.023860384
0.00086092524 -0.022981454 -0.05341902 -0.0032725967 -0.010790697 0.02897981 0.014845671 -0.03544166
-0.036807977 -0.04156586 -0.019935016 0.021894034 -0.067270204 -0.003837605 -0.05422068 0.036112458
-0.02408403 -0.0069732782 0.010060317 -0.03338421 -0.008981162 0.038232833 0.02969223 0.010486803
0.03407525 -0.00885216 -0.010952594 0.073497094 0.04286368 0.057630073 -0.024528736 -0.0144502465
0.0060774274 -0.027926696 0.0022513538 -0.054577168 -0.013866986 -0.045260552 0.032886583 0.058235444
-0.011010075 0.019154303 -0.032624353 -0.0106478715 -0.06422529 -0.026952503 -0.011704555 -0.010862312
-0.052924488 -0.0044403337 -0.016228085 0.04226963 -0.0010704334 0.045427836 -0.07334788 0.01586861
0.00887052 -0.015940543 0.031530604 0.002193624 -0.052964784 -0.0046796845 0.03589426 -0.01465999
-0.0095805945 0.033389978 0.015348026 -0.02551743 -0.03246265 0.032400124 -0.06493302 0.030909432
0.010118548 0.019629203 -0.0062607997 -0.013042384 -0.058294643 -0.03013215 -0.07368846 -0.034104418
0.027833356 0.02683151 -0.035681453 0.030584997 -0.019076927 0.02279282 -0.039937887 -0.01599757
0.0097443275 0.057731472 0.001685162 0.061818384 0.026037157 -0.007603768 -0.06122739 0.056849364
0.0070532374 -0.028025428 0.03268225 0.016822752 -0.0270642 -0.05495532 0.067794174 0.018647049
-0.032060504 0.003551576 0.010504261 0.020752179 -0.051358357 -0.06362991 -0.0036198325 0.013026737
-0.008455673 0.043595865 0.039917327 0.011007431 0.0549787 0.02127846 0.003293764 -0.0085967975
-0.038209025 0.024687532 -0.010952504 0.080993444 0.039200712 -0.057678264 -0.009551531 0.010334191
0.037798297 -0.0010208621 -0.004509392 0.013101139 0.053290043 -0.009371574 0.035609376 0.017620202
00000000: 0303 203c c460 0dbb b9fc c2bc 44fc a83c
00000010: 84e3 183d e49d c0bc e0af dbbb 1f17 9dbc
00000020: 21ef 9a3c 45ff 4cbd 3127 633d 496d 753c
00000030: 5b19 0fba 33dd 893d 247e 91bd 0799 f1bb
00000040: 957b 28bd cf8e 13bd 14d1 9dbd d90d 833d
00000050: 64aa 81bc 3476 903c a73e fc3b fa64 463d
00000060: 6f2c 19bd acf1 2bbc 2e76 a5bb b418 a9bc
00000070: 27fa 323c 47a5 fe3c fa70 24bc d523 a0bd
00000080: fee5 e53c 40ee babc 37e6 1b3c 8ddc 253d
00000090: 38bd 4abb 1e6d 773c a75d c9bd 07f9 1a3d
000000a0: 54bf 0fbd 7b7e ddba 4f0f d9ba 3fc6 3fbb
000000b0: 3b38 b93c bc40 923c 942a 603c 358f 10bc
000000c0: 5096 bcbc 7caf 9fbc 72c0 92bc 8bba dd3b
000000d0: b96d dd3c 93e0 ffba 6b33 22bc 8166 9c3c
000000e0: 099e 12bd e55a 063c e603 f43a 1b2c 36bd
000000f0: 0009 fdbc f4ed 2c3c 85f8 dcbc 9544 6c3d
00000100: 386b 19bd adf9 b0bc 7a20 29bc fa5c eab8
00000110: df7f d13c 253e 50bc 0e98 9a3c fd48 8e3c
00000120: bf0d f0bc 779c ac3b a04b 28bc fba5 8c3d
00000130: 0d25 443c ac22 94bb fc9f d03c 1bdf 0f3d
00000140: 4ad4 71bd bb72 1c3d dfe6 faba 7ebc 91bc
00000150: 542e 89bc de33 cf3c 9156 023d 6a99 b33c
00000160: ef0d 0ebd fc10 debc 8a16 f3bc b8ee ac3b
00000170: 04a8 b2bc db4f 573d da76 eabc 491b 1039
00000180: f871 2b3d 5666 8ebc 2019 4f3c d444 bd3c
00000190: 033e f53c 9c2c 5ebc 7b21 2cbc ca2a f73c
000001a0: ccfb 8b3d dac3 c53c a4b5 d5bc fdbc 10bc
000001b0: 6551 523c 002f 4cbd 5793 0f3d 3271 c03c
000001c0: ebe3 853d 5abe 93bb da28 3d3d 3308 63bd
000001d0: 65c0 6abc 4368 263d 5fdb cdbc da76 c3bc
000001e0: b7af 613a 9a43 bcbc e7cd 5abd 1079 56bb
000001f0: 77cb 30bc 1167 ed3c 423b 733c 462b 11bd
00000200: f6c3 16bd f740 2abd c24e a3bc 1e5b b33c
00000210: f6c4 89bd 5480 7bbb 8116 5ebd a8ea 133d
00000220: df4b c5bc 1980 e4bb 07d4 243c e2bd 08bd
00000230: b925 13bc 089a 1c3d 1f3d f33c d7d0 2b3c
00000240: 7d92 0b3d a608 11bc 8272 33bc a585 963d
00000250: d391 2f3d 830d 6c3d 7df0 c8bc bac0 6cbc
00000260: 2825 c73b 87c6 e4bc 738b 133b 4f8c 5fbd
00000270: 5b32 63bc 2163 39bd 15b4 063d 4a88 6e3d
00000280: 9a63 34bc 7ce9 9c3c 1da1 05bd 6974 2ebc
00000290: 8d88 83bd 7fcb dcbc 76c4 3fbc d7f7 31bc
000002a0: 59c7 58bd 3880 91bb c3f0 84bc eb22 2d3d
000002b0: c94d 8cba 8a12 3a3d 6a37 96bd e3fe 813c
000002c0: a855 113c be95 82bc 3c26 013d e7c2 0f3b
000002d0: 9af1 58bd 0a58 99bb dc05 133d 7430 70bc
000002e0: edf7 1cbc eec3 083d 4976 7b3c ee09 d1bc
000002f0: 8ef7 04bd feb5 043d 9afb 84bd c735 fd3c
00000300: 44c8 253c 6ccd a03c 6527 cdbb b9af 55bc
00000310: 5dc6 6ebd b3d7 f6bc fae9 96bd 13b1 0bbd
00000320: c702 e43c c1cd db3c b726 12bd 638d fa3c
00000330: 3747 9cbc 02b8 ba3c e995 23bd 560d 83bc
00000340: aca6 1f3c d677 6c3d a7e0 dc3a 4635 7d3d
00000350: e04b d53c 0729 f9bb 92c9 7abd e1da 683d
00000360: d81e e73b 9595 e5bc d3dd 053d decf 893c
00000370: beb5 ddbc d418 61bd acd7 8a3d b2c1 983c
00000380: e051 03bd 8fc1 683b 101a 2c3c 7900 aa3c
00000390: 245d 52bd 6650 82bd b63a 6dbb 186e 553c
000003a0: aa89 0abc 9491 323d 5a80 233d 8358 343c
000003b0: 5831 613d 2a50 ae3c 31dc 573b 95d9 0cbc
000003c0: 1181 1cbd 823d ca3c 2272 33bc e4df a53d
000003d0: ed90 203d 0b40 6cbd 067e 1cbc bd50 293c
000003e0: 63d2 1a3d 73ce 85ba 86c3 93bb 29a6 563c
000003f0: a946 5a3d 3b8b 19bc 23db 113d 3e58 903c

network_body._body_endoder.seq_layers.0.bias f4 [128]
0.0 0.0 0.0 0.0 0.0 0.0 0.0 0.0
0.0 0.0 0.0 0.0 0.0 0.0 0.0 0.0
0.0 0.0 0.0 0.0 0.0 0.0 0.0 0.0
0.0 0.0 0.0 0.0 0.0 0.0 0.0 0.0
0.0 0.0 0.0 0.0 0.0 0.0 0.0 0.0
0.0 0.0 0.0 0.0 0.0 0.0 0.0 0.0
0.0 0.0 0.0 0.0 0.0 0.0 0.0 0.0
0.0 0.0 0.0 0.0 0.0 0.0 0.0 0.0
0.0 0.0 0.0 0.0 0.0 0.0 0.0 0.0
0.0 0.0 0.0 0.0 0.0 0.0 0.0 0.0
0.0 0.0 0.0 0.0 0.0 0.0 0.0 0.0
0.0 0.0 0.0 0.0 0.0 0.0 0.0 0.0
0.0 0.0 0.0 0.0 0.0 0.0 0.0 0.0
0.0 0.0 0.0 0.0 0.0 0.0 0.0 0.0
0.0 0.0 0.0 0.0 0.0 0.0 0.0 0.0
0.0 0.0 0.0 0.0 0.0 0.0 0.0 0.0
00000000: 0000 0000 0000 0000 0000 0000 0000 0000
00000010: 0000 0000 0000 0000 0000 0000 0000 0000
00000020: 0000 0000 0000 0000 0000 0000 0000 0000
00000030: 0000 0000 0000 0000 0000 0000 0000 0000
00000040: 0000 0000 0000 0000 0000 0000 0000 0000
00000050: 0000 0000 0000 0000 0000 0000 0000 0000
00000060: 0000 0000 0000 0000 0000 0000 0000 0000
00000070: 0000 0000 0000 0000 0000 0000 0000 0000
00000080: 0000 0000 0000 0000 0000 0000 0000 0000
00000090: 0000 0000 0000 0000 0000 0000 0000 0000
000000a0: 0000 0000 0000 0000 0000 0000 0000 0000
000000b0: 0000 0000 0000 0000 0000 0000 0000 0000
000000c0: 0000 0000 0000 0000 0000 0000 0000 0000
000000d0: 0000 0000 0000 0000 0000 0000 0000 0000
000000e0: 0000 0000 0000 0000 0000 0000 0000 0000
000000f0: 0000 0000 0000 0000 0000 0000 0000 0000
00000100: 0000 0000 0000 0000 0000 0000 0000 0000
00000110: 0000 0000 0000 0000 0000 0000 0000 0000
00000120: 0000 0000 0000 0000 0000 0000 0000 0000
00000130: 0000 0000 0000 0000 0000 0000 0000 0000
00000140: 0000 0000 0000 0000 0000 0000 0000 0000
00000150: 0000 0000 0000 0000 0000 0000 0000 0000
00000160: 0000 0000 0000 0000 0000 0000 0000 0000
00000170: 0000 0000 0000 0000 0000 0000 0000 0000
00000180: 0000 0000 0000 0000 0000 0000 0000 0000
00000190: 0000 0000 0000 0000 0000 0000 0000 0000
000001a0: 0000 0000 0000 0000 0000 0000 0000 0000
000001b0: 0000 0000 0000 0000 0000 0000 0000 0000
000001c0: 0000 0000 0000 0000 0000 0000 0000 0000
000001d0: 0000 0000 0000 0000 0000 0000 0000 0000
000001e0: 0000 0000 0000 0000 0000 0000 0000 0000
000001f0: 0000 0000 0000 0000 0000 0000 0000 0000

network_body._body_endoder.seq_layers.2.weight f4 [128, 128]
0.05562392 -0.063445814 0.056590904 -0.079580195 0.18092036 0.0012806043 0.01421519 0.11852272
0.04264386 -0.0665308 0.047784388 -0.18320653 0.0052505946 -0.12014662 0.07694959 0.027360234
-0.11542874 -0.036503892 0.054966543 -0.05453069 0.02599485 0.16927245 0.01846684 0.058696307
-0.024413848 0.056146238 0.0455059 -0.08622018 -0.10152494 -0.04589204 0.004029874 -0.12149187
-0.013919805 0.13338692 -0.00086859014 -0.07030271 -0.014817606 0.067231834 -0.0022674524 -0.15485534
-0.13500139 0.12319036 -0.21572253 -0.13625592 0.050442718 -0.08237979 -0.029969696 0.096900366
-0.0898186 -0.10456289 0.065128826 -0.06799233 0.0067297723 0.0216737 0.15242754 -0.004059624
0.028757872 -0.04964565 0.09234171 0.044143748 -0.055944003 0.019276941 0.075089216 -0.09063271
-0.18286897 0.039441798 -0.08296911 0.03333286 -0.011861383 0.028814867 -0.021310465 -0.004308544
-0.108960405 0.047316864 -0.036685087 -0.025487464 -0.11673374 0.011157205 0.07343389 -0.04889191
-0.108843595 0.026531462 0.022448301 -0.024541864 -0.1434853 -0.100250795 -0.099490054 -0.000980922
-0.022889566 0.040528826 -0.1001253 -0.020879297 -0.043974914 0.087162286 0.04418536 -0.0076170075
-0.1638372 0.032677196 -0.04882388 7.254248e-05 -0.096983925 0.054801606 -0.0408699 -0.08612485
0.08279642 -0.028246539 0.03099195 -0.052531496 0.034550395 0.020102803 0.061829 -0.056523945
0.09060703 -0.071562484 0.08178199 -0.015680881 -0.08835646 0.020569952 0.0068940935 0.19341837
0.20251596 0.023808898 -0.053131897 0.08758804 0.116685174 0.023211436 -0.035786 -0.033587646
-0.14997311 -0.062619045 0.24002708 0.05621987 -0.13923033 0.077490374 -0.031082671 -0.12847589
-0.060063582 0.12156592 -0.08770771 -0.039601646 0.024724126 -0.07678367 -0.057285316 0.114822224
-0.098845646 0.04612764 0.0049338154 0.04242679 -0.031910036 -0.025050422 -0.0543373 -0.04979943
0.043242045 0.01700794 0.10055075 0.06263885 -0.016107213 -0.112537354 -0.08003924 -0.058534265
0.1489582 0.061597865 0.071865425 -0.08884958 0.10413947 -0.004348156 -0.08300433 0.11662464
-0.14996643 -0.012867563 0.1786042 0.05860478 -0.003009621 0.16053711 -0.10216769 0.14092293
0.069373064 -0.016943658 0.08065061 0.23567553 -0.11471982 -0.016954284 0.011483964 0.0067218076
0.04431447 0.056960065 0.07791903 -0.010243441 -0.13824166 0.081508055 0.012134433 -0.010343137
0.015194863 -0.022045394 -0.1173411 -0.15078346 -0.09949518 -0.08255069 -0.057758737 -0.07656291
0.041186117 -0.00503916 -0.03759246 -0.046959717 0.1315431 0.06508871 -0.01984668 -0.039892882
0.10887364 -0.16009611 -0.022391237 0.14183743 0.088138334 -0.016061237 -0.079740405 0.11011891
0.03534171 -0.018468952 0.0038681298 0.009830195 -0.036748756 -0.029877655 -0.062179968 0.0828968
-0.01494289 0.03861469 -0.004731976 -0.01597644 -0.013511059 0.01584841 0.0773997 -0.06373883
-0.09925142 -0.06665568 -0.0074619874 0.08594095 -0.069735646 0.025516178 -0.031282634 -0.05148539
0.12362235 -0.0022480304 0.040308483 -0.099042945 -0.037210032 0.013063761 -0.0020914658 -0.00827044
0.005709938 -0.07210625 0.12569098 -0.06308921 0.14145981 0.108630285 -0.15982346 -0.010220645
00000000: e8d5 633d e1ef 81bd ddcb 673d f1fa a2bd
00000010: 3043 393e f3d9 a73a d4e6 683c 0abc f23d
00000020: 54ab 2e3d 4d41 88bd 90b9 433d 7e9a 3bbe
00000030: 2e0d ac3b 6e0f f6bd bf97 9d3d 9222 e03c
00000040: e765 ecbd 1b85 15bd 9924 613d 935b 5fbd
00000050: 27f3 d43c c255 2d3e c547 973c 8a6b 703d
00000060: 8dff c7bc 99f9 653d 6564 3a3d 3594 b0bd
00000070: 4fec cfbd 4bf9 3bbd 090d 843b bbd0 f8bd
00000080: e50f 64bc 9596 083e 19b2 63ba defa 8fbd
00000090: 8bc5 72bc d8b0 893d 8a99 14bb 6692 1ebe
000000a0: ce3d 0abe 3a4b fc3d 5ee6 5cbe ac86 0bbe
000000b0: 069d 4e3d bcb6 a8bd 0283 f5bc b373 c63d
000000c0: d0f2 b7bd 1225 d6bd 4362 853d 903f 8bbd
000000d0: 6c85 dc3b 0b8d b13c f715 1c3e 9806 85bb
000000e0: a195 eb3c 3d59 4bbd a71d bd3d 13d0 343d
000000f0: 8a25 65bd adea 9d3c 60c8 993d a49d b9bd
00000100: 0142 3bbe b98d 213d b5eb a9bd 0988 083d
00000110: 3f56 42bc 280d ec3c 4993 aebc b02e 8dbb
00000120: a226 dfbd 54cf 413d 1a43 16bd 16cb d0bc
00000130: 1912 efbd b6cc 363c 8264 963d e242 48bd
00000140: 64e9 debd 8258 d93c 80e5 b73c 050c c9bc
00000150: cfed 12be 4a50 cdbd 71c1 cbbd 4892 80ba
00000160: e682 bbbc 8e01 263d 7e0e cdbd 0f0b abbc
00000170: 0a1f 34bd 2482 b23d b5fb 343d 1798 f9bb
00000180: f0c4 27be 86d8 053d 8cfb 47bd f321 9838
00000190: 829f c6bd a677 603d 3267 27bd 3a62 b0bd
000001a0: 2b91 a93d 4965 e7bc d4e2 fd3c 442b 57bd
000001b0: b784 0d3d a2ae a43c 6840 7d3d a785 67bd
000001c0: 2e90 b93d 5a8f 92bd 517d a73d 3175 80bc
000001d0: 3bf4 b4bd 5182 a83c d9e7 e13b 770f 463e
000001e0: 5860 4f3e e10a c33c d5a0 59bd 5c61 b33d
000001f0: a3f8 ee3d e925 be3c 5794 12bd 3393 09bd
00000200: 8d92 19be 6a3e 80bd a9c9 753e ce46 663d
00000210: 6592 0ebe 46b3 9e3d 16a1 febc 2f8f 03be
00000220: 3b05 76bd 8ef7 f83d 1aa0 b3bd 5635 22bd
00000230: 408a ca3c c240 9dbd 02a4 6abd ea27 eb3d
00000240: 966f cabd 56f0 3c3d d8ab a13b b7c7 2d3d
00000250: 19b4 02bd 8b36 cdbc ca90 5ebd 7dfa 4bbd
00000260: 921e 313d 3c54 8b3c 8ded cd3d cc48 803d
00000270: 46f3 83bc fc79 e6bd 9deb a3bd a0c1 6fbd
00000280: 8088 183e 0b4e 7c3d 2e2e 933d c5f6 b5bd
00000290: 1347 d53d fa7a 8ebb 2dfe a9bd e6d8 ee3d
000002a0: cd90 19be 79d2 52bc 05e4 363e 910b 703d
000002b0: 103d 45bb d763 243e 4b3d d1bd 1a4e 103e
000002c0: 7713 8e3d 6dcd 8abc 262c a53d ed54 713e
000002d0: 3af2 eabd b6e3 8abc 3c27 3c3c 9c42 dc3b
000002e0: 1783 353d f54e 693d 0394 9f3d 1bd4 27bc
000002f0: 398f 0dbe b2ed a63d 80cf 463c 4376 29bc
00000300: e0f3 783c 8b98 b4bc 8850 f0bd fb66 1abe
00000310: 21c4 cbbd 5610 a9bd 6d94 6cbd 04cd 9cbd
00000320: c6b2 283d 8a1f a5bb 8dfa 19bd d558 40bd
00000330: 3cb3 063e 3b4d 853d 8195 a2bc b866 23bd
00000340: 25f9 de3d 3cf0 23be d46d b7bc d53d 113e
00000350: df81 b43d db92 83bc f04e a3bd 0686 e13d
00000360: 78c2 103d 334c 97bc 7380 7d3b d40e 213c
00000370: dd85 16bd fcc1 f4bc 6cb0 7ebd ccc5 a93d
00000380: 06d3 74bc 702a 1e3d b10e 9bbb 06e1 82bc
00000390: 7d5d 5dbc 86d4 813c bc83 9e3d 8189 82bd
000003a0: 5444 cbbd c682 88bd b083 f4bb cf01 b03d
000003b0: 90d1 8ebd 4e07 d13c 3822 00bd 58e2 52bd
000003c0: b72d fd3d b153 13bb 821a 253d 07d7 cabd
000003d0: 8c69 18bd 6309 563c f910 09bb bd80 07bc
000003e0: 6e1a bb3b 71ac 93bd 23b5 003e ea34 81bd
000003f0: d7da 103e 8e79 de3d c3a8 23be 7e74 27bc

action_model._discrete_distribution.branches.0.weight f4 [4, 128]
0.012028528 0.007980532 0.006641045 0.007866999 3.5674875e-06 -0.00445047 0.00944902 0.008054329
0.004478806 0.010641905 -0.00784148 0.010183455 0.0025248593 0.009936492 -0.02177164 0.0018803937
0.0013680063 0.005417216 0.00587205 0.012487613 0.016886907 0.0104647605 0.011149154 -0.017795658
-0.005055938 0.0028536157 -0.005620707 -0.008925652 0.0046165767 0.0011601116 2.5319894e-05 0.0044094883
-0.007903178 -0.0006869644 0.0052870484 -0.004520673 0.00806819 0.0042134114 -0.0013461132 0.016547227
0.0020445676 0.009989865 -0.0022867278 0.012324633 -0.0019091131 -0.0033430916 0.007535913 -0.008466946
-0.003070289 0.010927121 0.005257662 0.010162856 0.008121404 -0.005838777 0.008133412 0.0026421088
-0.0030687794 0.00042727598 -0.0038001742 0.0004520163 -0.0015873973 -0.0023833946 -0.0059110257 0.0022828497
0.0047212136 0.007825787 -0.013682661 -0.007186135 -0.0045390315 0.016720157 -0.005936766 0.009952335
0.0044735894 0.005875296 0.0002216684 -0.0058741905 -0.00688278 -0.0017805811 0.005696218 -0.0012252601
0.00012428028 -0.012725003 0.01749107 0.0090754265 -0.0074781515 0.0037637153 -0.004165585 0.0028287934
0.010452843 0.0084255235 0.011481296 0.0016457461 -0.008531391 0.010475434 0.005091417 -0.011311401
-0.0007579073 -0.010864824 0.01962087 0.0030242517 0.009321648 0.0045369244 0.00238872 0.014800213
0.009046033 0.0021471481 0.0017612545 0.010962798 0.010569047 -0.0064563164 0.008454796 0.014344093
0.0154014025 -0.006483756 -0.012331666 -0.007913977 -0.013819456 0.0023860843 0.016160771 0.007743526
-0.0034635297 0.003989897 -0.005361575 -0.0030661065 0.006860198 -0.0028660449 0.008195222 0.005398907
-0.011383592 -0.0021654202 0.0034772889 -0.013294562 0.010050274 -0.018526053 0.0015938452 -0.0043064468
-0.0034051903 -0.008043936 0.0021216364 0.0026182602 0.00044974693 0.010593063 0.004916018 0.001226834
-0.0046712267 0.01629412 0.0030019954 0.0029019883 -0.003605716 -0.0038492195 0.015292582 0.007073473
0.0036420138 -0.00563665 -0.012554142 0.0079744365 -0.0024627172 0.013018158 -0.009423303 -0.00949395
0.013843479 0.0019208106 0.0016366382 0.003858494 0.0145325065 0.005883358 0.0022398809 0.0050735087
0.0071446984 -0.0016491782 0.011937529 0.020859841 0.0038520822 -0.0012781763 -0.00017525694 0.0023788235
0.00026904486 0.010480108 -0.003768509 0.0013843669 0.00436307 0.005344556 0.004326902 0.013342735
0.0041192207 -0.027093867 0.004527385 0.009490865 -0.016324949 0.010205894 0.0019660036 0.005033128
0.007457424 -0.00028528343 -0.008801127 0.0047140606 -0.009949445 0.0027603714 0.0019883236 -0.011089011
0.016657379 -0.0047501954 -0.001548255 0.0068173553 -0.0018426565 -0.010190338 -0.008944576 -0.0014747651
0.016723676 0.009035195 0.0152559 0.0056271553 -0.009222066 0.0048767673 0.0017804255 0.014688577
-0.0030707177 -0.012459221 -0.009475123 0.018145543 -0.003868837 -0.0042439085 0.0059825494 0.004385534
-0.008229369 0.008830733 -0.0065418333 -0.015448011 -0.0065314383 -0.007038351 0.004133518 0.00060707744
0.0037681907 0.0067608417 0.0069410787 -0.007120582 0.01706629 0.0073931213 0.004138487 -0.0038817849
-0.019379897 0.0011272002 0.011297163 -0.01814916 0.0110305725 0.007992822 0.009877018 0.0037449729
0.007650436 9.955914e-05 0.022910079 -0.011608118 -0.0026954364 0.007016301 -0.013511041 -0.0040915674
00000000: 4e13 453c c7c0 023c 209d d93b 96e4 003c
00000010: f868 6f36 40d5 91bb 10d0 1a3c 4ef6 033c
00000020: f3c2 923b 625b 2e3c 8d79 00bc 82d8 263c
00000030: 1c78 253b abcc 223c 705a b2bc 8b77 f63a
00000040: ad4e b33a e782 b13b 536a c03b d898 4c3c
00000050: 6956 8a3c 6374 2b3c f1aa 363c 33c8 91bc
00000060: 48ac a5bb ba03 3b3b e82d b8bb e63c 12bc
00000070: a746 973b e30e 983a 0f66 d437 787d 903b
00000080: 557c 01bc 6715 34ba fa3e ad3b 2722 94bb
00000090: 7130 043c a810 8a3b 1070 b0ba 0d8e 873c
000000a0: 27fe 053b 88ac 233c eddc 15bb 42ed 493c
000000b0: 353b faba c517 5bbb d2ef f63b f2b8 0abc
000000c0: e736 49bb ab07 333c 7748 ac3b 1c82 263c
000000d0: a30f 053c 3653 bfbb 0142 053c 3b27 2d3b
000000e0: 931d 49bb 0304 e039 580c 79bb 9afc ec39
000000f0: 3710 d0ba ba32 1cbb 47b1 c1bb dd9b 153b
00000100: 69b4 9a3b bb37 003c 3d2d 60bc ab79 ebbb
00000110: 28bc 94bb b6f8 883c 3489 c2bb 1e0f 233c
00000120: 3097 923b 8e85 c03b a86f 6839 487c c0bb
00000130: f288 e1bb 6362 e9ba 57a7 ba3b e898 a0ba
00000140: 3c51 0239 887c 50bc 6f49 8f3c 19b1 143c
00000150: 480b f5bb aaa8 763b 767f 88bb 4763 393b
00000160: 6742 2b3c 350b 0a3c 0c1c 3c3c 13b6 d73a
00000170: 3fc7 0bbc 28a1 2b3c e7d5 a63b 7453 39bc
00000180: 4cae 46ba 6002 32bc f2bb a03c 8632 463b
00000190: d3b9 183c 7baa 943b 128c 1c3b 987c 723c
000001a0: d035 143c 2bb7 0c3b e5d9 e63a 4f9d 333c
000001b0: cc29 2d3c 828f d3bb fc85 0a3c 7d03 6b3c
000001c0: 2a56 7c3c b075 d4bb c20a 4abc a0a9 01bc
000001d0: 006b 62bc da5f 1c3b 9863 843c 67bd fd3b
000001e0: 63fc 62bb afbd 823b 27b0 afbb bbf0 48bb
000001f0: 83cb e03b 41d4 3bbb 4145 063c 50e9 b03b
00000200: 3f82 3abc b9e9 0dbb 3ae3 633b 6fd1 59bc
00000210: e8a9 243c f3c3 97bc 92e8 d03a 181d 8dbb
00000220: 9d29 5fbb b7ca 03bc 270b 0b3b 1e97 2b3b
00000230: 03cc eb39 878e 2d3c 8c16 a13b b8cd a03a
00000240: 1711 99bb 3f7b 853c 20bd 443b 492f 3e3b
00000250: e04d 6cbb 3043 7cbb bd8d 7a3c 98c8 e73b
00000260: daae 6e3b a6b3 b8bb e3af 4dbc 36a7 023c
00000270: 8a65 21bb 1d4a 553c 3364 1abc 838c 1bbc
00000280: c2cf 623c b5c3 fb3a 7784 d63a cade 7c3b
00000290: c019 6e3c 2fc9 c03b f7ca 123b ad3f a63b
000002a0: 131e ea3b 3d29 d8ba a095 433c 42e2 aa3c
000002b0: 3773 7c3b 7b88 a7ba 2dc5 37b9 09e6 1b3b
000002c0: 970e 8d39 c2b4 2b3c 17f9 76bb a573 b53a
000002d0: 15f8 8e3b 6321 af3b afc8 8d3b 7d9b 5a3c
000002e0: 87fa 863b f5f3 ddbc 755a 943b 937f 1b3c
000002f0: e6bb 85bc 9f36 273c 11d8 003b f0ec a43b
00000300: 685d f43b 1892 95b9 9a32 10bc 6878 9a3b
00000310: ff02 23bc 59e7 343b 894e 023b afae 35bc
00000320: 0e75 883c 87a7 9bbb d1ee caba 1f64 df3b
00000330: 4b85 f1ba 60f5 26bc 458c 12bc e84c c1ba
00000340: 1700 893c 5b08 143c e2f3 793c 0064 b83b
00000350: 2618 17bc 4acd 9f3b 2b5d e93a 5ba8 703c
00000360: 183e 49bb c321 4cbc 8c3d 1bbc f6a5 943c
00000370: 508c 7dbb 7c10 8bbb 4309 c43b 87b4 8f3b
00000380: 7ad4 06bc c7ae 103c e05c d6bb a819 7dbc
00000390: ad05 d6bb f8a1 e6bb 7672 873b 4724 1f3a
000003a0: c0f3 763b 0d8a dd3b fd71 e33b c553 e9bb
000003b0: 9bce 8b3c ff41 f23b 259c 873b 8b65 7ebb
000003c0: 97c2 9ebc 90be 933a bc17 393c 8cad 94bc
000003d0: 93b9 343c 53f4 023c 37d3 213c 386e 753b
000003e0: 82b0 fa3b 68ca d038 ebad bb3c fa2f 3ebc
000003f0: eba5 30bb 00e9 e53b 6a5d 5dbc 8e12 86bb

action_model._discrete_distribution.branches.0.bias f4 [4]
0.0 0.0 0.0 0.0
00000000: 0000 0000 0000 0000 0000 0000 0000 0000
