results/ppo/defender_1/defender_1-252.onnx (onnx, 73618 bytes, 5 tensors)

network_body._body_endoder.seq_layers.0.weight f4 [128, 1]
-2.0918303 0.5168001 -0.19079727 0.37326092 1.2215132 -1.5740728 -0.058034237 0.41044793
-0.39487743 -1.5621328 -0.1925298 2.0977235 -0.11047296 1.1771411 -1.2300146 0.2962359
-1.2604973 2.831852 1.5418856 1.0059035 1.2131268 -1.2294035 0.8572927 1.1809142
-0.6547684 1.6053818 0.02413348 0.5952409 0.47695687 0.9886461 -0.37208593 -1.3620704
-0.10813068 -0.21534489 1.0543367 0.33496892 -0.4879682 0.09897651 1.2343038 1.0175328
-0.110603 -0.060915314 -0.41435406 -0.16288662 -1.0854468 -0.3012964 1.0939966 -0.5343773
1.1717672 0.27028304 -1.7095084 -0.1445809 0.54797983 -0.7150159 0.11703524 -1.3462075
0.48765492 0.57869977 -0.20359328 -1.1931125 -0.12068589 0.42188156 0.55023926 -1.9227674
-0.32496208 1.2454464 -0.8371236 -0.046783905 0.4919196 -0.8848652 -1.2882301 1.5420766
1.7521639 0.06487113 1.0745726 -0.3210085 1.934312 -0.95519006 0.03619702 0.79641426
-0.46097785 -1.0221424 0.16276047 -0.21083236 0.18025006 1.1087447 2.384069 -0.80415285
0.80258816 0.9330322 -0.93634945 1.1337938 0.13206017 1.7655033 1.7259791 0.4111969
-0.02096466 0.80169314 -0.59345907 -1.4930907 0.9147508 -0.3812411 0.7561794 -2.1161554
0.30706653 0.8322295 -1.72649 -0.26310527 0.40203586 0.5624694 -1.1829376 -1.7017815
-0.90804297 -0.20193762 -1.1448474 -1.4433843 0.61054784 -0.6334902 1.2272578 -0.14640917
0.11756524 -0.4841027 -2.0149322 0.57351667 -0.37461132 -0.18628776 -0.47380352 0.625341
00000000: 8ce0 05c0 034d 043f 5c60 43be 0e1c bf3e
00000010: 8b5a 9c3f 387b c9bf 4fb5 6dbd 3b26 d23e
00000020: 602d cabe f8f3 c7bf 8826 45be 1a41 0640
00000030: a63f e2bd 8fac 963f 1e71 9dbf 3bac 973e
00000040: fa57 a1bf 103d 3540 825c c53f 72c1 803f
00000050: bd47 9b3f 185d 9dbf 8977 5b3f 3228 973f
00000060: e79e 27bf 277d cd3f 93b3 c53c b561 183f
00000070: b133 f43e e917 7d3f 0c82 bebe 5358 aebf
00000080: 9e73 ddbd 5f83 5cbe 81f4 863f 0c81 ab3e
00000090: f8d6 f9be 32b4 ca3d abfd 9d3f 843e 823f
000000a0: d383 e2bd 5682 79bd 3726 d4be c0cb 26be
000000b0: ecef 8abf 8643 9abe 1508 8c3f f3cc 08bf
000000c0: 78fc 953f 8a62 8a3e 2cd1 dabf 040d 14be
000000d0: 6848 0c3f 480b 37bf 2cb0 ef3d 8750 acbf
000000e0: e8ad f93e ab25 143f c27a 50be e9b7 98bf
000000f0: 2a2a f7bd dc00 d83e 7bdc 0c3f 3e1d f6bf
00000100: 6e61 a6be ca6a 9f3f bb4d 56bf 7ba0 3fbd
00000110: e3dc fb3e 8786 62bf b9e4 a4bf c462 c53f
00000120: e846 e03f 28db 843d 988b 893f 3a5b a4be
00000130: 8997 f73f 5687 74bf 5443 143d cee1 4b3f
00000140: 4a05 ecbe 90d5 82bf aeaa 263e 70e4 57be
00000150: 7993 383e 59eb 8d3f 9694 1840 f6dc 4dbf
00000160: 6b76 4d3f 33db 6e3f 99b4 6fbf 2820 913f
00000170: c83a 073e 03fc e13f e2ec dc3f 6688 d23e
00000180: 14be abbc c33b 4d3f efec 17bf 991d bfbf
00000190: 1c2d 6a3f 0932 c3be f994 413f 176f 07c0
000001a0: d337 9d3e fe0c 553f a0fd dcbf bcb5 86be
000001b0: a5d7 cd3e fffd 0f3f 806a 97bf fad3 d9bf
000001c0: 8175 68bf bcc8 4ebe 5c8a 92bf d1c0 b8bf
000001d0: dd4c 1c3f 6a2c 22bf c916 9d3f 49ec 15be
000001e0: 0bc6 f03d 4fdc f7be a6f4 00c0 fdd1 123f
000001f0: 0ecd bfbe 38c2 3ebe 6096 f2be 5916 203f

network_body._body_endoder.seq_layers.0.bias f4 [128]
0.0 0.0 0.0 0.0 0.0 0.0 0.0 0.0
0.0 0.0 0.0 0.0 0.0 0.0 0.0 0.0
0.0 0.0 0.0 0.0 0.0 0.0 0.0 0.0
0.0 0.0 0.0 0.0 0.0 0.0 0.0 0.0
0.0 0.0 0.0 0.0 0.0 0.0 0.0 0.0
0.0 0.0 0.0 0.0 0.0 0.0 0.0 0.0
0.0 0.0 0.0 0.0 0.0 0.0 0.0 0.0
0.0 0.0 0.0 0.0 0.0 0.0 0.0 0.0
0.0 0.0 0.0 0.0 0.0 0.0 0.0 0.0
0.0 0.0 0.0 0.0 0.0 0.0 0.0 0.0
0.0 0.0 0.0 0.0 0.0 0.0 0.0 0.0
0.0 0.0 0.0 0.0 0.0 0.0 0.0 0.0
0.0 0.0 0.0 0.0 0.0 0.0 0.0 0.0
0.0 0.0 0.0 0.0 0.0 0.0 0.0 0.0
0.0 0.0 0.0 0.0 0.0 0.0 0.0 0.0
0.0 0.0 0.0 0.0 0.0 0.0 0.0 0.0
00000000: 0000 0000 0000 0000 0000 0000 0000 0000
00000010: 0000 0000 0000 0000 0000 0000 0000 0000
00000020: 0000 0000 0000 0000 0000 0000 0000 0000
00000030: 0000 0000 0000 0000 0000 0000 0000 0000
00000040: 0000 0000 0000 0000 0000 0000 0000 0000
00000050: 0000 0000 0000 0000 0000 0000 0000 0000
00000060: 0000 0000 0000 0000 0000 0000 0000 0000
00000070: 0000 0000 0000 0000 0000 0000 0000 0000
00000080: 0000 0000 0000 0000 0000 0000 0000 0000
00000090: 0000 0000 0000 0000 0000 0000 0000 0000
000000a0: 0000 0000 0000 0000 0000 0000 0000 0000
000000b0: 0000 0000 0000 0000 0000 0000 0000 0000
000000c0: 0000 0000 0000 0000 0000 0000 0000 0000
000000d0: 0000 0000 0000 0000 0000 0000 0000 0000
000000e0: 0000 0000 0000 0000 0000 0000 0000 0000
000000f0: 0000 0000 0000 0000 0000 0000 0000 0000
00000100: 0000 0000 0000 0000 0000 0000 0000 0000
00000110: 0000 0000 0000 0000 0000 0000 0000 0000
00000120: 0000 0000 0000 0000 0000 0000 0000 0000
00000130: 0000 0000 0000 0000 0000 0000 0000 0000
00000140: 0000 0000 0000 0000 0000 0000 0000 0000
00000150: 0000 0000 0000 0000 0000 0000 0000 0000
00000160: 0000 0000 0000 0000 0000 0000 0000 0000
00000170: 0000 0000 0000 0000 0000 0000 0000 0000
00000180: 0000 0000 0000 0000 0000 0000 0000 0000
00000190: 0000 0000 0000 0000 0000 0000 0000 0000
000001a0: 0000 0000 0000 0000 0000 0000 0000 0000
000001b0: 0000 0000 0000 0000 0000 0000 0000 0000
000001c0: 0000 0000 0000 0000 0000 0000 0000 0000
000001d0: 0000 0000 0000 0000 0000 0000 0000 0000
000001e0: 0000 0000 0000 0000 0000 0000 0000 0000
000001f0: 0000 0000 0000 0000 0000 0000 0000 0000

network_body._body_endoder.seq_layers.2.weight f4 [128, 128]
-0.08337133 -0.12689468 0.02499766 0.079107866 -0.12010308 -0.019396769 0.15828043 0.058568873
-0.061499156 0.05883324 0.13843007 -0.07660085 0.11422867 0.098982796 0.003713742 0.031220514
0.044489 0.00014521126 0.06858112 0.0984463 -0.07898062 -0.041805357 0.11461083 -0.19482602
-0.026110515 0.035911765 0.10479499 -0.02415615 -0.067450784 -0.0667532 0.08026786 -0.025030646
-0.14096235 -0.09398981 -0.043432318 -0.08469232 -0.0949283 0.0067854184 -0.04008028 -0.0109611545
-0.094563216 -0.029338103 0.021452248 0.054124564 -0.053669676 -0.052811638 -0.11412335 0.13241863
0.04704666 -0.1303648 -0.008322597 -0.021440927 0.044835012 0.19131476 0.0019467304 -0.1450929
0.0505644 0.084424034 -0.06877815 0.036311537 -0.1165457 -0.12769409 -0.018516742 -0.0062118005
0.022887224 -0.15686513 0.112102956 0.022992106 -0.10913312 -0.078191735 0.116820104 0.05335683
-0.067361474 -0.034770448 -0.001365071 -0.03260592 0.13668676 -0.029326411 0.072453015 0.042690784
-0.14948405 -0.25007692 0.00870955 -0.085673854 -0.048578836 0.030935273 0.049463883 0.042819556
-0.06490361 -0.015906893 0.070714556 -0.052047305 0.17769606 0.03450572 -0.123157665 -0.1328366
-0.035650626 0.034100506 0.0991461 0.17074148 -0.013865762 -0.008921437 -0.04101011 -0.030985659
0.1229723 -0.013879897 -0.130615 0.19829561 -0.08019273 0.04842584 0.00881473 0.015557808
0.006977603 0.1117589 0.046655823 0.041501958 0.09415064 -0.09117301 -0.012164353 -0.13144425
-0.09128961 -0.0035165208 -0.0725868 0.038408596 -0.03685971 0.07674559 -0.017813815 -0.026853666
-0.24450792 -0.02590059 0.09511913 -0.09994502 0.055778567 0.03623262 -0.006962222 0.10158684
0.11996566 0.078190565 0.09541599 -0.05427555 0.07285975 -0.033827048 0.017437216 0.0059690755
-0.011722541 -0.047746304 -0.025412673 0.0652942 0.09831299 0.16910763 -0.03033574 0.17914958
-0.19388871 0.005781751 -0.08192329 0.012942201 0.086196214 -0.005131416 0.08637365 0.16739087
0.10740301 0.05632824 -0.036718857 -0.00459103 0.0724192 -0.028915316 0.03155708 0.012222491
0.15852581 0.06476509 -0.019817328 -0.114135794 0.011372027 0.07034543 0.01799755 0.094608665
0.10683959 -0.08204653 -0.07343283 0.03745904 -0.044428363 0.08514344 -0.0504337 0.052910827
0.04475396 0.16370709 -0.07559742 0.01456244 -0.06125687 0.031446714 -0.062623076 0.070697404
-0.0908519 -0.18273199 -0.013710636 0.035382565 -0.042059947 0.053535633 -0.06461193 -0.18800192
-0.0377663 0.05673403 -0.010346883 -0.038907938 -0.080193594 -0.05845185 -0.029284677 -0.06602846
-0.008364373 -0.06824167 -0.10540921 -0.09291838 0.021329373 -0.03279437 -0.037593335 -0.10502731
0.009709853 -0.09086323 -0.015744643 0.10326932 -0.049068525 0.03283571 0.0005052776 0.043069433
0.10417749 0.101445116 -0.07946233 0.10161592 0.16943477 0.010974351 0.04849934 0.02130682
-0.031205956 0.004930706 -0.03461747 -0.04273469 -0.0522954 0.08943367 -0.29983467 0.017328719
0.007825289 -0.20907116 0.029767316 -0.15330599 0.037691947 0.05790052 -0.13218607 -0.03197292
-0.044241615 -0.022875417 -0.039549693 0.09192847 0.012904525 -0.07745782 0.04726052 0.026274035
00000000: 96be aabd aef0 01be e5c7 cc3c 4e03 a23d
00000010: 9bf8 f5bd f9e5 9ebc 4414 223e eae5 6f3d
00000020: 8ae6 7bbd 20fb 703d 9dc0 0d3e e8e0 9cbd
00000030: b9f0 e93d 7eb7 ca3d 4062 733b 2ac2 ff3c
00000040: 193a 363d da43 1839 4274 8c3d 379e c93d
00000050: 97c0 a1bd 183c 2bbd 15b9 ea3d 7980 47be
00000060: b8e5 d5bc 3718 133d c19e d63d 1ee3 c5bc
00000070: a323 8abd e7b5 88bd 7a63 a43d 120d cdbc
00000080: 6f58 10be bb7d c0bd 16e6 31bd 2b73 adbd
00000090: c569 c2bd 3758 de3b 382b 24bd 6a96 33bc
000000a0: 5caa c1bd 7656 f0bc a0bc af3c b8b1 5d3d
000000b0: bcd4 5bbd 0451 58bd 81b9 e9bd c098 073e
000000c0: 00b4 403d 5a7e 05be 805b 08bc e2a4 afbc
000000d0: eba4 373d 04e8 433e 6f29 ff3a 3c93 14be
000000e0: 9e1c 4f3d 82e6 ac3d 8fdb 8cbd 68bb 143d
000000f0: 83af eebd 3dc2 02be 6cb0 97bc 5c8c cbbb
00000100: fd7d bb3c 41a1 20be 3c96 e53d f159 bc3c
00000110: 2f81 dfbd fd22 a0bd 613f ef3d b18c 5a3d
00000120: d0f4 89bd 756b 0ebd 2fec b2ba c98d 05bd
00000130: 9df7 0b3e f13d f0bc 3f62 943d 88dc 2e3d
00000140: 5912 19be 150a 80be 80b2 0e3c c675 afbd
00000150: 9afa 46bd f86b fd3c a49a 4a3d 8f63 2f3d
00000160: 2fec 84bd 2c4f 82bc cbd2 903d 8e2f 55bd
00000170: f5f5 353e df55 0d3d 163a fcbd 5106 08be
00000180: 6406 12bd f9ac 0b3d 1c0d cb3d dbd6 2e3e
00000190: 392d 63bc 382b 12bc 38fa 27bd a3d5 fdbc
000001a0: e7d8 fb3d 8268 63bc f0bf 05be 010e 4b3e
000001b0: 163c a4bd 2c5a 463d a86b 103c 2de6 7e3c
000001c0: 60a4 e43b dae1 e43d 2d1a 3f3d f5fd 293d
000001d0: 0dd2 c03d eab8 babd ff4c 47bc 5299 06be
000001e0: 0cf6 babd 6e75 66bb 63a8 94bd 5552 1d3d
000001f0: 35fa 16bd cb2c 9d3d 47ee 91bc 38fc dbbc
00000200: 4960 7abe 792d d4bc d2cd c23d faaf ccbd
00000210: 1178 643d a868 143d 5a23 e4bb c30c d03d
00000220: 8eb0 f53d 6022 a03d 7569 c33d 0a50 5ebd
00000230: 7e37 953d 3b8e 0abd 7ed8 8e3c 3c98 c33b
00000240: e70f 40bc a191 43bd 3d2e d0bc f7b8 853d
00000250: 5258 c93d 8d2a 2d3e a882 f8bc fd72 373e
00000260: c38a 46be d874 bd3b 66c7 a7bd 870b 543c
00000270: a487 b03d 7025 a8bb abe4 b03d 8368 2b3e
00000280: 1cf6 db3d 71b8 663d 8366 16bd 5a70 96bb
00000290: 8450 943d d0df ecbc ff41 013d d840 483c
000002a0: 9754 223e 8fa3 843d f357 a2bc 07c0 e9bd
000002b0: bd51 3a3c 4411 903d 996f 933c 30c2 c13d
000002c0: b7ce da3d 0308 a8bd f463 96bd a66e 193d
000002d0: 84fa 35bd af5f ae3d 9193 4ebd 06b9 583d
000002e0: ee4f 373d d5a2 273e d2d2 9abd 4d97 6e3c
000002f0: 7ce8 7abd 45ce 003d 8740 80bd cdc9 903d
00000300: 9010 babd 181e 3bbe 93a2 60bc 4fed 103d
00000310: 0d47 2cbd 2e48 5b3d 4253 84bd 9383 40be
00000320: d6b0 1abd f161 683d f985 29bc ee5d 1fbd
00000330: 8a3c a4bd 356b 6fbd 6be6 efbc ee39 87bd
00000340: b90a 09bc 4ac2 8bbd c9e0 d7bd fe4b bebd
00000350: f0ba ae3c 6453 06bd 78fb 19bd 8f18 d7bd
00000360: 1316 1f3c 8016 babd e9fa 80bc de7e d33d
00000370: 14fc 48bd bd7e 063d 9b74 043a 9369 303d
00000380: 025b d53d 75c2 cf3d 25bd a2bd 021c d03d
00000390: 4f80 2d3e c4cd 333c 3ea7 463d a48b ae3c
000003a0: a2a3 ffbc c391 a13b 0ccb 0dbd 920a 2fbd
000003b0: b433 56bd 0029 b73d ee83 99be f5f4 8d3c
000003c0: a435 003c c016 56be 96da f33c 3ffc 1cbe
000003d0: df62 1a3d 1829 6d3d c95b 07be 09f6 02bd
000003e0: b236 35bd 3a65 bbbc dcfe 21bd fe44 bc3d
000003f0: 806d 533c 35a2 9ebd 3f94 413d a53c d73c

action_model._discrete_distribution.branches.0.weight f4 [4, 128]
-0.004722145 0.0039931717 0.0031418826 0.011163763 -0.0037438683 0.0014686587 -0.0050621047 0.006404166
-0.008268103 0.0015616381 -0.01219204 -0.006018142 -0.0003971201 0.00033594316 -0.0024126673 -0.0020961137
0.016894616 -0.0042907163 0.003470035 -0.001887359 0.0011286912 -0.010974581 0.0072051557 -0.00088501547
-0.009104091 -0.01115793 -0.009414313 -0.004472731 -0.012257705 -0.0065821856 -0.002572504 0.00052012206
-0.0080051515 -0.023266917 -0.0053515723 -0.0010905388 -0.007844572 0.0072238445 -0.0064107636 0.008423649
-0.00095553667 -0.011176726 -0.0016630326 -0.009047581 -0.01726441 0.0023637158 -0.008447451 -0.008811786
0.0018748951 -0.0074989856 -0.0042375326 -0.00082424324 -0.005202767 0.0046256394 0.003709795 -0.009038545
0.002562646 -0.015803115 0.003799573 -0.0070799487 -0.0007164843 0.0063326145 -0.009290062 0.0044407407
0.0034423533 0.0031591419 0.0049976087 -0.008710919 0.0058640945 -0.012165993 0.0028513232 0.003058094
-0.008413273 0.0023513061 0.00021902083 -0.00018585047 -0.012032003 0.012033224 0.0029211736 -0.0052548484
0.0045645307 -0.0059102178 0.0002117616 0.0063009867 0.015517199 0.0139308395 0.0024075524 0.011195404
0.010669102 -0.002658777 0.0039609796 -6.954191e-05 -0.0017520232 -0.0011682336 0.0042494824 -0.0063763964
-0.006818121 -0.00021448269 0.013820137 0.0053909863 0.0018657366 0.019322397 -0.004768117 -0.022019878
-0.011344875 -0.00356296 0.016959675 0.0044983453 0.0090269325 -0.0009791928 -0.00877558 0.011793414
-0.005904674 -0.0034056276 -0.0036011636 -0.0041741934 0.0037190695 0.0012764474 -0.003914815 -0.01656525
-0.023068313 -0.0064947247 -0.0015756509 -0.0062850276 0.010371957 0.012626206 0.0049722777 -0.003955354
0.019066624 -0.0018217046 -0.0015641423 -0.010213245 -0.003286908 0.0045372355 -0.005251405 -0.009146026
-0.0012932653 -0.0020465397 -0.009410139 -0.006077902 0.008518326 -1.535162e-05 0.008354879 -6.8239046e-05
0.0043584662 -0.0035535097 -0.013124296 0.00027182917 -0.0018830376 -0.0034405072 0.009403664 -0.013768934
-0.006895294 0.014567457 -0.0035801244 0.0044009755 0.006059829 0.008196722 -0.009341668 -0.0053729783
0.012926876 0.00061052217 0.010291515 0.002130533 0.010091822 -0.0073059783 -0.013771622 -0.008460118
-0.013280772 -0.0031870815 0.0052922154 0.0085579 -0.0058883233 0.004677828 -0.0028943315 -0.0024592734
-0.014919564 0.005079782 0.006805335 0.0066750348 -0.0015671166 -0.002229931 0.001287669 0.012310375
-0.006147988 -0.015482664 -0.0032810431 0.006481995 0.010637532 -0.008323805 -0.0014109629 -0.007853182
-0.002057575 0.0046148966 -0.010117426 -0.0062723234 0.0017947456 -0.016714007 0.024911404 -0.01341887
0.0011230812 0.0030062029 -0.012775496 0.0028737076 0.01126664 -0.0021207118 -5.4447617e-05 -0.017131127
-0.0009003615 0.002310994 -0.0032330889 -0.008049613 -0.0017540812 0.0057025393 -0.0044901944 0.0050624185
-0.0007018043 0.017149266 5.460272e-06 -0.0007641705 0.014456964 -0.013438433 0.013267326 0.003877762
-0.0067244754 -0.008766204 0.01780846 0.012792996 -0.013091186 -0.008830261 -0.009120659 0.008609938
-0.0029543566 -0.0019566102 -0.0029150883 0.0041738716 -0.0062359204 0.009855492 -0.007896231 0.01354296
0.010302195 0.016513841 0.009182749 -0.002897007 -0.0025111395 0.0032703888 0.00010149506 -0.011620635
-0.0034729547 0.020406578 0.003798471 0.002152735 -0.006023976 0.002281111 0.028742466 0.0057240264
00000000: 39bc 9abb 27d9 823b 0be8 4d3b 37e8 363c
00000010: b05b 75bb 0280 c03a 03e0 a5bb 0ada d13b
00000020: f076 07bc e1af cc3a 1fc1 47bc d633 c5bb
00000030: 8f34 d0b9 8721 b039 d71d 1ebb f45e 09bb
00000040: 9466 8a3c 2399 8cbb 8769 633b 4261 f7ba
00000050: 98f0 933a bbce 33bc 3a19 ec3b 6200 68ba
00000060: 5329 15bc c0cf 36bc 7e3e 1abc fd8f 92bb
00000070: 8bd4 48bc 60af d7bb 7597 28bb cd58 083a
00000080: 0a28 03bc 439a bebc 3e5c afbb 69f0 8eba
00000090: 8586 00bc 00b6 ec3b 6211 d2bb 5803 0a3c
000000a0: fb7c 7aba 961e 37bc 1dfa d9ba 4e3c 14bc
000000b0: 186e 8dbc 92e8 1a3b 2d67 0abc 4f5f 10bc
000000c0: 0abf f53a 0dba f5bb 00db 8abb 0712 58ba
000000d0: f97b aabb ad92 973b 0820 733b 6816 14bc
000000e0: 11f2 273b 8975 81bc 4202 793b eafe e7bb
000000f0: 73d2 3bba d281 cf3b 5835 18bc a283 913b
00000100: 1b99 613b 9b09 4f3b fbc2 a33b 3eb8 0ebc
00000110: 9727 c03b e053 47bc 44dd 3a3b 4e6a 483b
00000120: d3d7 09bc 5f18 1a3b f5a8 6539 dbe0 42b9
00000130: e121 45bc 0027 453c 2971 3f3b dd30 acbb
00000140: 0f92 953b 80aa c1bb 520c 5e39 8278 ce3b
00000150: da3b 7e3c 2d3e 643c 07c8 1d3b ee6c 373c
00000160: 75cd 2e3c e03e 2ebb 1bcb 813b 07d7 91b8
00000170: 25a4 e5ba 6a1f 99ba 3e3f 8b3b 17f1 d0bb
00000180: 8b6a dfbb c2e6 60b9 db6d 623c dfa6 b03b
00000190: bb8b f43a 014a 9e3c dd3d 9cbb 0863 b4bc
000001a0: dbdf 39bc 8d80 69bb 04ef 8a3c db66 933b
000001b0: b3e5 133c 4258 80ba 73c7 0fbc 2a39 413c
000001c0: ff7b c1bb f330 5fbb 8001 6cbb acc7 88bb
000001d0: a2bb 733b 784e a73a d947 80bb d9b3 87bc
000001e0: c2f9 bcbc b3d1 d4bb 1286 ceba a2f2 cdbb
000001f0: 24ef 293c 25de 4e3c 7dee a23b ea9b 81bb
00000200: 9c31 9c3c 43c6 eeba e803 cdba 7455 27bc
00000210: 2a69 57bb 17ad 943b fa13 acbb 37d9 15bc
00000220: c882 a9ba 3d1f 06bb fc2c 1abc 2329 c7bb
00000230: 7390 0b3c 5ac7 80b7 e7e2 083c 8f1b 8fb8
00000240: 77d1 8e3b 00e2 68bb 4a07 57bc 4b84 8e39
00000250: 42d0 f6ba 227a 61bb d311 1a3c 1897 61bc
00000260: ebf1 e1bb 58ac 6e3c 85a0 6abb 0f36 903b
00000270: 8891 c63b 8b4b 063c cc0d 19bc cf0f b0bb
00000280: 3fcb 533c 730b 203a be9d 283c 6aa0 0b3b
00000290: 2b58 253c fd66 efbb 5fa2 61bc 4f9c 0abc
000002a0: 9897 59bc 5bde 50bb 526a ad3b 6f36 0c3c
000002b0: d6f2 c0bb 7748 993b d3ae 3dbb c32b 21bb
000002c0: 3071 74bc 4d74 a63b 4aff de3b 40ba da3b
000002d0: b567 cdba 0924 12bb 00c7 a83a 75b1 493c
000002e0: 1075 c9bb 00ab 7dbc c506 57bb ea66 d43b
000002f0: 0b49 2e3c 9260 08bc 0ff0 b8ba a2aa 00bc
00000300: 61d8 06bb 8f38 973b 8fc3 25bc 1088 cdbb
00000310: ab3d eb3a d0eb 88bc 0013 cc3c d2da 5bbc
00000320: 5a34 933a b703 453b 5050 51bc d054 3c3b
00000330: b797 383c a4fb 0abb af5e 64b8 9456 8cbc
00000340: 3d06 6cba 0c74 173b 3be2 53bb 86e2 03bc
00000350: 33e9 e5ba 5edc ba3b 7b22 93bb a5e2 a53b
00000360: 4af9 37ba 9e7c 8c3c 6137 b736 9d52 48ba
00000370: e7dc 6c3c e02c 5cbc 335f 593c 0d22 7e3b
00000380: fd58 dcbb 20a0 0fbc 0ce3 913c b799 513c
00000390: 6a7c 56bc cdac 10bc d16e 15bc b310 0d3c
000003a0: e19d 41bb 793a 00bb 110b 3fbb f9c4 883b
000003b0: b156 ccbb ee78 213c 315f 01bc 4be3 5d3c
000003c0: 8aca 283c 0948 873c 3e73 163c b6db 3dbb
000003d0: ee91 24bb 0554 563b bfd9 d438 7a64 3ebc
000003e0: 839a 63bb b22b a73c c5ef 783b e614 0d3b
000003f0: c664 c5bb b17e 153b 5275 eb3c 9d90 bb3b

action_model._discrete_distribution.branches.0.bias f4 [4]
0.0 0.0 0.0 0.0
00000000: 0000 0000 0000 0000 0000 0000 0000 0000
