results/ppo/defender_1/defender_1-579.onnx (onnx, 533910 bytes, 5 tensors)

network_body._body_endoder.seq_layers.0.weight f4 [128, 900]
0	0xbd22c5fc	-0.039739594
1	0x3cfe5c91	0.031049998
2	0x3d6cd1b3	0.057817172
3	0xbd137eb4	-0.036009505
4	0xbbcf631c	-0.0063289534
5	0x3ce42cad	0.027853334
6	0xbc4181a0	-0.01181069
7	0xbd18a57c	-0.037267193
8	0xbd4157e3	-0.047202956
9	0xbc484d66	-0.0122254845
10	0x3c7d054f	0.01544316
11	0xbd2dab13	-0.042399477
12	0xbcec9fe7	-0.028884841
13	0x3d2aadf0	0.041669786
14	0x3d4252ef	0.047442373
15	0xbbf22f01	-0.007390857
16	0x3cb09634	0.021555997
17	0xbc6448ca	-0.01393337
18	0xbcda6eae	-0.026664104
19	0x3cf15e88	0.029464021
20	0xbce43a05	-0.027859697
21	0x3ccadd49	0.02476372
22	0xbd1a5921	-0.037682656
23	0x3cad58de	0.02116054
24	0xbbd6606b	-0.0065422556
25	0x3d2e24a3	0.04251541
26	0xbd0c7268	-0.034288794
27	0xbd242981	-0.040078644
28	0x3c738f75	0.014865746
29	0x3d1acbbb	0.03779195
30	0x3cbd78a8	0.023128822
31	0xbb7f2fd5	-0.0038938422
32	0xbce848f3	-0.028355097
33	0x3be597d4	0.0070066247
34	0xbcff6a74	-0.03117869
35	0xbd2e02cb	-0.042483132
36	0x3d29a5a8	0.041417748
37	0xbd6c6c91	-0.057720724
38	0xbd578591	-0.052617613
39	0x3cb6d1e9	0.02231689
40	0xbceb1bb7	-0.028699739
41	0x3d161921	0.03664506
42	0xbd0ccb80	-0.03437376
43	0x3d3db4c8	0.046314985
44	0xbd0200f9	-0.03173921
45	0x3d42d0e8	0.04756251
46	0xbcca8d2a	-0.024725515
47	0xbcd1578b	-0.025554439
48	0x3b1afe53	0.0023650124
49	0x3d012e4b	0.03153829
50	0x3c6305c1	0.013856352
51	0xbcb0750a	-0.021540184
52	0x3d23961a	0.03993807
53	0xbb7e9cc9	-0.0038850775
54	0xbbc47c24	-0.005996244
55	0x3d0eb88a	0.03484396
56	0x3be332ef	0.006933562
57	0xbd43c6b7	-0.04779693
58	0x3a33f837	0.0006865295
59	0xbc9d10e6	-0.019173097
60	0x3ca96478	0.02067779
61	0xbc91c6af	-0.017794935
62	0xba4c141d	-0.00077849795
63	0x3cc5eb8b	0.024160167
64	0xbcd73ff5	-0.026275614
65	0xbcae00d6	-0.021240633
66	0xbce1eb30	-0.027577966
67	0xbbe0e747	-0.006863508
68	0x3cc97ab3	0.02459464
69	0xbcac5f0c	-0.021041416
70	0xbd6d4d5e	-0.05793511
71	0xbd286c2a	-0.04111878
72	0xbce9ac23	-0.028524464
73	0x3ce7ff63	0.02832002
74	0xbc8a20c7	-0.016861333
75	0xbd12826a	-0.035768904
76	0xbd4c5a9c	-0.0498911
77	0x3d196323	0.03744806
78	0xbd76b5e7	-0.06023207
79	0x3d38f0bb	0.045151453
80	0x3d4cd12a	0.050004162
81	0xbb603c06	-0.0034215464
82	0x3d54e105	0.051972408
83	0x3cd0990b	0.025463602
84	0x3b8dbe80	0.004325688
85	0xbb827794	-0.00398154
86	0x3cebb9c0	0.028775096
87	0x3d815618	0.06315249
88	0xbcd687a7	-0.026187731
89	0xbca3e2fc	-0.020005696
90	0xbc3f5589	-0.011678108
91	0x3cbf334c	0.02333989
92	0x3c5868de	0.013208596
93	0x3b68d10e	0.0035524997
94	0x3d58e2e1	0.052950744
95	0xbcf8e5da	-0.03038304
96	0xbcf58c33	-0.029974079
97	0xbc85adce	-0.016318228
98	0xbcfbb7e4	-0.030727334
99	0x398f9fde	0.00027394196
100	0xbc84b256	-0.016198318
101	0xbd171719	-0.036887262
102	0x3cefd1cf	0.02927485
103	0x3c8f710c	0.01750996
104	0xbcf0736a	-0.029351909
105	0xbd877836	-0.06614725
106	0xbce2bd32	-0.027678106
107	0x3c28b98a	0.010298142
108	0x3c92b3bc	0.01790797
109	0x3cffee00	0.031241417
110	0x3d3b1194	0.04567106
111	0x3c84a0ab	0.016189894
112	0xbbe4ea8e	-0.006985969
113	0x3d339006	0.043838523
114	0xbc9e5cc1	-0.019331338
115	0x3d0257e6	0.031822108
116	0xbd4d08e5	-0.05005731
117	0x3c085e3d	0.008323249
118	0xbd9d7e93	-0.07690158
119	0x3d8b95b2	0.068156615
120	0x3cb4f42c	0.022089086
121	0xbd3c9eba	-0.04604981
122	0x3c5e2bb4	0.013560224
123	0xbcf3bda9	-0.029753523
124	0xbd9cb214	-0.07651153
125	0x3ce15494	0.02750615
126	0x3c7751d5	0.015095194
127	0xbbd88fcb	-0.0066089383
128	0x3c8e41fd	0.01736545
129	0xbb811552	-0.003939309
130	0xbc95b8a7	-0.018276526
131	0xbb25ab95	-0.0025279273
132	0xbd1a0761	-0.037604693
133	0x3d0b2024	0.0339662
134	0x3c23dde3	0.010001632
135	0x3ce53154	0.027977623
136	0x3c5c9c78	0.013465039
137	0xbd03e659	-0.0322021
138	0x3cff7621	0.031184258
139	0xbc962a7c	-0.018330805
140	0xbd6d3e65	-0.057920832
141	0xbd5e9f40	-0.05435109
142	0x3d176e38	0.036970347
143	0xbd663ad9	-0.056208465
144	0x3c0f3542	0.008740725
145	0x3c858394	0.016298093
146	0xbd74d5cc	-0.059774205
147	0xbc2edd7b	-0.010672922
148	0xbcd31d63	-0.025770849
149	0x3cd35aff	0.025800226
150	0xbc4ed873	-0.012624848
151	0x3bef296b	0.0072986386
152	0x3d8982f9	0.06714434
153	0x3cca3c68	0.024687007
154	0x3c46e7df	0.012140243
155	0xbc82aa62	-0.015950385
156	0xbc0bf53c	-0.008542355
157	0x3d230e62	0.03980864
158	0xbce73995	-0.0282257
159	0xbd1316be	-0.03591036
160	0x3d387542	0.0450337
161	0xbd7b5314	-0.061358526
162	0x3c7b177d	0.015325424
163	0xbd4ff089	-0.0507665
164	0x3d02334f	0.031787213
165	0x3b433a12	0.0029789251
166	0xbc9d3ef8	-0.019195065
167	0xbd01f114	-0.03172405
168	0x3cb1b176	0.021691065
169	0xbce18651	-0.027529867
170	0x3d1d3055	0.03837617
171	0xbd211ad5	-0.03933223
172	0xbd572014	-0.052520826
173	0xbca6ec6e	-0.02037641
174	0xbcfee3bf	-0.031114457
175	0x3d6f0b61	0.05836046
176	0xbd2181c1	-0.039430384
177	0xbd75b5e9	-0.059987936
178	0xbd303f60	-0.04302919
179	0x3c93000d	0.01794436
180	0xbcc22096	-0.023697179
181	0x3ce3d983	0.027813679
182	0xbbb34a88	-0.0054715313
183	0x3c8d9f9b	0.01728802
184	0xbc2b1f8b	-0.010444532
185	0x3c014467	0.007889844
186	0x3959e045	0.0002077828
187	0x3d8d664b	0.069042765
188	0xbcbd7535	-0.023127178
189	0xbd592573	-0.05301423
190	0xbc944934	-0.018101312
191	0x3b105632	0.0022024033
192	0xbcad08ac	-0.0211223
193	0xbcc2ad9d	-0.023764426
194	0x3cb2fd4d	0.021849299
195	0x3d4a5b09	0.049403224
196	0xbc9faf34	-0.019492723
197	0xbd0ddc16	-0.03463372
198	0x3c90ae80	0.017661333
199	0xbb84afba	-0.0040492686
200	0xbcb36162	-0.021897022
201	0xbd1c74e9	-0.03819743
202	0x3d52273b	0.051306944
203	0xbc822898	-0.015888497
204	0x3c8bb6ac	0.017054878
205	0xbc9c30b7	-0.019066198
206	0x3c281d14	0.010260839
207	0xbd8441b6	-0.06457846
208	0x3d2cde05	0.04220392
209	0x3d1faf89	0.038985763
210	0x3c2cc3aa	0.010544697
211	0xbd56bbec	-0.05242531
212	0x3d166acb	0.03672294
213	0xbc89df8f	-0.016830234
214	0xbc3e717f	-0.011623739
215	0x3ce452df	0.027871547
216	0x3d80d059	0.06289739
217	0xbd07ebaa	-0.03318373
218	0xbb3c6c17	-0.002875095
219	0x3d0b3a9e	0.03399145
220	0xbca2e792	-0.019885812
221	0xbcb0ced9	-0.021583008
222	0xb915a359	-0.00014270599
223	0x3cec2bc3	0.028829461
224	0xbd637c2b	-0.055538338
225	0xbc8adf7f	-0.016952274
226	0x3aa2e57e	0.0012428013
227	0x3c939448	0.018015042
228	0x3d0d30b3	0.03447027
229	0x3ce869d9	0.028370785
230	0xbca6fd0e	-0.020384338
231	0xbc76769c	-0.015042927
232	0x3c6e2c75	0.014536967
233	0xbd78b0cf	-0.060715493
234	0x3d2d29f6	0.042276345
235	0x3d3888b4	0.045052245
236	0x3c844646	0.01614679
237	0xbb4f335f	-0.0031616313
238	0x3c996d8e	0.018728998
239	0xbda71635	-0.081585325
240	0x3c797a1f	0.01522687
241	0x3cb38058	0.021911785
242	0x3d304055	0.0430301
243	0x3d122313	0.03567798
244	0x3c895704	0.016765125
245	0xbcada38b	-0.021196147
246	0xbd53b0a2	-0.051682122
247	0x3d86ca57	0.06581562
248	0x3cc9b74b	0.024623534
249	0x3cfc0339	0.030763255
250	0xbc9616b4	-0.018321373
251	0xbd619f75	-0.05508371
252	0xbc54a2d7	-0.012978277
253	0x3cb4979d	0.022044951
254	0x3cf5dba4	0.03001196
255	0xba680b40	-0.0008851774

network_body._body_endoder.seq_layers.0.bias f4 [128]
0	0x00000000	0.0
1	0x00000000	0.0
2	0x00000000	0.0
3	0x00000000	0.0
4	0x00000000	0.0
5	0x00000000	0.0
6	0x00000000	0.0
7	0x00000000	0.0
8	0x00000000	0.0
9	0x00000000	0.0
10	0x00000000	0.0
11	0x00000000	0.0
12	0x00000000	0.0
13	0x00000000	0.0
14	0x00000000	0.0
15	0x00000000	0.0
16	0x00000000	0.0
17	0x00000000	0.0
18	0x00000000	0.0
19	0x00000000	0.0
20	0x00000000	0.0
21	0x00000000	0.0
22	0x00000000	0.0
23	0x00000000	0.0
24	0x00000000	0.0
25	0x00000000	0.0
26	0x00000000	0.0
27	0x00000000	0.0
28	0x00000000	0.0
29	0x00000000	0.0
30	0x00000000	0.0
31	0x00000000	0.0
32	0x00000000	0.0
33	0x00000000	0.0
34	0x00000000	0.0
35	0x00000000	0.0
36	0x00000000	0.0
37	0x00000000	0.0
38	0x00000000	0.0
39	0x00000000	0.0
40	0x00000000	0.0
41	0x00000000	0.0
42	0x00000000	0.0
43	0x00000000	0.0
44	0x00000000	0.0
45	0x00000000	0.0
46	0x00000000	0.0
47	0x00000000	0.0
48	0x00000000	0.0
49	0x00000000	0.0
50	0x00000000	0.0
51	0x00000000	0.0
52	0x00000000	0.0
53	0x00000000	0.0
54	0x00000000	0.0
55	0x00000000	0.0
56	0x00000000	0.0
57	0x00000000	0.0
58	0x00000000	0.0
59	0x00000000	0.0
60	0x00000000	0.0
61	0x00000000	0.0
62	0x00000000	0.0
63	0x00000000	0.0
64	0x00000000	0.0
65	0x00000000	0.0
66	0x00000000	0.0
67	0x00000000	0.0
68	0x00000000	0.0
69	0x00000000	0.0
70	0x00000000	0.0
71	0x00000000	0.0
72	0x00000000	0.0
73	0x00000000	0.0
74	0x00000000	0.0
75	0x00000000	0.0
76	0x00000000	0.0
77	0x00000000	0.0
78	0x00000000	0.0
79	0x00000000	0.0
80	0x00000000	0.0
81	0x00000000	0.0
82	0x00000000	0.0
83	0x00000000	0.0
84	0x00000000	0.0
85	0x00000000	0.0
86	0x00000000	0.0
87	0x00000000	0.0
88	0x00000000	0.0
89	0x00000000	0.0
90	0x00000000	0.0
91	0x00000000	0.0
92	0x00000000	0.0
93	0x00000000	0.0
94	0x00000000	0.0
95	0x00000000	0.0
96	0x00000000	0.0
97	0x00000000	0.0
98	0x00000000	0.0
99	0x00000000	0.0
100	0x00000000	0.0
101	0x00000000	0.0
102	0x00000000	0.0
103	0x00000000	0.0
104	0x00000000	0.0
105	0x00000000	0.0
106	0x00000000	0.0
107	0x00000000	0.0
108	0x00000000	0.0
109	0x00000000	0.0
110	0x00000000	0.0
111	0x00000000	0.0
112	0x00000000	0.0
113	0x00000000	0.0
114	0x00000000	0.0
115	0x00000000	0.0
116	0x00000000	0.0
117	0x00000000	0.0
118	0x00000000	0.0
119	0x00000000	0.0
120	0x00000000	0.0
121	0x00000000	0.0
122	0x00000000	0.0
123	0x00000000	0.0
124	0x00000000	0.0
125	0x00000000	0.0
126	0x00000000	0.0
127	0x00000000	0.0

network_body._body_endoder.seq_layers.2.weight f4 [128, 128]
0	0x3dd7bc4e	0.10533963
1	0xbd2d938f	-0.04237705
2	0x3c20b9fd	0.009809968
3	0xbafe416c	-0.0019398159
4	0x3d570be4	0.052501574
5	0x3da69a1f	0.08134865
6	0xbc077806	-0.008268362
7	0xbd26abe1	-0.04069126
8	0x3d349ded	0.044095922
9	0xbd699d1b	-0.057034593
10	0x3d1ffecf	0.039061364
11	0xbcc3ecd6	-0.023916643
12	0xbda7f20a	-0.08200462
13	0x3d6b880a	0.057502784
14	0xbd00af88	-0.0314174
15	0xbd128e7e	-0.035780422
16	0x3cb82eda	0.022483278
17	0xbd2d14d4	-0.04225619
18	0xbbe84334	-0.0070880894
19	0xbd84ea09	-0.06489951
20	0xbd961ded	-0.07329927
21	0xbd09222d	-0.03347986
22	0xbd5a888b	-0.053352874
23	0x3d36558c	0.044515178
24	0xbe3db43f	-0.1852579
25	0xbd889c91	-0.06670488
26	0xbc38a560	-0.011269897
27	0x3db4475f	0.088026755
28	0x3c6a07dd	0.014284101
29	0xbd9813c8	-0.07425648
30	0x3d0b46a8	0.03400293
31	0xbdbfd69c	-0.09367105
32	0xbe2649f7	-0.16239153
33	0x3da135dc	0.07871601
34	0xbd1a6390	-0.037692606
35	0xbe1889c0	-0.14896297
36	0x3e0e7846	0.13913068
37	0xbd9d1c29	-0.07671387
38	0x3d441192	0.04786832
39	0x3e16376b	0.14669578
40	0x3dded24e	0.10879956
41	0xbe132be6	-0.14372215
42	0xbdca4b73	-0.09877672
43	0x3d433bdf	0.04766452
44	0x3c539fb0	0.01291649
45	0xbc6dc3d5	-0.014512022
46	0x3e03431b	0.12818567
47	0x3d660a58	0.05616221
48	0x3e23df96	0.1600326
49	0x3cfaeea1	0.030631365
50	0x3d71953b	0.058980208
51	0xbe70c789	-0.23513617
52	0x3c97c8f8	0.018528447
53	0xbdf32beb	-0.11873611
54	0xbd633773	-0.055472802
55	0xbcdbc058	-0.026825115
56	0x3da6ca68	0.08144075
57	0x3d2a24cd	0.041539002
58	0x3dae3d58	0.08507794
59	0x3d46c10e	0.048523955
60	0x3c366c86	0.011134272
61	0xbe1c494a	-0.15262333
62	0xbe1880bd	-0.1489286
63	0x3d82bc38	0.06383556
64	0x3cd9b0ff	0.026573656
65	0xbc4d0395	-0.012513061
66	0xbcc1e6b6	-0.023669582
67	0xbe07cf86	-0.13262758
68	0xbe26e511	-0.1629832
69	0x3d9a7ed9	0.075437255
70	0x3d0611cd	0.03273182
71	0xbc27428a	-0.010208735
72	0xbe11e722	-0.14248326
73	0xbc984e58	-0.018592045
74	0xbd97fae4	-0.074209005
75	0xbe18e790	-0.14932084
76	0x3a50e6d1	0.00079689646
77	0x3ddb238b	0.10700139
78	0xbe347f14	-0.17626601
79	0x3da69987	0.08134752
80	0x3bc8b2a5	0.0061248117
81	0xbd5d7426	-0.054065846
82	0x3d0edf6e	0.034881048
83	0xbc22aaf4	-0.009928454
84	0x3dd7b9cc	0.10533485
85	0x3d880787	0.06642061
86	0x3d1d821d	0.038454164
87	0x3df180ea	0.117921665
88	0x3d5aabd2	0.053386517
89	0xbb9f6419	-0.0048642275
90	0xbd7721a2	-0.06033481
91	0xbd971807	-0.0737763
92	0xbd8cd706	-0.0687695
93	0xbe0f68dd	-0.14004846
94	0x3d002416	0.031284414
95	0xbda53fdc	-0.08068821
96	0x3e161096	0.14654765
97	0x3e3fb57c	0.18721575
98	0xbd32b53c	-0.04362987
99	0x3de6b092	0.11264147
100	0xbdd0dc6e	-0.101982936
101	0xbda789c0	-0.081805706
102	0xbce0133e	-0.027352925
103	0x3d069d73	0.032865
104	0x3e229610	0.15877557
105	0x3ab1c848	0.0013563717
106	0xbdff4714	-0.12464729
107	0x3d71652a	0.05893437
108	0x3e0ec088	0.13940632
109	0xbd94ef12	-0.072721615
110	0x3dc7df99	0.09759445
111	0xbbe7c0d2	-0.0070725465
112	0x3d61dee5	0.05514421
113	0x3cbe629b	0.023240378
114	0xbe34f107	-0.1767007
115	0x3d30de67	0.04318085
116	0xbd4e16a2	-0.050314553
117	0x3be030e9	0.006841768
118	0x3d5b9956	0.05361303
119	0x3d0d74e0	0.03453529
120	0x3d3d2113	0.04617412
121	0x3d2b3de4	0.04180707
122	0x3deb267b	0.11481949
123	0x3d1e2aeb	0.03861515
124	0xbd1b37ad	-0.037894893
125	0xbd74fd0e	-0.059811644
126	0xbe135b74	-0.14390355
127	0x3c26fd30	0.010192201
128	0xbb56a4e3	-0.0032752089
129	0x3e09a6b2	0.13442495
130	0x3c1a05f7	0.009400836
131	0xbdfc50fc	-0.12320134
132	0xbd973099	-0.07382316
133	0x3ca5af57	0.02022521
134	0xbe11e23c	-0.14246458
135	0x3cbb3da1	0.022856535
136	0xbe45e0d2	-0.19324043
137	0xbe22cbef	-0.15898107
138	0x3e2c3216	0.16815981
139	0x3d1efbd3	0.038814377
140	0x3cb096cb	0.021556279
141	0x3d2a20f8	0.041535348
142	0xbc00bc67	-0.007857419
143	0xbdde8fc6	-0.10867266
144	0x3df003f6	0.117195055
145	0x3d8860b0	0.06659067
146	0x3cff308a	0.031151075
147	0x3defd3c1	0.11710311
148	0x3a86c902	0.0010283294
149	0xbe2ed6f0	-0.1707418
150	0xbdd941a5	-0.10608224
151	0x3dda27c0	0.10652113
152	0xbcc12516	-0.023577254
153	0x3d4b6699	0.04965839
154	0xbcc2a83d	-0.023761863
155	0x3d957f8a	0.07299717
156	0xbd7bd0f2	-0.061478563
157	0xbd1e83b1	-0.03869981
158	0x3d016dc7	0.031598832
159	0xbd8e42dc	-0.06946346
160	0x3c0bb74e	0.00852759
161	0xbd05315e	-0.032517783
162	0x3e216f73	0.15765171
163	0xbdc32f00	-0.09530449
164	0x3d95371f	0.07285904
165	0xbc3fc415	-0.011704464
166	0x3da81661	0.082073934
167	0x3c2c6eaf	0.010524436
168	0xbcb4ff18	-0.022094294
169	0xbd520525	-0.051274437
170	0x3e1e65dd	0.15468545
171	0xbdc6fa08	-0.097156584
172	0xbd0bc1ca	-0.03412036
173	0x3d90c133	0.070681
174	0x3b280568	0.0025637988
175	0x3d7c353b	0.061574202
176	0x3e07500e	0.13214132
177	0x3e0188fc	0.12649912
178	0x3d7fc5de	0.06244456
179	0x3e3a357b	0.18184464
180	0xbd87adf5	-0.066249765
181	0xbc1fa653	-0.009744245
182	0xbc4bc860	-0.01243791
183	0xbc80f1bc	-0.015740268
184	0xbd3aee9c	-0.045637712
185	0xbc6ccf42	-0.014453711
186	0x3d6a36d9	0.057181213
187	0x3cfabd54	0.030607857
188	0x3d5180c3	0.051148187
189	0x3d42137e	0.04738187
190	0x3cbab6f4	0.022792317
191	0x3e21b6af	0.15792345
192	0x3c83a723	0.016070908
193	0xbe21372c	-0.15743703
194	0x3c38e7ac	0.011285704
195	0x3db9b6ce	0.0906807
196	0xbda87ad4	-0.082265526
197	0xbcaf8b5a	-0.021428753
198	0x3d631841	0.055443052
199	0x3ccad85a	0.024761368
200	0xbd03af51	-0.032149617
201	0x3d40e5fc	0.04709433
202	0xbe5d6a9e	-0.21622702
203	0x3e3baec2	0.18328384
204	0xbd64fc46	-0.05590465
205	0xbcee73ee	-0.029108014
206	0x3bf615ed	0.007509938
207	0x3bd3f24d	0.0064680935
208	0x3c136814	0.008996982
209	0x3da759f3	0.08171453
210	0x3d89cd2a	0.06728585
211	0x3dcb9235	0.09939996
212	0xbea39ddb	-0.31956372
213	0xbde7ed05	-0.11324505
214	0x3daf6d31	0.085657485
215	0x3dd7e97f	0.10542583
216	0xbd55d635	-0.052206237
217	0x3ae52d13	0.0017484747
218	0x3dffd939	0.12492604
219	0xbd9f9b34	-0.077932745
220	0xbd503fad	-0.050841976
221	0xbd2f9f6a	-0.04287664
222	0xbbf4c595	-0.0074698427
223	0xbce8ed31	-0.028433414
224	0x3d8a0ae7	0.06740361
225	0x3dc68cd1	0.09694827
226	0x3b3b619d	0.0028592118
227	0xbd06b0fe	-0.032883637
228	0xbdb78b5f	-0.0896213
229	0xbd3f1dc4	-0.046659246
230	0x3d29a81a	0.04142008
231	0x3c95e8b6	0.018299442
232	0x3c060668	0.008180238
233	0xbd0a881e	-0.033821218
234	0xbdeb243a	-0.11481519
235	0x3e00d6f1	0.12581994
236	0xbe548140	-0.2075243
237	0x3e69421b	0.22779123
238	0x3ca6ff5b	0.020385435
239	0xbe2399c7	-0.1597663
240	0xbd4628e4	-0.04837884
241	0x3d4146f2	0.0471868
242	0xbd854074	-0.06506434
243	0x3b5b32bd	0.003344699
244	0x3da78b3e	0.08180855
245	0x3d898357	0.06714504
246	0xbe2dd55b	-0.1697592
247	0x3e11a3c9	0.14222635
248	0x3c1ebe3d	0.009688911
249	0x3d071507	0.032979038
250	0xbd246150	-0.040131867
251	0xbceaf700	-0.028682232
252	0xbdef6883	-0.11689856
253	0xbc8e1807	-0.017345442
254	0xbd250071	-0.040283624
255	0x3e110efc	0.14165872

action_model._discrete_distribution.branches.0.weight f4 [4, 128]
0	0x3c5d5010	0.013507858
1	0x3b9eff95	0.004852245
2	0x3c066d71	0.008204804
3	0x3b5c1735	0.0033583168
4	0x3bd6953f	0.0065485532
5	0xbb7d2853	-0.0038628771
6	0x3c817051	0.015800627
7	0xbbd6a98f	-0.0065509747
8	0x3bba6e7e	0.005689441
9	0xbca2a91f	-0.019856034
10	0x3b7ecfaa	0.0038881102
11	0xba8372db	-0.0010028736
12	0x3be1c00b	0.0068893484
13	0x3c0ffaa5	0.008787786
14	0xbb851d1b	-0.0040623075
15	0x3b9b55e5	0.004740464
16	0xbc283f17	-0.010268948
17	0x3bc7d0b6	0.0060978783
18	0x3a854cdf	0.0010170004
19	0x3c2d2987	0.010568983
20	0x3c22ed9b	0.009944345
21	0x3c01f5bb	0.007932122
22	0xb93508ab	-0.00017264734
23	0xbc3a535d	-0.011372414
24	0xbb12cef6	-0.002240119
25	0x3c19c265	0.009384726
26	0x3ba50486	0.0050359396
27	0x3b9adaaf	0.004725776
28	0xba2af2d8	-0.0006521172
29	0x38a5aec9	7.9003694e-05
30	0x3bc20a1c	0.0059216153
31	0xbc15cde3	-0.0091433255
32	0xb66ab72d	-3.497534e-06
33	0x3c617837	0.013761572
34	0x3b8388d3	0.0040141135
35	0xbb3f53ed	-0.002919431
36	0xbbf2f620	-0.0074145943
37	0x3be66dfd	0.0070321546
38	0xbb93ff6f	-0.004516534
39	0x3acd3d1b	0.001565847
40	0x3c69dfd0	0.014274552
41	0xbc07db04	-0.0082919635
42	0x3ba59629	0.005053301
43	0x3be5fd80	0.007018745
44	0x3c4c2a0d	0.012461198
45	0xbbaaaf1b	-0.0052088625
46	0xbc182355	-0.009285768
47	0x3baba311	0.005237945
48	0x3a0e3653	0.0005424965
49	0xbb0cc3e3	-0.0021479062
50	0xbc250f86	-0.010074502
51	0xbb9b10a9	-0.0047322107
52	0x3cca9f1a	0.024734069
53	0x3c5fe8ba	0.013666326
54	0x3c4e47a7	0.012590325
55	0xb91b0c84	-0.00014786614
56	0x3be0cb00	0.006860137
57	0xbc412904	-0.011789564
58	0x3c0943f5	0.008378019
59	0x3ab64266	0.0013905286
60	0xbafce86a	-0.0019295339
61	0xbadad3df	-0.0016695223
62	0xbc04c91a	-0.008104587
63	0xbc6c30ea	-0.014415959
64	0x3b5ed917	0.0034003907
65	0x3c358014	0.0110778995
66	0x3c23d327	0.009999073
67	0x3c201543	0.009770694
68	0xbbf5e35a	-0.007503909
69	0xbc0de98f	-0.008661642
70	0x3b92d973	0.0044814884
71	0xbb927e9b	-0.004470659
72	0xbb4b9b05	-0.003106774
73	0xbb84f625	-0.004057663
74	0xbc324fbf	-0.010883271
75	0x3b8a2b03	0.004216553
76	0x3c56921b	0.013096358
77	0xb926c7aa	-0.00015905374
78	0x3b2fcb0c	0.0026823906
79	0xbbe82d0a	-0.007085447
80	0xbc551080	-0.013004422
81	0xbbf73ba5	-0.007544952
82	0x3c2afc7e	0.010436175
83	0x3c34068a	0.010987887
84	0x3c21a458	0.009865843
85	0xbc563b23	-0.013075623
86	0x3bc29153	0.005937734
87	0x3b680a50	0.0035406537
88	0x3c1a9689	0.009435304
89	0x3ba9a7ef	0.00517749
90	0x3c3d156b	0.011540751
91	0x3b19582f	0.0023398509
92	0xbb459909	-0.003015103
93	0xbabee561	-0.001456421
94	0x3b9dd286	0.004816356
95	0x3c645d2f	0.013938232
96	0xbc6cdc25	-0.014456783
97	0xbbf5ce8d	-0.0075014294
98	0xb7d9aa37	-2.5947678e-05
99	0x3bbfa22f	0.005848191
100	0x3b98fbc1	0.0046686833
101	0xba0a8890	-0.00052846316
102	0x3adca715	0.0016834462
103	0x3c80addf	0.015707908
104	0xbbce6aa8	-0.0062993355
105	0x3c68bca8	0.014205135
106	0x3a5a692a	0.00083317107
107	0x3bc32084	0.005954804
108	0xba4b2f7b	-0.00077509106
109	0x3c745c12	0.014914529
110	0xb96ed045	-0.00022775035
111	0x3ad26b92	0.0016053787
112	0xbc4ff0c8	-0.012691684
113	0xbc44df3b	-0.012016113
114	0xbb96ff1f	-0.0046080495
115	0x379c3e3f	1.8625635e-05
116	0xbc824914	-0.015903987
117	0xbc075db9	-0.008262091
118	0x3b20599b	0.0024467472
119	0xbba47a68	-0.005019475
120	0xbb6edf22	-0.0036448915
121	0x3c46fe39	0.012145572
122	0x3cd4aec0	0.025962234
123	0xbc237727	-0.009977139
124	0xbcca9b5f	-0.02473229
125	0x3ac94d84	0.0015358184
126	0x3acf1e58	0.001580189
127	0x3aec4c95	0.0018028194
128	0xb8339a6a	-4.2820735e-05
129	0x3b88f443	0.004179509
130	0xbbd5a582	-0.006519974
131	0xbc797d80	-0.015227675
132	0xbae5b282	-0.0017524513
133	0xbb0710f7	-0.0020609477
134	0xbc1e3d61	-0.009658189
135	0x3bfec297	0.0077746618
136	0x3c294c51	0.010333137
137	0x3c2c79e1	0.010527105
138	0x3b78df6f	0.0037974974
139	0xbb7cc772	-0.0038571027
140	0xbc41e1ff	-0.011833667
141	0x3bd67bfd	0.0065455423
142	0x3be646a5	0.0070274645
143	0x3b286597	0.0025695318
144	0xbc16b4db	-0.009198393
145	0x3bd8fdb0	0.006622039
146	0x3c921b4c	0.017835282
147	0xbc02195f	-0.007940619
148	0xbae15498	-0.0017191349
149	0x3b9e0e59	0.0048234877
150	0xbc89bea0	-0.01681453
151	0xbc5ceecb	-0.013484667
152	0xbc49c4a1	-0.012314946
153	0xbc2ef00a	-0.010677347
154	0xbc6ca8b7	-0.014444522
155	0xbbc1e752	-0.005917468
156	0xbc358bcf	-0.011080696
157	0xbc061494	-0.008183617
158	0x3c1d7314	0.009609956
159	0x3c5e10e8	0.013553835
160	0xbc462aef	-0.012095197
161	0x3b9863e4	0.0046505798
162	0x3b879af8	0.0041383468
163	0x3a9f5a0f	0.0012157577
164	0xbbc54851	-0.0060205837
165	0x3ab7a759	0.0014011665
166	0x3bed88c0	0.007248968
167	0x3bdd000d	0.006744391
168	0x3c0cf077	0.008602253
169	0x39cb3a06	0.00038762408
170	0x3bd72f33	0.006566906
171	0x3b6082d0	0.0034257658
172	0x3be57f03	0.0070036664
173	0x3b02b300	0.0019943118
174	0xbcb9a6e7	-0.022662593
175	0x3c46e0af	0.01213853
176	0xbcce9f0b	-0.025222322
177	0xbba3626f	-0.0049860994
178	0x3b54627b	0.0032407332
179	0x3c295705	0.0103356885
180	0x3bda1d0a	0.0066562938
181	0xbc2d2edb	-0.010570253
182	0xbbb68e2d	-0.005571148
183	0x3c6d007b	0.014465447
184	0x3b9ed83a	0.0048475536
185	0x3bce57e0	0.0062970966
186	0xbc20bdce	-0.009810878
187	0x3bafac01	0.0053610806
188	0x3c1b3fea	0.0094756875
189	0x3c8a78ea	0.01690336
190	0xb979d835	-0.00023827034
191	0x3b250571	0.0025180245
192	0x3a1e41ba	0.00060370157
193	0xbb9507e7	-0.004548061
194	0x3c6ce723	0.014459404
195	0xbc0772f6	-0.008267155
196	0xbc2d6fa4	-0.010585699
197	0xbc91c432	-0.017793749
198	0xbc10dc6c	-0.008841615
199	0x3a23713b	0.0006234829
200	0xbc3a61b1	-0.0113758305
201	0xbc50da0f	-0.012747302
202	0xbb02f937	-0.001998497
203	0xbc219156	-0.009861311
204	0xbaff858b	-0.0019494755
205	0x3ab3b918	0.0013711778
206	0x3c3f329b	0.01166978
207	0xbb7cba48	-0.003856318
208	0x3c63b2c3	0.013897601
209	0x3bb4198b	0.005496209
210	0x3ba1587f	0.0049238796
211	0x385fb70d	5.3337822e-05
212	0xbb4f0c2a	-0.0031592944
213	0xb9ab370f	-0.00032656683
214	0x3c3030e7	0.010753847
215	0x3bd82433	0.006596112
216	0x3b210cab	0.00245742
217	0xbc1cdb1b	-0.009573723
218	0xbb885623	-0.004160659
219	0x3ba60887	0.0050669345
220	0xbb4173ee	-0.0029518562
221	0x3c9e7e45	0.01934732
222	0xbc273ad4	-0.010206897
223	0x3c96c7a9	0.018405752
224	0xbbc95a79	-0.0061448184
225	0xbbb7796c	-0.0055991914
226	0xbc41fc1d	-0.011839894
227	0xbc6f44b0	-0.014603779
228	0x3a75e68f	0.0009380364
229	0x3a0cd497	0.00053722545
230	0x3c06ac76	0.008219829
231	0xbb6104e7	-0.0034335197
232	0x3c5a19b8	0.013311796
233	0xbcbf7591	-0.02337149
234	0x3add5e5a	0.0016889081
235	0xbb88d010	-0.0041751936
236	0xbbab1b39	-0.005221751
237	0x3c34b097	0.01102843
238	0xba8e6f2e	-0.0010866874
239	0x3b6a1f27	0.0035724135
240	0xbb1bc70d	-0.0023769767
241	0xbafe3728	-0.00193951
242	0xbb8e22bf	-0.004337638
243	0xbba69232	-0.005083346
244	0x3a0826aa	0.00051937497
245	0x3c9b5d17	0.018965287
246	0x3bb84a4f	0.0056240926
247	0x3b8e6580	0.004345596
248	0x3b07fcb5	0.002074999
249	0x3a51dbc5	0.00080054655
250	0x3c25830d	0.010102046
251	0xbbec8d5a	-0.007218999
252	0xbbfb3a6b	-0.007666876
253	0x3ba4d7da	0.0050306143
254	0xbba0853b	-0.004898695
255	0x3b13e727	0.0022568197

action_model._discrete_distribution.branches.0.bias f4 [4]
0	0x00000000	0.0
1	0x00000000	0.0
2	0x00000000	0.0
3	0x00000000	0.0
