results/ppo/defender_1/defender_1-128.onnx (onnx, 73618 bytes, 5 tensors)

network_body._body_endoder.seq_layers.0.weight f4 [128, 1]
0	0x3feab0ff	1.8335265
1	0x3fdca431	1.7237607
2	0xbf34d210	-0.7063303
3	0xbea00b7e	-0.31258768
4	0x3fe0a577	1.7550496
5	0xbe856124	-0.26050675
6	0xbf3a5386	-0.72783697
7	0x3e5b6cee	0.21428272
8	0xbdbc7848	-0.09202629
9	0xbf44d713	-0.7689068
10	0xbeace334	-0.33767092
11	0x3e5abb93	0.21360616
12	0x3f8c7b5e	1.0975149
13	0xbe730d59	-0.2373556
14	0x3fcc99d9	1.598445
15	0x3b34fb6f	0.0027615686
16	0xbd82cac0	-0.06386328
17	0x3d28fd52	0.04125721
18	0x3f8806fa	1.0627129
19	0x3fd4cf13	1.6625694
20	0xbe1b7155	-0.15179951
21	0xbfcbd030	-1.5922909
22	0xbfba5958	-1.4558516
23	0x3f9ba1fc	1.2158809
24	0x3ff1df34	1.8896241
25	0xc0142acc	-2.315112
26	0xbee4679b	-0.44610295
27	0xbf3cd867	-0.73767704
28	0xbf06cf7e	-0.5266036
29	0xbf959a89	-1.1687785
30	0xbff8bd7c	-1.9432826
31	0x3e469378	0.19392192
32	0xbebffd4f	-0.37497947
33	0x3e9f5633	0.31120452
34	0xbf140c22	-0.57831013
35	0xbf9a6fcb	-1.2065367
36	0x3ec83f24	0.39110672
37	0xbf8f2bb2	-1.118521
38	0x3f2a10c7	0.6643185
39	0xbf598d0f	-0.84980863
40	0xbfd3810b	-1.6523756
41	0xbfc93389	-1.5718852
42	0x3f92c2e9	1.1465732
43	0x3f4bdf94	0.7963803
44	0xbfb277bc	-1.394279
45	0x3e85811d	0.26075068
46	0x3dfe6018	0.12420672
47	0xbf762ed4	-0.96165204
48	0x3f6ba006	0.9204105
49	0xbf2fbb0d	-0.6864479
50	0xbf035db0	-0.5131483
51	0x3f88067b	1.0626978
52	0x3fa0b674	1.255568
53	0xbfc9e14f	-1.5771884
54	0xbf7e88a2	-0.99427235
55	0x3f9c183b	1.2194895
56	0x3f94c09b	1.1621279
57	0xbe2cb2de	-0.16865107
58	0xbf62231b	-0.88334817
59	0x3eaa07fb	0.33209214
60	0xbf1c6c3e	-0.61102664
61	0xbf0b1091	-0.54322153
62	0x3f3174e1	0.6931897
63	0xbdbbc3e9	-0.09168226
64	0x3f997591	1.1989003
65	0xbf5f5e24	-0.8725302
66	0x3d2da457	0.042393055
67	0x3f25dc00	0.6478882
68	0x3f3606e0	0.7110424
69	0xbf408957	-0.75209564
70	0xbfd824c6	-1.6886222
71	0x3fe82b63	1.813824
72	0x3e8a1abe	0.26973528
73	0xbe161aa7	-0.14658605
74	0xbdd9edee	-0.106410846
75	0x3f071e67	0.52780765
76	0xbefdf269	-0.49599007
77	0xbfe8c134	-1.8183961
78	0xc00c0af7	-2.1881692
79	0x3f14ec9f	0.58173555
80	0xbf599dd7	-0.8500647
81	0x3f7315a0	0.9495487
82	0xbf30000a	-0.6875006
83	0x3ef8b143	0.4857274
84	0xbf5d8982	-0.86537945
85	0xbf56ee4d	-0.8395737
86	0x3f699850	0.91248035
87	0x3f82f274	1.0230241
88	0x3ef6b1ce	0.4818253
89	0x3fa4594a	1.2839749
90	0x3f2523c9	0.6450773
91	0xbf133ed9	-0.5751777
92	0xbf0265ba	-0.5093647
93	0x3ed9d947	0.42548582
94	0xbedefe6f	-0.43553492
95	0xbf51894b	-0.8185012
96	0x3f37558a	0.716149
97	0xc0423284	-3.0343332
98	0x3eec613c	0.46167934
99	0xbf9208f2	-1.140898
100	0x40019ea5	2.025308
101	0xbed1bcfd	-0.409645
102	0x3f8acf21	1.0844461
103	0x3fe8ddb4	1.8192658
104	0x3ffb91be	1.9653852
105	0x3fd0f802	1.6325686
106	0xbddc77c3	-0.1076503
107	0xbeb8c4a2	-0.3608752
108	0x3fba0634	1.4533143
109	0xbea95540	-0.33072853
110	0x3f5151f6	0.8176569
111	0x3fdcd337	1.7251958
112	0xbaac68e0	-0.0013153814
113	0x3eb19d2d	0.34690228
114	0xbe9403b7	-0.28909084
115	0x3f821e2b	1.0165457
116	0xbf4d9f44	-0.80321145
117	0x3f0521d6	0.52004755
118	0x3e78cd80	0.24297142
119	0xbf6ba52d	-0.92048913
120	0x40057c6b	2.0857189
121	0x3f909507	1.129548
122	0x3db123cb	0.08649405
123	0x3ea1e87d	0.31622687
124	0x3fae8556	1.3634441
125	0x3e29507a	0.16534606
126	0xbef6c73a	-0.48198873
127	0xbf86ea54	-1.0540261

network_body._body_endoder.seq_layers.0.bias f4 [128]
0	0x00000000	0.0
1	0x00000000	0.0
2	0x00000000	0.0
3	0x00000000	0.0
4	0x00000000	0.0
5	0x00000000	0.0
6	0x00000000	0.0
7	0x00000000	0.0
8	0x00000000	0.0
9	0x00000000	0.0
10	0x00000000	0.0
11	0x00000000	0.0
12	0x00000000	0.0
13	0x00000000	0.0
14	0x00000000	0.0
15	0x00000000	0.0
16	0x00000000	0.0
17	0x00000000	0.0
18	0x00000000	0.0
19	0x00000000	0.0
20	0x00000000	0.0
21	0x00000000	0.0
22	0x00000000	0.0
23	0x00000000	0.0
24	0x00000000	0.0
25	0x00000000	0.0
26	0x00000000	0.0
27	0x00000000	0.0
28	0x00000000	0.0
29	0x00000000	0.0
30	0x00000000	0.0
31	0x00000000	0.0
32	0x00000000	0.0
33	0x00000000	0.0
34	0x00000000	0.0
35	0x00000000	0.0
36	0x00000000	0.0
37	0x00000000	0.0
38	0x00000000	0.0
39	0x00000000	0.0
40	0x00000000	0.0
41	0x00000000	0.0
42	0x00000000	0.0
43	0x00000000	0.0
44	0x00000000	0.0
45	0x00000000	0.0
46	0x00000000	0.0
47	0x00000000	0.0
48	0x00000000	0.0
49	0x00000000	0.0
50	0x00000000	0.0
51	0x00000000	0.0
52	0x00000000	0.0
53	0x00000000	0.0
54	0x00000000	0.0
55	0x00000000	0.0
56	0x00000000	0.0
57	0x00000000	0.0
58	0x00000000	0.0
59	0x00000000	0.0
60	0x00000000	0.0
61	0x00000000	0.0
62	0x00000000	0.0
63	0x00000000	0.0
64	0x00000000	0.0
65	0x00000000	0.0
66	0x00000000	0.0
67	0x00000000	0.0
68	0x00000000	0.0
69	0x00000000	0.0
70	0x00000000	0.0
71	0x00000000	0.0
72	0x00000000	0.0
73	0x00000000	0.0
74	0x00000000	0.0
75	0x00000000	0.0
76	0x00000000	0.0
77	0x00000000	0.0
78	0x00000000	0.0
79	0x00000000	0.0
80	0x00000000	0.0
81	0x00000000	0.0
82	0x00000000	0.0
83	0x00000000	0.0
84	0x00000000	0.0
85	0x00000000	0.0
86	0x00000000	0.0
87	0x00000000	0.0
88	0x00000000	0.0
89	0x00000000	0.0
90	0x00000000	0.0
91	0x00000000	0.0
92	0x00000000	0.0
93	0x00000000	0.0
94	0x00000000	0.0
95	0x00000000	0.0
96	0x00000000	0.0
97	0x00000000	0.0
98	0x00000000	0.0
99	0x00000000	0.0
100	0x00000000	0.0
101	0x00000000	0.0
102	0x00000000	0.0
103	0x00000000	0.0
104	0x00000000	0.0
105	0x00000000	0.0
106	0x00000000	0.0
107	0x00000000	0.0
108	0x00000000	0.0
109	0x00000000	0.0
110	0x00000000	0.0
111	0x00000000	0.0
112	0x00000000	0.0
113	0x00000000	0.0
114	0x00000000	0.0
115	0x00000000	0.0
116	0x00000000	0.0
117	0x00000000	0.0
118	0x00000000	0.0
119	0x00000000	0.0
120	0x00000000	0.0
121	0x00000000	0.0
122	0x00000000	0.0
123	0x00000000	0.0
124	0x00000000	0.0
125	0x00000000	0.0
126	0x00000000	0.0
127	0x00000000	0.0

network_body._body_endoder.seq_layers.2.weight f4 [128, 128]
0	0x3e17a904	0.14810568
1	0xbdf8e818	-0.12153643
2	0x3d91e383	0.071234725
3	0xbdf6a6db	-0.12043544
4	0xbcb1f410	-0.021722823
5	0x3dc7d478	0.09757322
6	0x3add7f36	0.0016898874
7	0xbd37e2f4	-0.044894174
8	0x3d442b6d	0.047892977
9	0xbc97636f	-0.01848003
10	0xb897d8ab	-7.240599e-05
11	0x3de58190	0.11206353
12	0xbe12b123	-0.14325385
13	0x3da6c6ac	0.081433624
14	0xbe6a61be	-0.22888848
15	0x3ce48b5d	0.027898485
16	0xbdd770f8	-0.10519594
17	0xbe3e5507	-0.18587123
18	0x3d984b53	0.07436242
19	0x3d6f887b	0.058479767
20	0xbd05609f	-0.03256285
21	0xbd951019	-0.07278461
22	0x3d1cdf0a	0.038298644
23	0x3c5740d2	0.013138013
24	0xbe37f146	-0.17963132
25	0x3cf606b5	0.030032495
26	0xbd847f4f	-0.06469595
27	0xbc91faf7	-0.017819865
28	0xbe239e59	-0.15978374
29	0x3d4e59c2	0.05037857
30	0xbc45366a	-0.012036899
31	0x3cfd692e	0.030933943
32	0xbc77133a	-0.015080268
33	0xbd9b057c	-0.075694054
34	0x3d9ad8d3	0.07560887
35	0x3d83708c	0.06417951
36	0xbd8f4003	-0.06994631
37	0xbd33b11f	-0.043870088
38	0xbdab8167	-0.08374291
39	0xbde5bc78	-0.11217588
40	0x3dcbd4d1	0.09952701
41	0xbd83ff43	-0.06445172
42	0x3b2f8824	0.0026784027
43	0xbdd8f1c3	-0.105929874
44	0x3d39455e	0.04523217
45	0xbe658531	-0.2241409
46	0x3c464b30	0.012102887
47	0xbd5ff74f	-0.05467921
48	0x3d9a7513	0.075418614
49	0xbe2a6614	-0.16640502
50	0x3e2f8a94	0.17142707
51	0x3d8973f2	0.06711568
52	0x3d8a18c5	0.06743006
53	0x3e32b16e	0.17450497
54	0xbd3bbb31	-0.045832817
55	0xbe6ca2a2	-0.23108914
56	0xbe0578bd	-0.13034339
57	0xbde3c286	-0.11121087
58	0xbde7be1a	-0.11315556
59	0x3d302097	0.04299983
60	0x3e61cac9	0.22050013
61	0x3d285f34	0.041106418
62	0xbe111905	-0.141697
63	0xbd102c3e	-0.035198443
64	0x3c859020	0.016304076
65	0xbd77bd05	-0.060482997
66	0x3b99bf5c	0.0046920013
67	0xbda08861	-0.07838512
68	0xbc058c82	-0.008151175
69	0x3cae4ff3	0.021278357
70	0x3cd6a449	0.026201384
71	0x3d940917	0.07228296
72	0xbd61391f	-0.054986116
73	0xbd81b553	-0.06333413
74	0xbe6480fd	-0.2231483
75	0x3be22fb5	0.00690266
76	0xbe6620ba	-0.22473422
77	0x3df5bda5	0.119990624
78	0xbe319306	-0.17341241
79	0xbd4a45f6	-0.049383126
80	0xbc1351c8	-0.008991666
81	0xbcdc2cb5	-0.026876787
82	0xbe1f3b7e	-0.15550038
83	0x3c85f173	0.016350484
84	0xbd713b76	-0.058894597
85	0xbd2ee280	-0.042696476
86	0xbcd29619	-0.025706338
87	0x3d26ee3b	0.040754538
88	0x3da04f08	0.07827574
89	0x3d43a120	0.047761083
90	0xbd86e5e9	-0.06586821
91	0x3cb722ea	0.022355516
92	0x3d68b069	0.056808863
93	0xbcf11d63	-0.029432958
94	0x3d6ce55e	0.05783593
95	0xbdedcfb6	-0.11611883
96	0x3d426b43	0.047465574
97	0x3d713fc3	0.0588987
98	0xbd1a2774	-0.03763528
99	0x3c1f6414	0.00972845
100	0xbd8bb0f2	-0.06820859
101	0x3d6390ac	0.05555789
102	0x3dd07790	0.10179055
103	0xbce9f5f0	-0.028559655
104	0xbd8d47b0	-0.06898439
105	0x3e3491ac	0.17633694
106	0xbd908ba9	-0.07057888
107	0xbdaf5d9a	-0.08562775
108	0x3c2d96c9	0.010595032
109	0x3d2c5b32	0.042079158
110	0xbd6edc64	-0.05831565
111	0x3c8a1b3f	0.016858695
112	0x3cf7468f	0.030185012
113	0x3da4ca06	0.080463454
114	0xbd9a4d04	-0.07534221
115	0x3af9fef5	0.0019073175
116	0xbd62913d	-0.05531429
117	0x3dc95da3	0.09832313
118	0x3ccb026d	0.02478143
119	0x3dfec90b	0.1244069
120	0x3db62796	0.08894269
121	0x3e4d2103	0.20032124
122	0xbdf8e027	-0.12152129
123	0x3da2a40c	0.07941446
124	0xbd56fb9d	-0.05248605
125	0x3e245248	0.16047013
126	0xbd927d54	-0.07152811
127	0x3cea698e	0.028614786
128	0x3d7bd038	0.06147787
129	0xbd8618c9	-0.06547696
130	0xbe5ebcb0	-0.21751666
131	0x3d06209d	0.032745946
132	0xbcbef8d8	-0.023312017
133	0x3dcfc8e7	0.10145741
134	0xbd07a644	-0.033117548
135	0xbbe60b07	-0.0070203575
136	0x3d29f4b9	0.04149315
137	0xbe0438cd	-0.12912293
138	0xbda23dc7	-0.07921939
139	0xbd0b4bf2	-0.034007974
140	0x3e587cb5	0.21141322
141	0xbdb798a4	-0.08964661
142	0x3d6e2faf	0.058150943
143	0xbe44dc16	-0.19224581
144	0xbb2d8ca1	-0.0026481526
145	0x3dd47341	0.103735454
146	0xbc9f4999	-0.019444274
147	0x3d5bac1a	0.053630926
148	0x3d015523	0.031575333
149	0xbdb7cd3b	-0.089746915
150	0xbe569aca	-0.20957485
151	0x3cfb5124	0.03067834
152	0xbd68a8ab	-0.05680148
153	0xbd2cd42a	-0.042194523
154	0x3d87d4c6	0.0663238
155	0xbd36a50e	-0.044591002
156	0x3eb4b132	0.3529144
157	0xbe183e52	-0.14867523
158	0x3d547596	0.05186995
159	0xbdc1144a	-0.09427698
160	0xbd5d5120	-0.054032445
161	0xbdc56d34	-0.096399695
162	0x3d911dea	0.07085784
163	0x3d84cf35	0.06484834
164	0xbd29c8e8	-0.041451365
165	0x3d4a4090	0.049377978
166	0x3e03c33b	0.12867443
167	0x3d0cd4f9	0.034382794
168	0x3cf38446	0.029726159
169	0x3c1f7ebb	0.009734805
170	0xbe199e3d	-0.1500177
171	0xbd80b21e	-0.06283973
172	0x3dc1ab15	0.094564594
173	0x3cf42d74	0.02980683
174	0xbd9fd19f	-0.07803654
175	0xbdd5b163	-0.104342245
176	0x3d8bab03	0.06819727
177	0x3dcfdf70	0.10150039
178	0x3c939f3a	0.018020261
179	0xbc89123b	-0.016732326
180	0x3caaf527	0.02086885
181	0x3dcc9d84	0.09990981
182	0xbdb590ee	-0.08865534
183	0x3c0d95b7	0.008641652
184	0x3d6ff289	0.05858091
185	0xbdafbc69	-0.08580858
186	0x3e245694	0.16048652
187	0xbbbed4b7	-0.0058236974
188	0x3e5f2af5	0.2179373
189	0xbbbe2160	-0.0058023185
190	0x3e1c6884	0.15274245
191	0x3e03c147	0.12866698
192	0x3c8646da	0.016391207
193	0xbc292c58	-0.010325514
194	0xbde9d3da	-0.114173606
195	0xbdfee376	-0.124457285
196	0x3d7fee15	0.062482912
197	0x3d9e188d	0.077195264
198	0xbe0d96be	-0.13827035
199	0x3d922b3d	0.07137153
200	0xbd903924	-0.07042149
201	0x3db5cd7f	0.08877086
202	0xbcc8fc3a	-0.024534333
203	0xbcdfb3f4	-0.027307488
204	0x3dc1a944	0.09456113
205	0xbdc882a7	-0.09790545
206	0xbdce362d	-0.10068927
207	0xbdb50752	-0.08839287
208	0x3d875d66	0.06609611
209	0xbdec70d1	-0.115449555
210	0x38e9e214	0.00011152416
211	0x3d99246d	0.07477651
212	0xbde61253	-0.11233964
213	0x3cf858a1	0.030315699
214	0xbcf093b8	-0.029367313
215	0xbdc48c59	-0.09597082
216	0x3de27533	0.1105751
217	0xbd5417d1	-0.051780526
218	0xbd670f95	-0.056411345
219	0xbd9869a5	-0.07442025
220	0xbdfa833a	-0.12232061
221	0xbe2b2821	-0.16714527
222	0x3e1a942b	0.15095584
223	0x3da1b0c5	0.07895044
224	0xbd449cc8	-0.04800108
225	0x3d6a9baf	0.057277378
226	0x3d7867ab	0.06064574
227	0x3e15ed6f	0.14641355
228	0xbb59af80	-0.0033216178
229	0x3e32ffbe	0.1748037
230	0xbd88339b	-0.06650468
231	0x3d7a3cda	0.06109319
232	0xbd3fde18	-0.046842664
233	0xbe187b33	-0.14890747
234	0x3d944cf7	0.072412424
235	0x3da85cf2	0.08220853
236	0x3cdb490a	0.026768226
237	0xbcca8719	-0.024722623
238	0x3cb700ce	0.02233925
239	0xbe0c6927	-0.13711987
240	0x3dcb7d92	0.0993606
241	0xbd9f9597	-0.07792204
242	0x3e33acfe	0.1754646
243	0xbddd1b09	-0.10796172
244	0x3dfed4af	0.1244291
245	0xbde308cc	-0.11085662
246	0x3db04d27	0.08608466
247	0xbcb23d80	-0.021757841
248	0xbdcc56e6	-0.09977512
249	0xbd39ea62	-0.04538954
250	0x3db44b31	0.08803404
251	0x3dc495f6	0.09598915
252	0x3dd5fbf7	0.10448449
253	0x3d991690	0.074750066
254	0x3dd2af3d	0.1028733
255	0xbd48edc5	-0.04905488

action_model._discrete_distribution.branches.0.weight f4 [4, 128]
0	0x3b877f02	0.0041350136
1	0xbbd0b3c3	-0.0063690855
2	0xbbe3849b	-0.006943298
3	0xbb9fb8b3	-0.004874313
4	0x3c364f2c	0.0111272745
5	0xbb297cdc	-0.0025861776
6	0x37adbf66	2.0712334e-05
7	0xbad949df	-0.0016577801
8	0x3bf53fea	0.007484426
9	0xbc01a200	-0.007912159
10	0xbb3b97d7	-0.002862444
11	0xbbb1c0eb	-0.005424609
12	0x3b6781dd	0.0035325207
13	0xbb5ee5da	-0.0034011514
14	0xbc9221c9	-0.017838376
15	0x3af556d8	0.0018717898
16	0xbb954082	-0.004554809
17	0xbba43148	-0.0050107576
18	0xbc5eebaf	-0.013605996
19	0xbaa572c7	-0.0012622707
20	0x3c080c23	0.008303675
21	0xbb92d997	-0.004481505
22	0x3cb58113	0.022156274
23	0x3b251a38	0.002519263
24	0xb8ee581f	-0.00011365138
25	0x3c23b7f6	0.00999259
26	0x3b4d133d	0.0031291984
27	0x3af6011f	0.0018768645
28	0x3a9b11a0	0.0011830814
29	0x3c002343	0.007820907
30	0xbbbb5706	-0.005717161
31	0xbc2062e3	-0.009789201
32	0xbb633028	-0.0034666155
33	0xbbe39e0d	-0.0069463314
34	0xbb30f631	-0.002700221
35	0x3b3096fd	0.0026945465
36	0x3c68e2aa	0.014214197
37	0xbb39565e	-0.0028280239
38	0x3b6b7e52	0.0035933447
39	0x3c4d1703	0.012517693
40	0xbc17d1ab	-0.009266297
41	0x3c331acc	0.010931682
42	0x3ad280b5	0.0016060086
43	0x3c17e747	0.009271449
44	0x3be8f1e7	0.007108915
45	0xbc53d2c2	-0.012928667
46	0x3a777c17	0.0009440793
47	0xbbbf8c1f	-0.005845561
48	0xbbe974bd	-0.007124512
49	0x3c26d135	0.010181715
50	0xbc1afb9b	-0.0094594015
51	0x3c21f48b	0.009884964
52	0xbaf341e3	-0.0018559064
53	0x3b17b4f9	0.002314864
54	0xbc0154eb	-0.007893781
55	0x39b5d5af	0.00034682217
56	0xba4cc895	-0.00078118715
57	0x3c6bacf2	0.014384495
58	0xbbb23505	-0.0054384493
59	0x3cb8e762	0.02257127
60	0xbbae9327	-0.0053276005
61	0xbc0132e3	-0.0078856675
62	0x3c45bc23	0.012068781
63	0xbb362226	-0.002779135
64	0x3c0d3e8d	0.00862087
65	0x3aa1a930	0.0012333747
66	0xbbd47392	-0.0064835036
67	0xbb1e662b	-0.0024169784
68	0x3c7acd57	0.015307746
69	0x3baae8e4	0.005215751
70	0xbc35bb7c	-0.011092063
71	0xbc4bf957	-0.012449584
72	0xbc96af1f	-0.018394051
73	0x3b6fcfc8	0.0036592353
74	0x3c3010ab	0.010746161
75	0x3c71fc38	0.014769606
76	0xba4491ea	-0.00074985495
77	0x39e59d4d	0.00043795482
78	0xbbb3ed5f	-0.0054909433
79	0x3aeed74f	0.0018222126
80	0x3c30adb9	0.010783606
81	0x3bc08377	0.005875047
82	0xba1bdb61	-0.0005945471
83	0x39b8fa8f	0.00035281896
84	0xbb653cb3	-0.0034978807
85	0xbc087a0c	-0.0083298795
86	0xbbb403e7	-0.0054936293
87	0x3a4921dd	0.00076725875
88	0x3c136055	0.008995135
89	0x3c00cd29	0.007861414
90	0xbc202cb0	-0.009776279
91	0xbb8feab7	-0.004391994
92	0xbbea1d22	-0.007144586
93	0xbca19f6b	-0.019729337
94	0x3ca5361e	0.020167407
95	0x3a6e5508	0.000909165
96	0x3c1ebd02	0.009688618
97	0xbb97d7db	-0.0046338863
98	0xba763760	-0.0009392407
99	0xba86c977	-0.001028343
100	0x3c6a8f00	0.01431632
101	0xbbff4017	-0.0077896225
102	0xb9267597	-0.000158748
103	0xbba88019	-0.0051422236
104	0xb76fb4f7	-1.4287644e-05
105	0xbc6602b3	-0.0140387295
106	0x3c3f39ca	0.011671493
107	0xbbe6caf0	-0.007043235
108	0xbc0b20c9	-0.008491703
109	0x393785c2	0.00017502069
110	0x3ba8b732	0.0051487917
111	0x3c544ecf	0.012958243
112	0xbc2f5572	-0.010701524
113	0x395c3b2d	0.0002100288
114	0x3bcceebd	0.0062540458
115	0x3bb9f6de	0.005675181
116	0x3a089821	0.0005210657
117	0x3c03aee1	0.0080373
118	0xbba0639f	-0.0048946883
119	0x3a14da77	0.0005678306
120	0x3ad5b258	0.0016303761
121	0xbb00f00a	-0.0019674324
122	0xbca6c597	-0.02035789
123	0xbc2287d4	-0.009920079
124	0xbc7512a2	-0.014958056
125	0x3c87e968	0.016590789
126	0x3b63d095	0.0034761776
127	0xbbd053f5	-0.0063576647
128	0xbb3cec91	-0.0028827528
129	0xbc08e54e	-0.008355452
130	0xbc4d1a47	-0.012518472
131	0x3bba5170	0.0056859776
132	0x3c1cc863	0.00956926
133	0xbb2585df	-0.0025256795
134	0xbb548692	-0.0032428843
135	0xbb82a298	-0.003986668
136	0x3b3687b0	0.0027851872
137	0xbb76472a	-0.0037579038
138	0x3bedd9b2	0.0072586173
139	0x3a194eaf	0.00058482116
140	0xbb2e6803	-0.0026612289
141	0xbca6f755	-0.020381609
142	0x3bcaf847	0.0061941477
143	0xbc7c1fd5	-0.015388449
144	0xbcb6aeb4	-0.022300102
145	0x3b34b43f	0.0027573255
146	0xbc1180ef	-0.008880838
147	0x3bc91967	0.0061370614
148	0x3c4bb33f	0.012432872
149	0x3c0de90b	0.008661519
150	0xbc2eb2f0	-0.010662779
151	0x3b2ac356	0.002605637
152	0xbcbd9598	-0.02314262
153	0x3c8607a7	0.01636107
154	0x3ba25004	0.0049533863
155	0xbc29ac41	-0.01035601
156	0xbcce6c1f	-0.02519804
157	0x3c1f7baf	0.009734078
158	0x3a9a52a5	0.0011773898
159	0xba732510	-0.0009275237
160	0x3bf449f2	0.007455104
161	0xbc49b174	-0.0123103745
162	0xbb81666a	-0.0039489763
163	0xbb8d67bf	-0.004315346
164	0xbaf0fac8	-0.0018385286
165	0xbbf5e897	-0.0075045335
166	0x3b6c0fbd	0.0036020123
167	0x3ccfdf30	0.025374979
168	0x3c1bd9af	0.009512349
169	0x3c2153dd	0.009846655
170	0xbc066bb7	-0.008204392
171	0xbc06ed08	-0.008235224
172	0xbbf64ab7	-0.007516231
173	0x3b4dac8d	0.0031383366
174	0x3cdb2cab	0.026754698
175	0x3c16cc4f	0.009203984
176	0x3aaf583f	0.001337774
177	0x3c20d415	0.009816189
178	0xbc219c0b	-0.009863864
179	0xbbf10e03	-0.0073564067
180	0x3b917c8f	0.0044398974
181	0x3a95f720	0.0011441447
182	0xbc957388	-0.018243566
183	0xbb5cf2a3	-0.0033713959
184	0xbbba9c3f	-0.0056948955
185	0x38e8b1a3	0.000110957095
186	0xbc79860d	-0.015229714
187	0x3bac53f1	0.00525903
188	0xbc0f6b57	-0.008753619
189	0x3c1ec04d	0.009689403
190	0xb98712e3	-0.00025763278
191	0xbab15187	-0.0013528325
192	0xbc11aa5e	-0.008890716
193	0xbb326c17	-0.002722507
194	0x3c927de2	0.017882291
195	0x3bb36763	0.005474971
196	0xbc01bdd3	-0.007918793
197	0x3b981b7e	0.004641949
198	0x3b5095f5	0.0031827663
199	0xbc11a6ee	-0.008889897
200	0x3aeff575	0.0018307405
201	0xbc3cec19	-0.011530899
202	0x3bc99034	0.0061512236
203	0xbbde017a	-0.0067750784
204	0x3948893f	0.00019124614
205	0x3a91430a	0.0011082601
206	0x3b8d29a7	0.004307944
207	0xbbb2bb96	-0.005454491
208	0x3baf9d3f	0.0053593214
209	0x38bfdb3c	9.148425e-05
210	0x3b54ed85	0.0032490205
211	0xbbb4d2e7	-0.0055183056
212	0xbc1e3258	-0.009655558
213	0xbc65b287	-0.014019615
214	0xbbc81ce4	-0.0061069597
215	0x3c1d9027	0.009616888
216	0xbb498765	-0.0030750867
217	0xbbbb5e4f	-0.0057180296
218	0xbb76f910	-0.0037685074
219	0x3c0795cf	0.008275463
220	0x3c21c664	0.00987396
221	0xba7e297a	-0.00096955115
222	0xbaf5eec3	-0.0018763173
223	0x3b2c890b	0.00263268
224	0xbafdbe33	-0.0019359052
225	0xbbe54b60	-0.006997511
226	0x3b8fbed1	0.0043867608
227	0xba76a8f8	-0.00094093336
228	0x3bf63aa0	0.007514313
229	0xbc254d7c	-0.0100892745
230	0x3b6dd7e7	0.0036292018
231	0xbc5df0d5	-0.013546188
232	0x3be42d17	0.006963383
233	0x3ace7ba7	0.0015753404
234	0xbc4f05a5	-0.012635623
235	0xbbcc347b	-0.006231842
236	0xbc81c6a6	-0.015841793
237	0xbb84f591	-0.004057594
238	0x3a7e06e0	0.00096903555
239	0xbc82d262	-0.015969459
240	0xbc52d433	-0.012867975
241	0x3c1a1774	0.009405006
242	0x3bebdfb0	0.0071982965
243	0xbcccf357	-0.025018377
244	0xb7ab5ee9	-2.0428984e-05
245	0xbc1524df	-0.009103029
246	0x3b305644	0.0026906887
247	0x3c8408c2	0.016117457
248	0xbc1512f0	-0.009098753
249	0xba421bb2	-0.00074046396
250	0xba98a080	-0.0011644512
251	0x3c634810	0.0138721615
252	0xbabbef2f	-0.001433825
253	0xbb5e65bd	-0.0033935152
254	0xbbbf92c4	-0.0058463532
255	0xbbbd3133	-0.0057736873

action_model._discrete_distribution.branches.0.bias f4 [4]
0	0x00000000	0.0
1	0x00000000	0.0
2	0x00000000	0.0
3	0x00000000	0.0
