results/ppo/defender_1/defender_1-517.onnx (onnx, 73618 bytes, 5 tensors)

network_body._body_endoder.seq_layers.0.weight f4 [128, 1]
000000 3c 9e f0 be a9 a3 81 bf 49 7e 84 3f 91 c1 0d bf
       -0.46995723 -1.012807 1.0351039 -0.55373484
000010 57 3a e4 bd ca 93 80 3f 6c eb e9 3e 82 1b f1 3e
       -0.1114394 1.0045102 0.45687425 0.470913
000020 eb 01 89 bf 94 e6 92 bf 7d 37 9d be dc ed b3 3e
       -1.070371 -1.1476617 -0.30706397 0.3514241
000030 bb c5 37 bf 76 1d 86 bf 3f 10 5a 3f 69 85 ec 3d
       -0.7178609 -1.0477741 0.8518104 0.115488835
000040 5e 51 6e 3f 92 6c de be ff ab bc be eb 27 41 3e
       0.93092906 -0.43442208 -0.36849973 0.18862884
000050 03 1e 9b 3f 48 15 e4 be 67 69 4c bf 7b 1f df bf
       1.2118534 -0.44547486 -0.7984833 -1.7431482
000060 b7 2e c5 bd 09 31 93 3f 35 35 b5 3e 5a 36 1f 3e
       -0.09628051 1.1499339 0.35392156 0.15548077
000070 7c 4a 15 c0 5d d0 0a 40 9f e9 89 3f 3f 2a 1a 3f
       -2.3326712 2.1689675 1.077442 0.6022071
000080 03 1a 6d bf 17 9e e0 3f e5 89 52 bf e8 3a 22 c0
       -0.92617816 1.7548245 -0.8224166 -2.5348454
000090 98 56 9f 3f 5d f5 47 be 13 38 33 3f 41 a4 4d 3f
       1.2448301 -0.19527192 0.7000744 0.80328757
0000a0 e4 31 21 40 8b 96 b5 be 2f cc d8 3e 0d 45 0e bf
       2.51867 -0.35466418 0.4234328 -0.55574113
0000b0 f9 ab 3f bf 22 cf 84 be 90 82 ae be b1 1c 0e 3f
       -0.74871784 -0.2593928 -0.34083986 0.5551253
0000c0 17 e8 0e 40 6d 52 70 3e 2a 0a 9f 3f f4 d8 10 be
       2.2329156 0.23468943 1.2424977 -0.14145261
0000d0 1b 3b 58 3f 7f d4 a6 be d2 1f 7c 3f 03 fa 16 bf
       0.8446519 -0.32583997 0.98486054 -0.5897524
0000e0 b0 28 16 bf d7 10 ca bd 55 4e 5a 3f 7b 77 1c bf
       -0.58655834 -0.09866493 0.85275775 -0.6111981
0000f0 8e 12 b1 3f 43 58 05 40 67 42 ad 3f df d0 f5 bf
       1.3833787 2.083512 1.3535889 -1.9204367
000100 77 5e 98 3e 95 dc c8 bd a0 c5 8d 3f 62 54 16 bf
       0.2975957 -0.09807698 1.1075935 -0.5872251
000110 44 eb a1 3d 5d 9e 5b 3f 7c 1a a7 bf 76 85 95 3e
       0.079062015 0.8578852 -1.3054957 0.29203385
000120 32 9a 2e 3f c4 e8 12 bd b0 42 a3 3e 4c ea 72 bf
       0.68204033 -0.035866514 0.31886816 -0.9488876
000130 55 e1 db 3e 20 81 d8 bf e1 c8 fa 3e b2 88 a5 3d
       0.42945352 -1.6914406 0.48981383 0.08082713
000140 e8 fa 7f bf ae ab 3b bf e0 b3 8f bf 73 7d b8 3e
       -0.9999223 -0.7330884 -1.1226768 0.3603321
000150 9c e7 a4 3d 34 32 70 bf ad ff a8 3f e8 cd 85 3f
       0.080519885 -0.93826604 1.3203026 1.0453463
000160 dc 8b 72 bf 0c 9e ce 3d 7a b7 32 bf bc 77 41 bf
       -0.9474466 0.10088739 -0.69811213 -0.75573325
000170 b8 7e 4a 3f 2e b5 30 bb 3d f2 e2 3f 23 d8 6a 3f
       0.7909961 -0.002696346 1.7730175 0.9173605
000180 f6 83 53 be 21 2e d9 be 9f 6f b2 3f 8c a4 91 bf
       -0.20655808 -0.42418006 1.3940314 -1.1378341
000190 16 b1 32 3e 68 16 d3 bf 81 35 f1 bf 49 60 94 3d
       0.17450365 -1.6491213 -1.8844453 0.072449274
0001a0 74 28 49 bd 9a 62 2d bf 23 9e 93 bf 99 ba 03 3f
       -0.049110845 -0.6772858 -1.1532634 0.514566
0001b0 55 8e 32 3f ef b9 b4 bd 62 29 df be d5 a1 93 3f
       0.6974843 -0.088245265 -0.4358626 1.1533762
0001c0 20 ab ba 3e 07 01 28 3f 5d 22 38 bf 7c 66 d4 3f
       0.36458683 0.6562657 -0.71927434 1.6593776
0001d0 8c 7c b1 3f 3a d6 bf bf 17 de 17 3f 86 92 d2 3f
       1.3866134 -1.4987252 0.5932326 1.6450965
0001e0 5e 38 c0 3f 95 38 9a be 9d 27 3b 3d b2 85 ab bf
       1.5017202 -0.30121294 0.045692075 -1.3400176
0001f0 8b 0f d8 bf 3d a7 09 c0 01 3e 03 40 b6 67 95 3c
       -1.6879743 -2.1508324 2.0506594 0.01823793

network_body._body_endoder.seq_layers.0.bias f4 [128]
000000 00 00 00 00 00 00 00 00 00 00 00 00 00 00 00 00
       0.0 0.0 0.0 0.0
000010 00 00 00 00 00 00 00 00 00 00 00 00 00 00 00 00
       0.0 0.0 0.0 0.0
000020 00 00 00 00 00 00 00 00 00 00 00 00 00 00 00 00
       0.0 0.0 0.0 0.0
000030 00 00 00 00 00 00 00 00 00 00 00 00 00 00 00 00
       0.0 0.0 0.0 0.0
000040 00 00 00 00 00 00 00 00 00 00 00 00 00 00 00 00
       0.0 0.0 0.0 0.0
000050 00 00 00 00 00 00 00 00 00 00 00 00 00 00 00 00
       0.0 0.0 0.0 0.0
000060 00 00 00 00 00 00 00 00 00 00 00 00 00 00 00 00
       0.0 0.0 0.0 0.0
000070 00 00 00 00 00 00 00 00 00 00 00 00 00 00 00 00
       0.0 0.0 0.0 0.0
000080 00 00 00 00 00 00 00 00 00 00 00 00 00 00 00 00
       0.0 0.0 0.0 0.0
000090 00 00 00 00 00 00 00 00 00 00 00 00 00 00 00 00
       0.0 0.0 0.0 0.0
0000a0 00 00 00 00 00 00 00 00 00 00 00 00 00 00 00 00
       0.0 0.0 0.0 0.0
0000b0 00 00 00 00 00 00 00 00 00 00 00 00 00 00 00 00
       0.0 0.0 0.0 0.0
0000c0 00 00 00 00 00 00 00 00 00 00 00 00 00 00 00 00
       0.0 0.0 0.0 0.0
0000d0 00 00 00 00 00 00 00 00 00 00 00 00 00 00 00 00
       0.0 0.0 0.0 0.0
0000e0 00 00 00 00 00 00 00 00 00 00 00 00 00 00 00 00
       0.0 0.0 0.0 0.0
0000f0 00 00 00 00 00 00 00 00 00 00 00 00 00 00 00 00
       0.0 0.0 0.0 0.0
000100 00 00 00 00 00 00 00 00 00 00 00 00 00 00 00 00
       0.0 0.0 0.0 0.0
000110 00 00 00 00 00 00 00 00 00 00 00 00 00 00 00 00
       0.0 0.0 0.0 0.0
000120 00 00 00 00 00 00 00 00 00 00 00 00 00 00 00 00
       0.0 0.0 0.0 0.0
000130 00 00 00 00 00 00 00 00 00 00 00 00 00 00 00 00
       0.0 0.0 0.0 0.0
000140 00 00 00 00 00 00 00 00 00 00 00 00 00 00 00 00
       0.0 0.0 0.0 0.0
000150 00 00 00 00 00 00 00 00 00 00 00 00 00 00 00 00
       0.0 0.0 0.0 0.0
000160 00 00 00 00 00 00 00 00 00 00 00 00 00 00 00 00
       0.0 0.0 0.0 0.0
000170 00 00 00 00 00 00 00 00 00 00 00 00 00 00 00 00
       0.0 0.0 0.0 0.0
000180 00 00 00 00 00 00 00 00 00 00 00 00 00 00 00 00
       0.0 0.0 0.0 0.0
000190 00 00 00 00 00 00 00 00 00 00 00 00 00 00 00 00
       0.0 0.0 0.0 0.0
0001a0 00 00 00 00 00 00 00 00 00 00 00 00 00 00 00 00
       0.0 0.0 0.0 0.0
0001b0 00 00 00 00 00 00 00 00 00 00 00 00 00 00 00 00
       0.0 0.0 0.0 0.0
0001c0 00 00 00 00 00 00 00 00 00 00 00 00 00 00 00 00
       0.0 0.0 0.0 0.0
0001d0 00 00 00 00 00 00 00 00 00 00 00 00 00 00 00 00
       0.0 0.0 0.0 0.0
0001e0 00 00 00 00 00 00 00 00 00 00 00 00 00 00 00 00
       0.0 0.0 0.0 0.0
0001f0 00 00 00 00 00 00 00 00 00 00 00 00 00 00 00 00
       0.0 0.0 0.0 0.0

network_body._body_endoder.seq_layers.2.weight f4 [128, 128]
000000 89 15 a9 3c 17 c3 f6 bc db 04 74 bd 7c 2c 03 3c
       0.020640152 -0.030122323 -0.059574943 0.008006211
000010 6b a2 8f 3d 4d 3a aa 3d af a1 99 bd 10 fb ba 3d
       0.07013401 0.08311901 -0.07501542 0.091299176
000020 a3 b0 01 bd 32 db 6b 3c 5f 58 1b 3d ff 6e 98 3d
       -0.031662595 0.014395522 0.037926074 0.07443046
000030 3f 24 42 3c 73 70 2d bd 16 82 99 bd cf ec 0b bd
       0.011849462 -0.042343568 -0.07495515 -0.034161385
000040 3b 60 aa 3d 01 2b f9 bc 30 f6 37 3d e4 3f 9a 3d
       0.08319136 -0.030416014 0.044912517 0.075317174
000050 48 ab 04 3e 4b 8c 90 3d d5 a0 07 be cb 4f e6 bd
       0.12955964 0.07058009 -0.13244946 -0.11245688
000060 c1 82 b9 bd 92 6b 0b 3e 97 2b ac 3d a3 54 02 3d
       -0.090581425 0.13615254 0.084067516 0.031818997
000070 db 6a d7 3b 66 31 5d bd 57 76 93 3d 24 49 29 3d
       0.0065740175 -0.05400219 0.07200306 0.041329518
000080 cb 03 42 bd 7e a0 a6 3d 40 8e 08 bd e3 3f 9b 3d
       -0.0473669 0.0813608 -0.033338785 0.07580545
000090 bc 28 af bc bc 32 c5 3c 14 5e 8a 3d 73 b3 22 bd
       -0.021381728 0.024072044 0.06756225 -0.039721917
0000a0 15 55 59 3c b5 9f a0 bd a1 e2 22 be 5d f7 56 be
       0.013264914 -0.07842962 -0.15906765 -0.20992799
0000b0 ff aa 9b bc a3 55 ce bc df 13 0b 3e 61 ac 4e 3e
       -0.019002436 -0.02518732 0.13581799 0.20182945
0000c0 01 96 dd 3d 78 fa 0d 3e 37 0f a4 bd 0b 86 1e be
       0.108196266 0.13865077 -0.080107145 -0.15480821
0000d0 16 65 1c be 06 8f 24 b9 48 91 85 bd d7 72 2f be
       -0.15272936 -0.00015693539 -0.06521851 -0.17133652
0000e0 94 ce 01 bd 99 73 39 3e 38 fb 6e be 83 ea 4a bd
       -0.03169115 0.18110503 -0.2333802 -0.049540054
0000f0 66 34 b7 3d f2 f5 18 3d f4 0b 9a bd 1a 94 e1 bc
       0.08945541 0.037343927 -0.07521811 -0.02753644
000100 fc 00 0e bd ad b5 f1 3d d4 d4 26 bc ce fd d7 bd
       -0.034668908 0.1180223 -0.010182578 -0.10546456
000110 61 63 9c 3d 77 17 93 3d b3 ab 25 be 25 6a 2a 3d
       0.076361425 0.0718221 -0.1617878 0.041605134
000120 8a d1 9a bd 2d e4 98 bd df da c8 bb 9e 36 aa bb
       -0.07559498 -0.07465396 -0.006129607 -0.005194499
000130 4a 57 3e be e6 20 0b be 2f 89 86 3d 66 da 67 3c
       -0.18587986 -0.13586769 0.065691344 0.014151191
000140 f5 b9 b0 bc 18 e3 57 3d 29 4d 01 3d 88 70 39 3d
       -0.021573046 0.052706808 0.031567726 0.045273334
000150 a8 40 da bb cb 57 07 3e 89 89 d4 bd b7 d7 ae 3d
       -0.0066605397 0.13217084 -0.10377795 0.08537238
000160 ab 5e 31 3c 2b c5 04 bd a8 7c b5 38 0f 8e 58 3c
       0.010825793 -0.032414597 8.6539716e-05 0.013217463
000170 48 ef c1 3c 71 3a 10 be ee 2f bf bd cb b1 93 3c
       0.023673669 -0.14084794 -0.09335314 0.018029114
000180 05 2f c1 3c 55 a9 01 bd 2e 0e 91 b8 76 66 44 3d
       0.023581991 -0.03165563 -6.91678e-05 0.047949277
000190 cf a4 f1 3d 89 28 15 3e 14 75 62 3d c7 29 c2 39
       0.11799013 0.14566244 0.055287436 0.0003703369
0001a0 a2 78 a6 3c 54 ae af bd 9c 0a 0a 3c ab 8d db bc
       0.020321194 -0.08578172 0.008425381 -0.026800951
0001b0 d4 45 1a bb 4a f5 52 3d 18 6a 29 be 30 7f 3b 3d
       -0.0023540156 0.051503457 -0.16544378 0.045775592
0001c0 95 70 19 bd ae 25 40 bd 43 e5 15 be 85 c5 37 3c
       -0.037460882 -0.046910934 -0.14638238 0.011216526
0001d0 36 98 4b bd 9b f1 ba bd 68 18 20 3e cb 84 8a bd
       -0.049705707 -0.09128114 0.1563431 -0.067636095
0001e0 82 4a 85 bc f6 22 c3 3d cc 61 4d 3e 6d 22 d5 bd
       -0.01627088 0.09528153 0.20056838 -0.10406957
0001f0 7b fc 93 bd 99 60 39 3d a3 c6 87 bd 04 6c da bd
       -0.07225891 0.04525814 -0.06629684 -0.106651336
000200 e0 e6 00 3c 9b b9 a6 bc d4 06 06 bd ab bc 5b 3d
       0.007867545 -0.020352175 -0.032721356 0.053646725
000210 6b 01 73 bd 46 b7 d3 3d be a8 08 bd b0 ea 51 be
       -0.059327524 0.10337691 -0.03336405 -0.20499682
000220 e1 66 49 bd 8c 06 a9 bd 91 b2 84 bd fa fe d7 bd
       -0.04917038 -0.08253202 -0.06479371 -0.1054668
000230 70 ab a6 3d 35 c9 96 bd a7 65 60 bd e5 fb a8 bd
       0.08138168 -0.07362596 -0.054784443 -0.0825117
000240 3b b9 88 bc 0b cc 87 3c 41 fe 2b be 42 3f f8 bc
       -0.016689887 0.016576787 -0.16796209 -0.030303601
000250 88 9a bb bc 34 da 1b be 6b f1 d8 3b 5d 44 cb 3c
       -0.022900835 -0.15219957 0.006620576 0.024812872
000260 9b be 81 3d 9e 1d b9 3d 62 25 b4 3d 3f f7 07 3e
       0.06335183 0.09038852 0.08796193 0.1327791
000270 da f9 06 be dd 3e e2 bd 24 80 75 3c 97 5c 34 be
       -0.13181248 -0.110471465 0.014984164 -0.17613445
000280 27 d0 8f bc 6a 0b 13 3e 7c 62 0a 3d 7b 79 3d 3d
       -0.01755531 0.14359823 0.03378533 0.04625843
000290 64 6d 25 bd da a7 90 3d 2c b1 2d 3d d4 be 8c be
       -0.040387526 0.07063265 0.042405292 -0.2748934
0002a0 9e 1d 06 bc 92 32 aa 3c ff 13 89 bd 49 8a 2f 3d
       -0.008185772 0.020776067 -0.06693267 0.04285649
0002b0 7b 68 f3 3d 9d 80 0b 3e 7c 30 93 3c 94 95 24 be
       0.118851624 0.13623281 0.017967455 -0.16072685
0002c0 10 69 bf bd 5e 3f 26 bd f9 f6 2e bd 93 11 98 bd
       -0.09346211 -0.040587775 -0.042716 -0.07425227
0002d0 04 b9 d1 3b ca 9a ae 3c 87 fa 84 3c 43 d6 bc bc
       0.0064002294 0.021314044 0.016232742 -0.023051387
0002e0 08 0e b9 3c cc 42 f0 bd f2 2a 02 bc 95 89 2a 3d
       0.022589698 -0.117314905 -0.007944809 0.041635115
0002f0 8d 4d c0 bb f0 36 80 3c 2e bf 54 3d 07 aa 12 3e
       -0.00586862 0.015651196 0.051940136 0.14322673
000300 29 06 f3 3c 7e 99 f0 3a 07 33 a0 3c 04 4f d0 bc
       0.029666023 0.0018356291 0.019555582 -0.025428303
000310 0e d0 8a 3d 86 92 a6 bd 72 94 ef 3d 4a f6 e1 3c
       0.067779645 -0.08133416 0.116982356 0.02758326
000320 a8 08 07 be ba 24 61 bd 59 d7 25 bd aa e7 0c 3c
       -0.13186896 -0.054966666 -0.040488575 0.008600155
000330 d7 25 eb bd 4e af 25 3b 5f d9 b0 3d ae e9 9f 3d
       -0.11481827 0.0025281492 0.0863521 0.07808243
000340 7f fe 8b bd 75 8f 19 bd 2e 68 02 be 8c f7 11 be
       -0.06835651 -0.037490327 -0.12735054 -0.14254588
000350 b5 81 15 be 67 51 66 bd be e1 83 3d ae ec fd 3b
       -0.1460026 -0.056229975 0.06439541 0.0077491617
000360 3a c1 59 3d 8f 93 7a 3d c7 ec bc 3d a9 a8 08 3d
       0.05316279 0.06117588 0.09224849 0.03336397
000370 bd 45 98 bd 42 f6 77 bd a3 50 86 3d b5 0a 31 3b
       -0.074351765 -0.060537584 0.06558349 0.0027014439
000380 50 d1 0f 3e 37 67 cd 3d dc c5 06 be d2 2e 9c bc
       0.1404469 0.10029452 -0.13161415 -0.019065294
000390 d8 c1 d0 3b 27 43 5b 3c 31 3c 94 3c 95 93 1f be
       0.006370764 0.01338271 0.018095108 -0.15583642
0003a0 8f 81 ec bc 75 83 bb bb a0 57 55 bd 26 01 9f bd
       -0.028870372 -0.005722458 -0.05208552 -0.07763891
0003b0 bb ed c5 3d f3 3d 8a 3d be 45 70 3d ff d9 64 3b
       0.09664484 0.06750097 0.05866026 0.0034919975
0003c0 ed ee a9 3d ee 48 8d 3d eb e5 c7 3a e0 f1 1e 3d
       0.082975246 0.06898676 0.0015251016 0.03880489
0003d0 ce c8 7b 3d 66 3f 14 3d 66 c7 2f 3c 69 0d f7 bc
       0.0614708 0.036193274 0.010728693 -0.030157762
0003e0 fd 5d d6 bd e4 5a a7 3d de b4 88 3c 91 34 7f bd
       -0.104671456 0.08171633 0.016687807 -0.06230599
0003f0 fb ba 84 3d e4 a5 00 bc f2 eb 92 bd 93 81 ab bb
       0.06480976 -0.007852051 -0.07173909 -0.0052339523

action_model._discrete_distribution.branches.0.weight f4 [4, 128]
000000 0a 76 19 3c 30 43 02 3c 3a 8e a7 3c d8 9d d4 3b
       0.009366522 0.007950589 0.020453561 0.006488543
000010 b9 f3 ab bb b8 dd 17 3b 9d e4 56 3c 2b b2 2f bc
       -0.00524756 0.0023172926 0.013116029 -0.010723631
000020 4f 27 bb 3c db 69 5c 3c b1 96 bd 3b af fc 90 bc
       0.022845892 0.013452972 0.005785786 -0.017698614
000030 cf 49 05 3c ee 43 04 3c 2d 5f f6 3b 77 29 c0 3a
       0.008135273 0.008072836 0.00751867 0.0014660795
000040 cb ef 6e bb d8 03 dd 3b 03 91 c2 b9 9f 55 71 3c
       -0.0036458846 0.006744843 -0.00037110606 0.014729886
000050 43 fb aa bb a3 93 a6 3b 6b b4 18 3c 21 ff 90 bb
       -0.005217941 0.0050835176 0.009320359 -0.004424945
000060 21 6e a8 3b 1a 10 88 bb c5 c6 65 3c 10 71 59 bb
       0.0051400815 -0.00415231 0.014024441 -0.0033178963
000070 ab 0e 89 ba cf 5c 2d 3c 60 98 5e bb 6d f4 51 3c
       -0.0010456642 0.010581209 -0.0033965334 0.012814623
000080 3f 1c 92 3b 79 b4 28 bc e7 15 59 ba 9d cb 2e 3c
       0.0044589336 -0.010296934 -0.0008281157 0.010668662
000090 63 e2 36 3b 02 c6 2d bc d7 32 8b 3a 1c 8f 0e bc
       0.0027905933 -0.010606291 0.001062001 -0.008701112
0000a0 eb 34 cf ba 47 44 0a 3c 00 30 ee bb c2 09 15 3c
       -0.0015808617 0.00843913 -0.0072689056 0.009096565
0000b0 17 63 62 3c f5 59 5e ba 68 62 e7 3a f9 98 c1 bb
       0.01381757 -0.00084820326 0.0017653229 -0.0059081283
0000c0 08 19 41 bc f3 11 6e bb fe 3b 12 3c 29 90 36 ba
       -0.011785753 -0.0036326617 0.008925436 -0.00069642306
0000d0 a2 18 62 3b fb 0a c2 38 7d 63 d5 3b cb 99 11 3a
       0.0034499546 9.252686e-05 0.006512104 0.0005554228
0000e0 07 3e 58 3c c2 7c c5 b8 0d a6 f5 bb 5f 70 85 3c
       0.013198382 -9.41693e-05 -0.0074966014 0.016288934
0000f0 25 dc 5c bc ef 5f ce 39 f5 1b 9f bc 8a b7 e0 3b
       -0.013480221 0.00039362858 -0.01942251 0.006857817
000100 30 01 7e bb 2b cd 98 bc d8 80 cb bb 6b dc 2f bb
       -0.0038758032 -0.01865252 -0.0062104277 -0.002683426
000110 39 da b6 3b 9f a9 0e 3c d8 b0 7d 3a 50 dd 0a 3b
       0.0055802134 0.008707433 0.0009677536 0.0021189041
000120 3d b5 b2 ba 60 27 a5 b8 73 ec cf bb 0d 01 00 bc
       -0.0013634335 -7.875147e-05 -0.0063453256 -0.0078127505
000130 6a 19 cd 3b 53 a5 05 3c 99 5c 32 bc d7 de 9d 3b
       0.006259133 0.008157092 -0.010886335 0.0048178243
000140 e9 84 1a 3b 9f 65 0c 3a 66 0c 24 bc 57 2e b2 bc
       0.0023577756 0.0005355719 -0.010012722 -0.021750612
000150 17 f9 9f bb 40 73 13 bc 9b 69 a7 3c 4d a2 b7 bb
       -0.0048819887 -0.008999646 0.020436099 -0.0056040646
000160 0b 67 a3 3c cf 28 c4 3a ab 9f 19 3b f8 c5 94 ba
       0.019946596 0.0014965775 0.0023441117 -0.0011350503
000170 5d 45 23 3c ab ce 8d 3b 77 5f 98 ba 62 f5 7e bc
       0.009965268 0.0043276153 -0.001162513 -0.0155614335
000180 af 88 80 3c 8a 2d 8e 3c 90 b7 1c bb 06 51 00 bc
       0.015690176 0.0173557 -0.0023913123 -0.0078318175
000190 57 c6 58 3c 91 16 46 3b e3 c7 19 3c ab 87 b1 39
       0.013230882 0.0030225853 0.009386036 0.0003386115
0001a0 c7 f7 f1 ba f0 63 27 bb 70 65 f8 3b a8 73 55 bc
       -0.0018460684 -0.0025541745 0.0075804517 -0.013028063
0001b0 d3 4c 3c bc 19 22 2c bc 90 e7 30 bb 3b cc d0 bb
       -0.011492926 -0.010506176 -0.002699349 -0.0063720024
0001c0 00 8e 45 3a 28 40 41 bc 8b 9f b3 bb 89 b8 a1 3c
       0.0007536113 -0.011795081 -0.0054816655 0.019741314
0001d0 62 56 de 3b a3 f4 73 3b 0f 70 4f 3c cb 88 77 3c
       0.0067852 0.0037224672 0.012660994 0.015108298
0001e0 37 bf 7d bb 0f df 30 ba 21 f0 bc bb 85 92 84 3c
       -0.003871871 -0.00067471055 -0.0057659303 0.016183147
0001f0 3b 98 93 bb 70 e2 10 bb 12 6c 50 3b 6d 44 27 3b
       -0.0045042313 -0.0022107624 0.0031802696 0.0025522963
000200 8f 67 24 3c 9d c7 2a ba 9d 99 8b 3b 06 f6 1d bc
       0.010034456 -0.000651473 0.0042602555 -0.009641176
000210 b4 d3 85 3c ff 43 3c 3c 19 43 14 3c 44 35 02 3c
       0.0163363 0.011490821 0.0090492 0.00794727
000220 7d e8 77 3a 26 b2 a5 3b ef ba b3 ba 8d f9 41 bc
       0.00094569457 0.0050566373 -0.0013712327 -0.011839283
000230 3c 3e 45 bc 05 69 fb 3b 7b 13 07 3c eb 1a 95 3c
       -0.012038764 0.0076724314 0.008244391 0.018201312
000240 bb d6 54 3a 37 b7 e3 bb 8a 00 a8 3b bf db 6c 38
       0.00081191555 -0.006949331 0.0051270174 5.647144e-05
000250 6b 1e 5c 3b a2 a8 d7 3b 69 14 1a bc a9 3c 04 bc
       0.0033587466 0.006581382 -0.00940428 -0.008071103
000260 6f 0f 0f bc 9d ba b7 3b 75 d2 ab bb 47 16 09 3b
       -0.008731707 0.005606963 -0.0052435943 0.002091782
000270 58 75 1f bb 0a 36 97 bc 7d eb d3 b9 03 b9 91 3b
       -0.0024331417 -0.018458385 -0.0004042051 0.004447104
000280 3f a0 96 bb 3d a0 0f 3c 85 bf 64 3a b0 ad 04 3c
       -0.0045967395 0.008766231 0.00087260484 0.008098051
000290 37 68 81 3b a3 f1 c8 3b 79 57 2d bb 2f e6 8d bb
       0.003949191 0.006132321 -0.0026449843 -0.0043304185
0002a0 f6 76 1d 3a af e8 2a ba 3b ff 42 bc 1b 28 72 bc
       0.0006006801 -0.0006519658 -0.011901672 -0.01478007
0002b0 cc d7 b7 3b 10 10 b7 bb e1 7b 24 bb e7 aa 9f bb
       0.005610442 -0.0055866316 -0.0025098252 -0.004872668
0002c0 b9 9e 87 3b ca 2b 7c 3c 6f dc 7c 3b be f4 a6 bb
       0.0041387943 0.0153912995 0.0038583537 -0.0050950935
0002d0 d7 8a 40 bc 50 e4 f4 3b 64 4a a7 bc bd 41 0c ba
       -0.011751852 0.007473506 -0.020421214 -0.0005350372
0002e0 93 ee 8f bb 7f f7 55 bc 3a 8c 47 bc 83 51 7e 3c
       -0.004392454 -0.013059496 -0.012179429 0.015522364
0002f0 57 e9 eb 3b 8a b3 b6 bb 3d a6 5b bb 47 7a a4 bb
       0.007199447 -0.005575602 -0.0033515834 -0.0050194594
000300 a2 f4 5f 3b 2a 20 0e bc 18 f5 ef 3b 3f 3a f0 3b
       0.0034172912 -0.008674661 0.0073229186 0.007331162
000310 fc c9 29 3c 51 e6 2b bb e7 33 5a bc fd 3f 95 3a
       0.010363098 -0.0026229809 -0.013318039 0.0011386868
000320 ce e8 8a 3c e7 b4 92 3c 75 ec 99 bb 30 dc 7d 3a
       0.016956713 0.017908527 -0.0046973773 0.00096839946
000330 2d d9 0b 3c 92 e8 28 3b 58 e3 61 3b c3 52 45 3c
       0.008535665 0.0025773388 0.0034467783 0.012043658
000340 27 9a bf 3b 2f 11 30 3c 21 ec 47 3b cb 9c 62 bb
       0.005847234 0.010746284 0.0030505734 -0.003457832
000350 02 54 7e bc 4a 8b 3e 3c 0c 98 87 3a 20 7e 52 3c
       -0.015522959 0.011629889 0.0010344996 0.012847453
000360 13 26 1d 3c e8 43 36 bc 08 d2 a5 3b 44 d1 32 bc
       0.009591597 -0.011124589 0.005060438 -0.010914151
000370 c6 fd ab bb 77 92 47 ba e7 5e 97 3b fb 52 d7 3b
       -0.005248758 -0.00076130725 0.0046194675 0.0065711713
000380 58 0b fd 3b e6 ec 90 bb c8 53 a3 bb 9d d6 fa ba
       0.0077222995 -0.0044227717 -0.0049843527 -0.0019137446
000390 15 33 14 ba 60 4e 14 bc a3 f9 e5 bb 03 65 54 ba
       -0.0005653364 -0.009051889 -0.0070182844 -0.000810221
0003a0 f5 5c 4e 3c 23 af 6e bb 6f 1a 4c 3c 4f 3f ca bb
       0.012595405 -0.0036420308 0.012457474 -0.0061720978
0003b0 c6 c1 13 3b 87 2f 0f bb 9a b0 6c bc 0f a4 a2 3b
       0.0022545918 -0.0021848397 -0.014446402 0.004963405
0003c0 d9 47 b0 b8 c0 b2 7d bc 27 8a ed bb ef 21 19 bc
       -8.405717e-05 -0.015484512 -0.007249135 -0.009346469
0003d0 4f f3 11 3c d6 40 21 3b ab 9e ed bb 68 32 f6 3a
       0.008908107 0.0024605296 -0.0072515807 0.0018783333
0003e0 28 67 f4 3b 35 c5 20 38 a6 ea 47 3c 3f 30 22 bc
       0.0074585862 3.8330636e-05 0.012201941 -0.009899198
0003f0 f1 19 46 ba 1b 18 98 ba c3 23 67 3c bd 4c e3 3b
       -0.0007556966 -0.0011603864 0.014107647 0.006936638

action_model._discrete_distribution.branches.0.bias f4 [4]
000000 00 00 00 00 00 00 00 00 00 00 00 00 00 00 00 00
       0.0 0.0 0.0 0.0
