results/ppo/defender_1/defender_1-517.pt (torch, 145214 bytes, 11 tensors)

network_body._body_endoder.seq_layers.0.weight f4 [128, 1]
-0.46995723 -1.012807 1.0351039 -0.55373484 -0.1114394 1.0045102 0.45687425 0.470913
-1.070371 -1.1476617 -0.30706397 0.3514241 -0.7178609 -1.0477741 0.8518104 0.115488835
0.93092906 -0.43442208 -0.36849973 0.18862884 1.2118534 -0.44547486 -0.7984833 -1.7431482
-0.09628051 1.1499339 0.35392156 0.15548077 -2.3326712 2.1689675 1.077442 0.6022071
-0.92617816 1.7548245 -0.8224166 -2.5348454 1.2448301 -0.19527192 0.7000744 0.80328757
2.51867 -0.35466418 0.4234328 -0.55574113 -0.74871784 -0.2593928 -0.34083986 0.5551253
2.2329156 0.23468943 1.2424977 -0.14145261 0.8446519 -0.32583997 0.98486054 -0.5897524
-0.58655834 -0.09866493 0.85275775 -0.6111981 1.3833787 2.083512 1.3535889 -1.9204367
0.2975957 -0.09807698 1.1075935 -0.5872251 0.079062015 0.8578852 -1.3054957 0.29203385
0.68204033 -0.035866514 0.31886816 -0.9488876 0.42945352 -1.6914406 0.48981383 0.08082713
-0.9999223 -0.7330884 -1.1226768 0.3603321 0.080519885 -0.93826604 1.3203026 1.0453463
-0.9474466 0.10088739 -0.69811213 -0.75573325 0.7909961 -0.002696346 1.7730175 0.9173605
-0.20655808 -0.42418006 1.3940314 -1.1378341 0.17450365 -1.6491213 -1.8844453 0.072449274
-0.049110845 -0.6772858 -1.1532634 0.514566 0.6974843 -0.088245265 -0.4358626 1.1533762
0.36458683 0.6562657 -0.71927434 1.6593776 1.3866134 -1.4987252 0.5932326 1.6450965
1.5017202 -0.30121294 0.045692075 -1.3400176 -1.6879743 -2.1508324 2.0506594 0.01823793
00000000: 3c9e f0be a9a3 81bf 497e 843f 91c1 0dbf
00000010: 573a e4bd ca93 803f 6ceb e93e 821b f13e
00000020: eb01 89bf 94e6 92bf 7d37 9dbe dced b33e
00000030: bbc5 37bf 761d 86bf 3f10 5a3f 6985 ec3d
00000040: 5e51 6e3f 926c debe ffab bcbe eb27 413e
00000050: 031e 9b3f 4815 e4be 6769 4cbf 7b1f dfbf
00000060: b72e c5bd 0931 933f 3535 b53e 5a36 1f3e
00000070: 7c4a 15c0 5dd0 0a40 9fe9 893f 3f2a 1a3f
00000080: 031a 6dbf 179e e03f e589 52bf e83a 22c0
00000090: 9856 9f3f 5df5 47be 1338 333f 41a4 4d3f
000000a0: e431 2140 8b96 b5be 2fcc d83e 0d45 0ebf
000000b0: f9ab 3fbf 22cf 84be 9082 aebe b11c 0e3f
000000c0: 17e8 0e40 6d52 703e 2a0a 9f3f f4d8 10be
000000d0: 1b3b 583f 7fd4 a6be d21f 7c3f 03fa 16bf
000000e0: b028 16bf d710 cabd 554e 5a3f 7b77 1cbf
000000f0: 8e12 b13f 4358 0540 6742 ad3f dfd0 f5bf
00000100: 775e 983e 95dc c8bd a0c5 8d3f 6254 16bf
00000110: 44eb a13d 5d9e 5b3f 7c1a a7bf 7685 953e
00000120: 329a 2e3f c4e8 12bd b042 a33e 4cea 72bf
00000130: 55e1 db3e 2081 d8bf e1c8 fa3e b288 a53d
00000140: e8fa 7fbf aeab 3bbf e0b3 8fbf 737d b83e
00000150: 9ce7 a43d 3432 70bf adff a83f e8cd 853f
00000160: dc8b 72bf 0c9e ce3d 7ab7 32bf bc77 41bf
00000170: b87e 4a3f 2eb5 30bb 3df2 e23f 23d8 6a3f
00000180: f683 53be 212e d9be 9f6f b23f 8ca4 91bf
00000190: 16b1 323e 6816 d3bf 8135 f1bf 4960 943d
000001a0: 7428 49bd 9a62 2dbf 239e 93bf 99ba 033f
000001b0: 558e 323f efb9 b4bd 6229 dfbe d5a1 933f
000001c0: 20ab ba3e 0701 283f 5d22 38bf 7c66 d43f
000001d0: 8c7c b13f 3ad6 bfbf 17de 173f 8692 d23f
000001e0: 5e38 c03f 9538 9abe 9d27 3b3d b285 abbf
000001f0: 8b0f d8bf 3da7 09c0 013e 0340 b667 953c

network_body._body_endoder.seq_layers.0.bias f4 [128]
0.0 0.0 0.0 0.0 0.0 0.0 0.0 0.0
0.0 0.0 0.0 0.0 0.0 0.0 0.0 0.0
0.0 0.0 0.0 0.0 0.0 0.0 0.0 0.0
0.0 0.0 0.0 0.0 0.0 0.0 0.0 0.0
0.0 0.0 0.0 0.0 0.0 0.0 0.0 0.0
0.0 0.0 0.0 0.0 0.0 0.0 0.0 0.0
0.0 0.0 0.0 0.0 0.0 0.0 0.0 0.0
0.0 0.0 0.0 0.0 0.0 0.0 0.0 0.0
0.0 0.0 0.0 0.0 0.0 0.0 0.0 0.0
0.0 0.0 0.0 0.0 0.0 0.0 0.0 0.0
0.0 0.0 0.0 0.0 0.0 0.0 0.0 0.0
0.0 0.0 0.0 0.0 0.0 0.0 0.0 0.0
0.0 0.0 0.0 0.0 0.0 0.0 0.0 0.0
0.0 0.0 0.0 0.0 0.0 0.0 0.0 0.0
0.0 0.0 0.0 0.0 0.0 0.0 0.0 0.0
0.0 0.0 0.0 0.0 0.0 0.0 0.0 0.0
00000000: 0000 0000 0000 0000 0000 0000 0000 0000
00000010: 0000 0000 0000 0000 0000 0000 0000 0000
00000020: 0000 0000 0000 0000 0000 0000 0000 0000
00000030: 0000 0000 0000 0000 0000 0000 0000 0000
00000040: 0000 0000 0000 0000 0000 0000 0000 0000
00000050: 0000 0000 0000 0000 0000 0000 0000 0000
00000060: 0000 0000 0000 0000 0000 0000 0000 0000
00000070: 0000 0000 0000 0000 0000 0000 0000 0000
00000080: 0000 0000 0000 0000 0000 0000 0000 0000
00000090: 0000 0000 0000 0000 0000 0000 0000 0000
000000a0: 0000 0000 0000 0000 0000 0000 0000 0000
000000b0: 0000 0000 0000 0000 0000 0000 0000 0000
000000c0: 0000 0000 0000 0000 0000 0000 0000 0000
000000d0: 0000 0000 0000 0000 0000 0000 0000 0000
000000e0: 0000 0000 0000 0000 0000 0000 0000 0000
000000f0: 0000 0000 0000 0000 0000 0000 0000 0000
00000100: 0000 0000 0000 0000 0000 0000 0000 0000
00000110: 0000 0000 0000 0000 0000 0000 0000 0000
00000120: 0000 0000 0000 0000 0000 0000 0000 0000
00000130: 0000 0000 0000 0000 0000 0000 0000 0000
00000140: 0000 0000 0000 0000 0000 0000 0000 0000
00000150: 0000 0000 0000 0000 0000 0000 0000 0000
00000160: 0000 0000 0000 0000 0000 0000 0000 0000
00000170: 0000 0000 0000 0000 0000 0000 0000 0000
00000180: 0000 0000 0000 0000 0000 0000 0000 0000
00000190: 0000 0000 0000 0000 0000 0000 0000 0000
000001a0: 0000 0000 0000 0000 0000 0000 0000 0000
000001b0: 0000 0000 0000 0000 0000 0000 0000 0000
000001c0: 0000 0000 0000 0000 0000 0000 0000 0000
000001d0: 0000 0000 0000 0000 0000 0000 0000 0000
000001e0: 0000 0000 0000 0000 0000 0000 0000 0000
000001f0: 0000 0000 0000 0000 0000 0000 0000 0000

network_body._body_endoder.seq_layers.2.weight f4 [128, 128]
0.020640152 -0.030122323 -0.059574943 0.008006211 0.07013401 0.08311901 -0.07501542 0.091299176
-0.031662595 0.014395522 0.037926074 0.07443046 0.011849462 -0.042343568 -0.07495515 -0.034161385
0.08319136 -0.030416014 0.044912517 0.075317174 0.12955964 0.07058009 -0.13244946 -0.11245688
-0.090581425 0.13615254 0.084067516 0.031818997 0.0065740175 -0.05400219 0.07200306 0.041329518
-0.0473669 0.0813608 -0.033338785 0.07580545 -0.021381728 0.024072044 0.06756225 -0.039721917
0.013264914 -0.07842962 -0.15906765 -0.20992799 -0.019002436 -0.02518732 0.13581799 0.20182945
0.108196266 0.13865077 -0.080107145 -0.15480821 -0.15272936 -0.00015693539 -0.06521851 -0.17133652
-0.03169115 0.18110503 -0.2333802 -0.049540054 0.08945541 0.037343927 -0.07521811 -0.02753644
-0.034668908 0.1180223 -0.010182578 -0.10546456 0.076361425 0.0718221 -0.1617878 0.041605134
-0.07559498 -0.07465396 -0.006129607 -0.005194499 -0.18587986 -0.13586769 0.065691344 0.014151191
-0.021573046 0.052706808 0.031567726 0.045273334 -0.0066605397 0.13217084 -0.10377795 0.08537238
0.010825793 -0.032414597 8.6539716e-05 0.013217463 0.023673669 -0.14084794 -0.09335314 0.018029114
0.023581991 -0.03165563 -6.91678e-05 0.047949277 0.11799013 0.14566244 0.055287436 0.0003703369
0.020321194 -0.08578172 0.008425381 -0.026800951 -0.0023540156 0.051503457 -0.16544378 0.045775592
-0.037460882 -0.046910934 -0.14638238 0.011216526 -0.049705707 -0.09128114 0.1563431 -0.067636095
-0.01627088 0.09528153 0.20056838 -0.10406957 -0.07225891 0.04525814 -0.06629684 -0.106651336
0.007867545 -0.020352175 -0.032721356 0.053646725 -0.059327524 0.10337691 -0.03336405 -0.20499682
-0.04917038 -0.08253202 -0.06479371 -0.1054668 0.08138168 -0.07362596 -0.054784443 -0.0825117
-0.016689887 0.016576787 -0.16796209 -0.030303601 -0.022900835 -0.15219957 0.006620576 0.024812872
0.06335183 0.09038852 0.08796193 0.1327791 -0.13181248 -0.110471465 0.014984164 -0.17613445
-0.01755531 0.14359823 0.03378533 0.04625843 -0.040387526 0.07063265 0.042405292 -0.2748934
-0.008185772 0.020776067 -0.06693267 0.04285649 0.118851624 0.13623281 0.017967455 -0.16072685
-0.09346211 -0.040587775 -0.042716 -0.07425227 0.0064002294 0.021314044 0.016232742 -0.023051387
0.022589698 -0.117314905 -0.007944809 0.041635115 -0.00586862 0.015651196 0.051940136 0.14322673
0.029666023 0.0018356291 0.019555582 -0.025428303 0.067779645 -0.08133416 0.116982356 0.02758326
-0.13186896 -0.054966666 -0.040488575 0.008600155 -0.11481827 0.0025281492 0.0863521 0.07808243
-0.06835651 -0.037490327 -0.12735054 -0.14254588 -0.1460026 -0.056229975 0.06439541 0.0077491617
0.05316279 0.06117588 0.09224849 0.03336397 -0.074351765 -0.060537584 0.06558349 0.0027014439
0.1404469 0.10029452 -0.13161415 -0.019065294 0.006370764 0.01338271 0.018095108 -0.15583642
-0.028870372 -0.005722458 -0.05208552 -0.07763891 0.09664484 0.06750097 0.05866026 0.0034919975
0.082975246 0.06898676 0.0015251016 0.03880489 0.0614708 0.036193274 0.010728693 -0.030157762
-0.104671456 0.08171633 0.016687807 -0.06230599 0.06480976 -0.007852051 -0.07173909 -0.0052339523
00000000: 8915 a93c 17c3 f6bc db04 74bd 7c2c 033c
00000010: 6ba2 8f3d 4d3a aa3d afa1 99bd 10fb ba3d
00000020: a3b0 01bd 32db 6b3c 5f58 1b3d ff6e 983d
00000030: 3f24 423c 7370 2dbd 1682 99bd cfec 0bbd
00000040: 3b60 aa3d 012b f9bc 30f6 373d e43f 9a3d
00000050: 48ab 043e 4b8c 903d d5a0 07be cb4f e6bd
00000060: c182 b9bd 926b 0b3e 972b ac3d a354 023d
00000070: db6a d73b 6631 5dbd 5776 933d 2449 293d
00000080: cb03 42bd 7ea0 a63d 408e 08bd e33f 9b3d
00000090: bc28 afbc bc32 c53c 145e 8a3d 73b3 22bd
000000a0: 1555 593c b59f a0bd a1e2 22be 5df7 56be
000000b0: ffaa 9bbc a355 cebc df13 0b3e 61ac 4e3e
000000c0: 0196 dd3d 78fa 0d3e 370f a4bd 0b86 1ebe
000000d0: 1665 1cbe 068f 24b9 4891 85bd d772 2fbe
000000e0: 94ce 01bd 9973 393e 38fb 6ebe 83ea 4abd
000000f0: 6634 b73d f2f5 183d f40b 9abd 1a94 e1bc
00000100: fc00 0ebd adb5 f13d d4d4 26bc cefd d7bd
00000110: 6163 9c3d 7717 933d b3ab 25be 256a 2a3d
00000120: 8ad1 9abd 2de4 98bd dfda c8bb 9e36 aabb
00000130: 4a57 3ebe e620 0bbe 2f89 863d 66da 673c
00000140: f5b9 b0bc 18e3 573d 294d 013d 8870 393d
00000150: a840 dabb cb57 073e 8989 d4bd b7d7 ae3d
00000160: ab5e 313c 2bc5 04bd a87c b538 0f8e 583c
00000170: 48ef c13c 713a 10be ee2f bfbd cbb1 933c
00000180: 052f c13c 55a9 01bd 2e0e 91b8 7666 443d
00000190: cfa4 f13d 8928 153e 1475 623d c729 c239
000001a0: a278 a63c 54ae afbd 9c0a 0a3c ab8d dbbc
000001b0: d445 1abb 4af5 523d 186a 29be 307f 3b3d
000001c0: 9570 19bd ae25 40bd 43e5 15be 85c5 373c
000001d0: 3698 4bbd 9bf1 babd 6818 203e cb84 8abd
000001e0: 824a 85bc f622 c33d cc61 4d3e 6d22 d5bd
000001f0: 7bfc 93bd 9960 393d a3c6 87bd 046c dabd
00000200: e0e6 003c 9bb9 a6bc d406 06bd abbc 5b3d
00000210: 6b01 73bd 46b7 d33d bea8 08bd b0ea 51be
00000220: e166 49bd 8c06 a9bd 91b2 84bd fafe d7bd
00000230: 70ab a63d 35c9 96bd a765 60bd e5fb a8bd
00000240: 3bb9 88bc 0bcc 873c 41fe 2bbe 423f f8bc
00000250: 889a bbbc 34da 1bbe 6bf1 d83b 5d44 cb3c
00000260: 9bbe 813d 9e1d b93d 6225 b43d 3ff7 073e
00000270: daf9 06be dd3e e2bd 2480 753c 975c 34be
00000280: 27d0 8fbc 6a0b 133e 7c62 0a3d 7b79 3d3d
00000290: 646d 25bd daa7 903d 2cb1 2d3d d4be 8cbe
000002a0: 9e1d 06bc 9232 aa3c ff13 89bd 498a 2f3d
000002b0: 7b68 f33d 9d80 0b3e 7c30 933c 9495 24be
000002c0: 1069 bfbd 5e3f 26bd f9f6 2ebd 9311 98bd
000002d0: 04b9 d13b ca9a ae3c 87fa 843c 43d6 bcbc
000002e0: 080e b93c cc42 f0bd f22a 02bc 9589 2a3d
000002f0: 8d4d c0bb f036 803c 2ebf 543d 07aa 123e
00000300: 2906 f33c 7e99 f03a 0733 a03c 044f d0bc
00000310: 0ed0 8a3d 8692 a6bd 7294 ef3d 4af6 e13c
00000320: a808 07be ba24 61bd 59d7 25bd aae7 0c3c
00000330: d725 ebbd 4eaf 253b 5fd9 b03d aee9 9f3d
00000340: 7ffe 8bbd 758f 19bd 2e68 02be 8cf7 11be
00000350: b581 15be 6751 66bd bee1 833d aeec fd3b
00000360: 3ac1 593d 8f93 7a3d c7ec bc3d a9a8 083d
00000370: bd45 98bd 42f6 77bd a350 863d b50a 313b
00000380: 50d1 0f3e 3767 cd3d dcc5 06be d22e 9cbc
00000390: d8c1 d03b 2743 5b3c 313c 943c 9593 1fbe
000003a0: 8f81 ecbc 7583 bbbb a057 55bd 2601 9fbd
000003b0: bbed c53d f33d 8a3d be45 703d ffd9 643b
000003c0: edee a93d ee48 8d3d ebe5 c73a e0f1 1e3d
000003d0: cec8 7b3d 663f 143d 66c7 2f3c 690d f7bc
000003e0: fd5d d6bd e45a a73d deb4 883c 9134 7fbd
000003f0: fbba 843d e4a5 00bc f2eb 92bd 9381 abbb

network_body._body_endoder.seq_layers.2.bias f4 [128]
0.0 0.0 0.0 0.0 0.0 0.0 0.0 0.0
0.0 0.0 0.0 0.0 0.0 0.0 0.0 0.0
0.0 0.0 0.0 0.0 0.0 0.0 0.0 0.0
0.0 0.0 0.0 0.0 0.0 0.0 0.0 0.0
0.0 0.0 0.0 0.0 0.0 0.0 0.0 0.0
0.0 0.0 0.0 0.0 0.0 0.0 0.0 0.0
0.0 0.0 0.0 0.0 0.0 0.0 0.0 0.0
0.0 0.0 0.0 0.0 0.0 0.0 0.0 0.0
0.0 0.0 0.0 0.0 0.0 0.0 0.0 0.0
0.0 0.0 0.0 0.0 0.0 0.0 0.0 0.0
0.0 0.0 0.0 0.0 0.0 0.0 0.0 0.0
0.0 0.0 0.0 0.0 0.0 0.0 0.0 0.0
0.0 0.0 0.0 0.0 0.0 0.0 0.0 0.0
0.0 0.0 0.0 0.0 0.0 0.0 0.0 0.0
0.0 0.0 0.0 0.0 0.0 0.0 0.0 0.0
0.0 0.0 0.0 0.0 0.0 0.0 0.0 0.0
00000000: 0000 0000 0000 0000 0000 0000 0000 0000
00000010: 0000 0000 0000 0000 0000 0000 0000 0000
00000020: 0000 0000 0000 0000 0000 0000 0000 0000
00000030: 0000 0000 0000 0000 0000 0000 0000 0000
00000040: 0000 0000 0000 0000 0000 0000 0000 0000
00000050: 0000 0000 0000 0000 0000 0000 0000 0000
00000060: 0000 0000 0000 0000 0000 0000 0000 0000
00000070: 0000 0000 0000 0000 0000 0000 0000 0000
00000080: 0000 0000 0000 0000 0000 0000 0000 0000
00000090: 0000 0000 0000 0000 0000 0000 0000 0000
000000a0: 0000 0000 0000 0000 0000 0000 0000 0000
000000b0: 0000 0000 0000 0000 0000 0000 0000 0000
000000c0: 0000 0000 0000 0000 0000 0000 0000 0000
000000d0: 0000 0000 0000 0000 0000 0000 0000 0000
000000e0: 0000 0000 0000 0000 0000 0000 0000 0000
000000f0: 0000 0000 0000 0000 0000 0000 0000 0000
00000100: 0000 0000 0000 0000 0000 0000 0000 0000
00000110: 0000 0000 0000 0000 0000 0000 0000 0000
00000120: 0000 0000 0000 0000 0000 0000 0000 0000
00000130: 0000 0000 0000 0000 0000 0000 0000 0000
00000140: 0000 0000 0000 0000 0000 0000 0000 0000
00000150: 0000 0000 0000 0000 0000 0000 0000 0000
00000160: 0000 0000 0000 0000 0000 0000 0000 0000
00000170: 0000 0000 0000 0000 0000 0000 0000 0000
00000180: 0000 0000 0000 0000 0000 0000 0000 0000
00000190: 0000 0000 0000 0000 0000 0000 0000 0000
000001a0: 0000 0000 0000 0000 0000 0000 0000 0000
000001b0: 0000 0000 0000 0000 0000 0000 0000 0000
000001c0: 0000 0000 0000 0000 0000 0000 0000 0000
000001d0: 0000 0000 0000 0000 0000 0000 0000 0000
000001e0: 0000 0000 0000 0000 0000 0000 0000 0000
000001f0: 0000 0000 0000 0000 0000 0000 0000 0000

action_model._discrete_distribution.branches.0.weight f4 [4, 128]
0.009366522 0.007950589 0.020453561 0.006488543 -0.00524756 0.0023172926 0.013116029 -0.010723631
0.022845892 0.013452972 0.005785786 -0.017698614 0.008135273 0.008072836 0.00751867 0.0014660795
-0.0036458846 0.006744843 -0.00037110606 0.014729886 -0.005217941 0.0050835176 0.009320359 -0.004424945
0.0051400815 -0.00415231 0.014024441 -0.0033178963 -0.0010456642 0.010581209 -0.0033965334 0.012814623
0.0044589336 -0.010296934 -0.0008281157 0.010668662 0.0027905933 -0.010606291 0.001062001 -0.008701112
-0.0015808617 0.00843913 -0.0072689056 0.009096565 0.01381757 -0.00084820326 0.0017653229 -0.0059081283
-0.011785753 -0.0036326617 0.008925436 -0.00069642306 0.0034499546 9.252686e-05 0.006512104 0.0005554228
0.013198382 -9.41693e-05 -0.0074966014 0.016288934 -0.013480221 0.00039362858 -0.01942251 0.006857817
-0.0038758032 -0.01865252 -0.0062104277 -0.002683426 0.0055802134 0.008707433 0.0009677536 0.0021189041
-0.0013634335 -7.875147e-05 -0.0063453256 -0.0078127505 0.006259133 0.008157092 -0.010886335 0.0048178243
0.0023577756 0.0005355719 -0.010012722 -0.021750612 -0.0048819887 -0.008999646 0.020436099 -0.0056040646
0.019946596 0.0014965775 0.0023441117 -0.0011350503 0.009965268 0.0043276153 -0.001162513 -0.0155614335
0.015690176 0.0173557 -0.0023913123 -0.0078318175 0.013230882 0.0030225853 0.009386036 0.0003386115
-0.0018460684 -0.0025541745 0.0075804517 -0.013028063 -0.011492926 -0.010506176 -0.002699349 -0.0063720024
0.0007536113 -0.011795081 -0.0054816655 0.019741314 0.0067852 0.0037224672 0.012660994 0.015108298
-0.003871871 -0.00067471055 -0.0057659303 0.016183147 -0.0045042313 -0.0022107624 0.0031802696 0.0025522963
0.010034456 -0.000651473 0.0042602555 -0.009641176 0.0163363 0.011490821 0.0090492 0.00794727
0.00094569457 0.0050566373 -0.0013712327 -0.011839283 -0.012038764 0.0076724314 0.008244391 0.018201312
0.00081191555 -0.006949331 0.0051270174 5.647144e-05 0.0033587466 0.006581382 -0.00940428 -0.008071103
-0.008731707 0.005606963 -0.0052435943 0.002091782 -0.0024331417 -0.018458385 -0.0004042051 0.004447104
-0.0045967395 0.008766231 0.00087260484 0.008098051 0.003949191 0.006132321 -0.0026449843 -0.0043304185
0.0006006801 -0.0006519658 -0.011901672 -0.01478007 0.005610442 -0.0055866316 -0.0025098252 -0.004872668
0.0041387943 0.0153912995 0.0038583537 -0.0050950935 -0.011751852 0.007473506 -0.020421214 -0.0005350372
-0.004392454 -0.013059496 -0.012179429 0.015522364 0.007199447 -0.005575602 -0.0033515834 -0.0050194594
0.0034172912 -0.008674661 0.0073229186 0.007331162 0.010363098 -0.0026229809 -0.013318039 0.0011386868
0.016956713 0.017908527 -0.0046973773 0.00096839946 0.008535665 0.0025773388 0.0034467783 0.012043658
0.005847234 0.010746284 0.0030505734 -0.003457832 -0.015522959 0.011629889 0.0010344996 0.012847453
0.009591597 -0.011124589 0.005060438 -0.010914151 -0.005248758 -0.00076130725 0.0046194675 0.0065711713
0.0077222995 -0.0044227717 -0.0049843527 -0.0019137446 -0.0005653364 -0.009051889 -0.0070182844 -0.000810221
0.012595405 -0.0036420308 0.012457474 -0.0061720978 0.0022545918 -0.0021848397 -0.014446402 0.004963405
-8.405717e-05 -0.015484512 -0.007249135 -0.009346469 0.008908107 0.0024605296 -0.0072515807 0.0018783333
0.0074585862 3.8330636e-05 0.012201941 -0.009899198 -0.0007556966 -0.0011603864 0.014107647 0.006936638
00000000: 0a76 193c 3043 023c 3a8e a73c d89d d43b
00000010: b9f3 abbb b8dd 173b 9de4 563c 2bb2 2fbc
00000020: 4f27 bb3c db69 5c3c b196 bd3b affc 90bc
00000030: cf49 053c ee43 043c 2d5f f63b 7729 c03a
00000040: cbef 6ebb d803 dd3b 0391 c2b9 9f55 713c
00000050: 43fb aabb a393 a63b 6bb4 183c 21ff 90bb
00000060: 216e a83b 1a10 88bb c5c6 653c 1071 59bb
00000070: ab0e 89ba cf5c 2d3c 6098 5ebb 6df4 513c
00000080: 3f1c 923b 79b4 28bc e715 59ba 9dcb 2e3c
00000090: 63e2 363b 02c6 2dbc d732 8b3a 1c8f 0ebc
000000a0: eb34 cfba 4744 0a3c 0030 eebb c209 153c
000000b0: 1763 623c f559 5eba 6862 e73a f998 c1bb
000000c0: 0819 41bc f311 6ebb fe3b 123c 2990 36ba
000000d0: a218 623b fb0a c238 7d63 d53b cb99 113a
000000e0: 073e 583c c27c c5b8 0da6 f5bb 5f70 853c
000000f0: 25dc 5cbc ef5f ce39 f51b 9fbc 8ab7 e03b
00000100: 3001 7ebb 2bcd 98bc d880 cbbb 6bdc 2fbb
00000110: 39da b63b 9fa9 0e3c d8b0 7d3a 50dd 0a3b
00000120: 3db5 b2ba 6027 a5b8 73ec cfbb 0d01 00bc
00000130: 6a19 cd3b 53a5 053c 995c 32bc d7de 9d3b
00000140: e984 1a3b 9f65 0c3a 660c 24bc 572e b2bc
00000150: 17f9 9fbb 4073 13bc 9b69 a73c 4da2 b7bb
00000160: 0b67 a33c cf28 c43a ab9f 193b f8c5 94ba
00000170: 5d45 233c abce 8d3b 775f 98ba 62f5 7ebc
00000180: af88 803c 8a2d 8e3c 90b7 1cbb 0651 00bc
00000190: 57c6 583c 9116 463b e3c7 193c ab87 b139
000001a0: c7f7 f1ba f063 27bb 7065 f83b a873 55bc
000001b0: d34c 3cbc 1922 2cbc 90e7 30bb 3bcc d0bb
000001c0: 008e 453a 2840 41bc 8b9f b3bb 89b8 a13c
000001d0: 6256 de3b a3f4 733b 0f70 4f3c cb88 773c
000001e0: 37bf 7dbb 0fdf 30ba 21f0 bcbb 8592 843c
000001f0: 3b98 93bb 70e2 10bb 126c 503b 6d44 273b
00000200: 8f67 243c 9dc7 2aba 9d99 8b3b 06f6 1dbc
00000210: b4d3 853c ff43 3c3c 1943 143c 4435 023c
00000220: 7de8 773a 26b2 a53b efba b3ba 8df9 41bc
00000230: 3c3e 45bc 0569 fb3b 7b13 073c eb1a 953c
00000240: bbd6 543a 37b7 e3bb 8a00 a83b bfdb 6c38
00000250: 6b1e 5c3b a2a8 d73b 6914 1abc a93c 04bc
00000260: 6f0f 0fbc 9dba b73b 75d2 abbb 4716 093b
00000270: 5875 1fbb 0a36 97bc 7deb d3b9 03b9 913b
00000280: 3fa0 96bb 3da0 0f3c 85bf 643a b0ad 043c
00000290: 3768 813b a3f1 c83b 7957 2dbb 2fe6 8dbb
000002a0: f676 1d3a afe8 2aba 3bff 42bc 1b28 72bc
000002b0: ccd7 b73b 1010 b7bb e17b 24bb e7aa 9fbb
000002c0: b99e 873b ca2b 7c3c 6fdc 7c3b bef4 a6bb
000002d0: d78a 40bc 50e4 f43b 644a a7bc bd41 0cba
000002e0: 93ee 8fbb 7ff7 55bc 3a8c 47bc 8351 7e3c
000002f0: 57e9 eb3b 8ab3 b6bb 3da6 5bbb 477a a4bb
00000300: a2f4 5f3b 2a20 0ebc 18f5 ef3b 3f3a f03b
00000310: fcc9 293c 51e6 2bbb e733 5abc fd3f 953a
00000320: cee8 8a3c e7b4 923c 75ec 99bb 30dc 7d3a
00000330: 2dd9 0b3c 92e8 283b 58e3 613b c352 453c
00000340: 279a bf3b 2f11 303c 21ec 473b cb9c 62bb
00000350: 0254 7ebc 4a8b 3e3c 0c98 873a 207e 523c
00000360: 1326 1d3c e843 36bc 08d2 a53b 44d1 32bc
00000370: c6fd abbb 7792 47ba e75e 973b fb52 d73b
00000380: 580b fd3b e6ec 90bb c853 a3bb 9dd6 faba
00000390: 1533 14ba 604e 14bc a3f9 e5bb 0365 54ba
000003a0: f55c 4e3c 23af 6ebb 6f1a 4c3c 4f3f cabb
000003b0: c6c1 133b 872f 0fbb 9ab0 6cbc 0fa4 a23b
000003c0: d947 b0b8 c0b2 7dbc 278a edbb ef21 19bc
000003d0: 4ff3 113c d640 213b ab9e edbb 6832 f63a
000003e0: 2867 f43b 35c5 2038 a6ea 473c 3f30 22bc
000003f0: f119 46ba 1b18 98ba c323 673c bd4c e33b

action_model._discrete_distribution.branches.0.bias f4 [4]
0.0 0.0 0.0 0.0
00000000: 0000 0000 0000 0000 0000 0000 0000 0000

network_body._body_endoder.seq_layers.0.weight f4 [128, 1]
0.008709676 0.27047276 1.6647068 -0.41401282 -0.82992876 0.17276596 0.92498684 1.2345771
0.33849588 0.425674 1.0412041 0.7698544 -1.123307 -0.2965302 -0.59508955 -1.4397076
0.16217445 -0.59468067 0.22692849 -1.0303217 -0.05888222 0.97488546 -1.980208 -1.3215092
0.42269975 -0.45591182 -1.6363794 -1.329969 -0.46614894 1.2242359 -1.3644955 0.06652903
-0.58897674 -1.1000783 0.8907771 1.1421603 -0.38476938 -1.4938941 0.6620908 -0.020604897
0.17910787 0.21560907 -0.9205345 -1.2380081 1.7496992 0.16589397 0.78428185 -0.13197109
-0.7051047 -0.6981618 0.3114221 -0.053949267 0.3583664 -0.57436746 0.03348959 -0.95424175
1.1916511 0.7146185 1.162788 -1.0935526 2.5360444 0.3561736 1.6677188 -0.46609923
-1.090031 1.1161509 -0.63442427 -1.3516186 1.8772 -0.5725309 -0.32309198 -0.28895566
-1.7164134 0.39493516 -0.7668279 1.1089098 2.1406357 -0.9388472 -0.8862139 2.5534124
0.6398188 0.89092165 0.26125476 1.2180007 0.50158155 0.38889217 -0.63673383 1.1269591
-0.38856497 -0.2837811 -0.68041867 -1.5426594 0.46288192 1.1983968 -0.080170244 1.4630294
0.04137548 -0.83981925 -0.28138062 -0.31033298 -0.3917261 0.6527603 -0.10466635 -0.6516441
0.58933914 0.14130537 -0.11905146 -0.033614807 -0.30443674 0.59055436 0.71087587 -1.6822481
0.41791397 -1.4183445 0.25486332 -1.2447009 0.28258404 -1.3018749 -0.04961183 1.128986
-1.1864816 1.4714719 0.40188718 -0.13471007 1.2286428 -1.1392368 -0.15100276 -0.2492472
00000000: 07b3 0e3c 687b 8a3e 1d15 d53f 7df9 d3be
00000010: 3676 54bf 8fe9 303e f0cb 6c3f 9f06 9e3f
00000020: 554f ad3e f1f1 d93e 2d46 853f 2e15 453f
00000030: 86c8 8fbf ced2 97be ca57 18bf 5748 b8bf
00000040: 0f11 263e fe3c 18bf f15f 683e 95e1 83bf
00000050: 7c2e 71bd 1892 793f 7577 fdbf 3727 a9bf
00000060: 1a6c d83e 466d e9be e174 d1bf 6d3c aabf
00000070: 13ab eebe c3b3 9c3f caa7 aebf 5f40 883d
00000080: 2ec7 16bf 5ecf 8cbf f809 643f 4f32 923f
00000090: 7e00 c5be ec37 bfbf c87e 293f 9acb a8bc
000000a0: 0e68 373e a0c8 5c3e 26a8 6bbf 0d77 9ebf
000000b0: 25f6 df3f 1ce0 293e b2c6 483f 6e23 07be
000000c0: be81 34bf bbba 32bf b872 9f3e e8f9 5cbd
000000d0: cd7b b73e bf09 13bf 612c 093d 3049 74bf
000000e0: 0688 983f 3df1 363f 3dd6 943f 88f9 8bbf
000000f0: 8d4e 2240 635c b63e cf77 d53f 8fa4 eebe
00000100: 2386 8bbf 08de 8e3f a169 22bf d701 adbf
00000110: 1748 f03f 6391 12bf 506c a5be fff1 93be
00000120: 6fb3 dbbf f134 ca3e d54e 44bf c2f0 8d3f
00000130: 2d00 0940 4a58 70bf eade 62bf 1c6b 2340
00000140: 2acb 233f 7113 643f 2fc3 853e 72e7 9b3f
00000150: a667 003f e01c c73e fd00 23bf 3240 903f
00000160: fdf1 c6be c24b 91be eb2f 2ebf dd75 c5bf
00000170: dcfe ec3e 1165 993f 4c30 a4bd 8c44 bb3f
00000180: 5679 293d 65fe 56bf 1f11 90be f7e3 9ebe
00000190: 5390 c8be 4d1b 273f 505b d6bd 26d2 26bf
000001a0: eede 163f 5bb2 103e 40d1 f3bd aeaf 09bd
000001b0: 22df 9bbe 922e 173f f6fb 353f e853 d7bf
000001c0: d2f8 d53e 508c b5bf 727d 823e 5c52 9fbf
000001d0: dbae 903e d6a3 a6bf c635 4bbd 9d82 903f
000001e0: a1de 97bf 3159 bc3f 28c4 cd3e 70f1 09be
000001f0: 2b44 9d3f 83d2 91bf 78a0 1abe a83a 7fbe

network_body._body_endoder.seq_layers.0.bias f4 [128]
0.0 0.0 0.0 0.0 0.0 0.0 0.0 0.0
0.0 0.0 0.0 0.0 0.0 0.0 0.0 0.0
0.0 0.0 0.0 0.0 0.0 0.0 0.0 0.0
0.0 0.0 0.0 0.0 0.0 0.0 0.0 0.0
0.0 0.0 0.0 0.0 0.0 0.0 0.0 0.0
0.0 0.0 0.0 0.0 0.0 0.0 0.0 0.0
0.0 0.0 0.0 0.0 0.0 0.0 0.0 0.0
0.0 0.0 0.0 0.0 0.0 0.0 0.0 0.0
0.0 0.0 0.0 0.0 0.0 0.0 0.0 0.0
0.0 0.0 0.0 0.0 0.0 0.0 0.0 0.0
0.0 0.0 0.0 0.0 0.0 0.0 0.0 0.0
0.0 0.0 0.0 0.0 0.0 0.0 0.0 0.0
0.0 0.0 0.0 0.0 0.0 0.0 0.0 0.0
0.0 0.0 0.0 0.0 0.0 0.0 0.0 0.0
0.0 0.0 0.0 0.0 0.0 0.0 0.0 0.0
0.0 0.0 0.0 0.0 0.0 0.0 0.0 0.0
00000000: 0000 0000 0000 0000 0000 0000 0000 0000
00000010: 0000 0000 0000 0000 0000 0000 0000 0000
00000020: 0000 0000 0000 0000 0000 0000 0000 0000
00000030: 0000 0000 0000 0000 0000 0000 0000 0000
00000040: 0000 0000 0000 0000 0000 0000 0000 0000
00000050: 0000 0000 0000 0000 0000 0000 0000 0000
00000060: 0000 0000 0000 0000 0000 0000 0000 0000
00000070: 0000 0000 0000 0000 0000 0000 0000 0000
00000080: 0000 0000 0000 0000 0000 0000 0000 0000
00000090: 0000 0000 0000 0000 0000 0000 0000 0000
000000a0: 0000 0000 0000 0000 0000 0000 0000 0000
000000b0: 0000 0000 0000 0000 0000 0000 0000 0000
000000c0: 0000 0000 0000 0000 0000 0000 0000 0000
000000d0: 0000 0000 0000 0000 0000 0000 0000 0000
000000e0: 0000 0000 0000 0000 0000 0000 0000 0000
000000f0: 0000 0000 0000 0000 0000 0000 0000 0000
00000100: 0000 0000 0000 0000 0000 0000 0000 0000
00000110: 0000 0000 0000 0000 0000 0000 0000 0000
00000120: 0000 0000 0000 0000 0000 0000 0000 0000
00000130: 0000 0000 0000 0000 0000 0000 0000 0000
00000140: 0000 0000 0000 0000 0000 0000 0000 0000
00000150: 0000 0000 0000 0000 0000 0000 0000 0000
00000160: 0000 0000 0000 0000 0000 0000 0000 0000
00000170: 0000 0000 0000 0000 0000 0000 0000 0000
00000180: 0000 0000 0000 0000 0000 0000 0000 0000
00000190: 0000 0000 0000 0000 0000 0000 0000 0000
000001a0: 0000 0000 0000 0000 0000 0000 0000 0000
000001b0: 0000 0000 0000 0000 0000 0000 0000 0000
000001c0: 0000 0000 0000 0000 0000 0000 0000 0000
000001d0: 0000 0000 0000 0000 0000 0000 0000 0000
000001e0: 0000 0000 0000 0000 0000 0000 0000 0000
000001f0: 0000 0000 0000 0000 0000 0000 0000 0000

network_body._body_endoder.seq_layers.2.weight f4 [128, 128]
-0.09288606 0.082198516 0.06653895 0.120529406 0.11087762 -0.06621895 -0.09526662 0.003910525
-0.07128794 -0.07097768 0.06546188 0.011693477 -0.026137086 -0.087788455 0.10876897 -0.06907027
0.04570406 0.000325822 0.20893516 0.018487992 -0.10318594 0.010326037 0.033678986 -0.15772338
0.047794793 -0.121886134 -0.040248267 -0.13089381 -0.19534573 0.056849923 -0.06929564 0.045822885
-0.19045392 0.037722792 -0.11725085 -0.0019721212 0.028367693 -0.00093032065 -0.0899369 -0.046383698
0.042069506 0.043721564 -0.17303716 0.02831362 0.0022189762 -0.011488863 -0.086651206 0.07121939
0.1080142 -0.037623364 -0.10958011 0.10359141 0.048414126 -0.08440496 -0.049294367 0.077688724
-0.04594294 0.037560094 0.0859332 -0.059248265 -0.13710403 -0.13347997 -0.037689622 -0.0704305
-0.0047644535 -0.007512058 -0.10719281 -0.027713427 0.0583531 -0.010491194 0.12697202 -0.043698147
0.18438293 -0.003742714 0.14392374 -0.026817188 -0.11794986 0.027602766 0.084472165 -0.10179454
0.169029 0.053335797 0.14699268 0.055937786 0.037201744 -0.15221784 -0.062940784 -0.07804643
-0.09294127 0.119699694 0.15763442 0.01475334 0.0048820367 0.056333993 0.15577473 0.11165709
-0.040322736 0.0028220867 -0.1073662 -0.062281884 -0.03762316 -0.07088276 -0.08999958 -0.03280766
-0.05632518 0.07649185 0.0052274326 0.012899011 0.041725792 0.05346773 0.024006322 -0.024858177
-0.020679142 0.15913208 -0.1780295 -0.06437557 0.09502979 0.036294375 0.09221476 -0.012489555
0.055254433 -0.122005545 0.11644706 -0.065949865 -0.11250422 -0.03486749 0.13170645 0.093380146
0.06294518 0.050837245 0.11933036 -0.09197596 -0.017830316 0.034497302 0.11038944 0.04578375
-0.142396 0.043639705 0.049705293 0.063561715 0.12116589 -0.04592399 0.059410676 -0.0019307687
-0.037958834 0.021318052 0.09049316 -0.020004759 -0.0976337 -0.1389627 -0.032430865 0.017354159
0.08397287 0.05257383 0.048633628 0.16142283 0.21164778 0.003349149 -0.20515035 0.066965714
-0.011101651 -0.0776311 0.038534462 0.028092049 -0.077223375 0.020303648 -0.11851358 0.0670749
-0.03938065 -0.036977094 -0.0044364897 -0.07566698 0.096750565 -0.09563831 0.039295383 -0.1385386
0.09676813 0.120345466 -0.0630845 0.06510415 0.025396818 -0.00030334762 0.15881497 0.009384187
0.14407662 0.08685271 -0.04891019 -0.0648425 -0.0702824 0.038836375 0.12976338 -0.009891647
-0.0246151 -0.058727533 0.0720226 0.09544842 -0.0023284163 -0.018628038 0.011271118 -0.0150113655
-0.020190688 -0.08425379 -0.022521993 -0.027739799 -0.07481866 -0.06680255 -0.095808364 0.034024112
0.14349343 -0.035657782 -0.05144374 -0.0070630736 0.062489826 0.008975359 -0.10452047 -0.020514725
0.21312131 0.046699915 0.14207602 -0.122360244 0.07516649 0.25945488 0.024250835 0.02238246
-0.06713155 0.002587081 -0.07146752 -0.03861848 -0.05160855 -0.07533458 -0.036061883 -0.060735516
-0.008369706 -0.04316188 0.023081003 0.0956821 -0.11736943 -0.123264775 0.0071929093 -0.14013103
0.1210215 -0.12794115 0.061860267 0.04912557 0.06873733 -0.0934356 0.04403881 -0.10341651
0.05954121 -0.019728495 0.021405717 -0.008270865 -0.11761887 0.03517818 0.07964447 -0.09666632
00000000: 0c3b bebd b257 a83d 9345 883d 1fd8 f63d
00000010: ce13 e33d cd9d 87bd 251b c3bd dc23 803b
00000020: 69ff 91bd bf5c 91bd e110 863d ff95 3f3c
00000030: 711d d6bc 6fca b3bd 44c2 de3d b774 8dbd
00000040: 2e34 3b3d 17d3 aa39 19f3 553e 2174 973c
00000050: 2653 d3bd 8a2e 293c faf2 093d 3d82 21be
00000060: 79c4 433d 709f f9bd 5edb 24bd 0709 06be
00000070: b608 48be 77db 683d dfea 8dbd c7b0 3b3d
00000080: 5a06 43be 3783 1a3d 3721 f0bd b43e 01bb
00000090: 5d63 e83c c3e0 73ba d630 b8bd d5fc 3dbd
000000a0: 1351 2c3d 6215 333d a730 31be f7f1 e73c
000000b0: 3e6c 113b c93b 3cbc 3076 b1bd 79db 913d
000000c0: 8d36 dd3d f51a 1abd 896b e0bd bc27 d43d
000000d0: e44d 463d 82dc acbd e4e8 49bd 441b 9f3d
000000e0: aa2e 3cbd 9dd8 193d bffd af3d 4fae 72bd
000000f0: 0065 0cbe f9ae 08be 6f60 1abd de3d 90bd
00000100: 221f 9cbb b627 f6bb e787 dbbd 4507 e3bc
00000110: a903 6f3d 42e3 2bbc f404 023e d4fc 32bd
00000120: e1ce 3c3e 5248 75bb bf60 133e b8af dbbc
00000130: b28f f1bd 321f e23c beff ac3d a879 d0bd
00000140: f015 2d3e a376 5a3d 4085 163e 051f 653d
00000150: db60 183d fede 1bbe 19e7 80bd cfd6 9fbd
00000160: fe57 bebd 1d25 f53d eb6a 213e feb7 713c
00000170: 7ef9 9f3b 79be 663d 6983 1f3e 79ac e43d
00000180: 7429 25bd c2f2 383b cfe2 dbbd 4a1b 7fbd
00000190: be1a 1abd fb2a 91bd b351 b8bd 5361 06bd
000001a0: 3bb5 66bd c2a7 9c3d e24a ab3b 6056 533c
000001b0: aae8 2a3d fa00 5b3d e8a8 c43c 60a3 cbbc
000001c0: 4e67 a9bc 85f3 223e 5e4d 36be 57d7 83bd
000001d0: fb9e c23d 69a9 143d 18db bc3d fea0 4cbc
000001e0: 7952 623d 0bde f9bd cc7b ee3d b910 87bd
000001f0: 9d68 e6bd 37d1 0ebd 0ede 063e 173e bf3d
00000200: 67e9 803d b73a 503d 7a63 f43d e45d bcbd
00000210: e210 92bc 0b4d 0d3d dc13 e23d be87 3b3d
00000220: 42d0 11be 8cbf 323d c797 4b3d a52c 823d
00000230: d225 f83d cb1a 3cbd 9c58 733d d911 fdba
00000240: b97a 1bbd 32a3 ae3c 7a54 b93d 05e1 a3bc
00000250: 2df4 c7bd 3d4c 0ebe 3ad6 04bd 4f2a 8e3c
00000260: f8f9 ab3d a857 573d 0e34 473d 074c 253e
00000270: 32ba 583e 657d 5b3b ef12 52be 5225 893d
00000280: b3e3 35bc 0efd 9ebd 50d6 1d3d 4c21 e63c
00000290: 4a27 9ebd d653 a63c 3fb7 f2bd 915e 893d
000002a0: 9b4d 21bd 4b75 17bd f95f 91bb 4af7 9abd
000002b0: 2925 c63d 05de c3bd 32f4 203d 10dd 0dbe
000002c0: 5f2e c63d af77 f63d 7232 81bd 5355 853d
000002d0: fd0c d03c a10a 9fb9 64a0 223e 22c0 193c
000002e0: d288 133e d5df b13d 0d56 48bd 25cc 84bd
000002f0: 38f0 8fbd e412 1f3d b1e0 043e 9310 22bc
00000300: 9ba5 c9bc 488c 70bd 9680 933d 767a c33d
00000310: 5898 18bb d499 98bc 7faa 383c 3bf2 75bc
00000320: f166 a5bc 408d acbd 0b80 b8bc 933e e3bc
00000330: 873a 99bd c6cf 88bd 2d37 c4bd de5c 0b3d
00000340: f1ef 123e e50d 12bd acb6 52bd 5b71 e7bb
00000350: 55f5 7f3d 620d 133c d40e d6bd 7f0e a8bc
00000360: 793c 5a3e 6948 3f3d 607c 113e 0298 fabd
00000370: e4f0 993d 45d7 843e b0a9 c63c 6c5b b73c
00000380: 447c 89bd 048c 293b 905d 92bd 692e 1ebd
00000390: 7d63 53bd 0449 9abd a0b5 13bd cec5 78bd
000003a0: 1721 09bc 83ca 30bd 5f14 bd3c faf4 c33d
000003b0: 625f f0bd 3e72 fcbd 7fb2 eb3b 827e 0fbe
000003c0: 1fda f73d 0103 03be 3161 7d3d e537 493d
000003d0: 28c6 8c3d 2a5b bfbd 0a62 343d 09cc d3bd
000003e0: 7ce1 733d a79d a1bc 0b5b af3c 8682 07bc
000003f0: 2ae2 f0bd ff16 103d a41c a33d fef8 c5bd

network_body._body_endoder.seq_layers.2.bias f4 [128]
0.0 0.0 0.0 0.0 0.0 0.0 0.0 0.0
0.0 0.0 0.0 0.0 0.0 0.0 0.0 0.0
0.0 0.0 0.0 0.0 0.0 0.0 0.0 0.0
0.0 0.0 0.0 0.0 0.0 0.0 0.0 0.0
0.0 0.0 0.0 0.0 0.0 0.0 0.0 0.0
0.0 0.0 0.0 0.0 0.0 0.0 0.0 0.0
0.0 0.0 0.0 0.0 0.0 0.0 0.0 0.0
0.0 0.0 0.0 0.0 0.0 0.0 0.0 0.0
0.0 0.0 0.0 0.0 0.0 0.0 0.0 0.0
0.0 0.0 0.0 0.0 0.0 0.0 0.0 0.0
0.0 0.0 0.0 0.0 0.0 0.0 0.0 0.0
0.0 0.0 0.0 0.0 0.0 0.0 0.0 0.0
0.0 0.0 0.0 0.0 0.0 0.0 0.0 0.0
0.0 0.0 0.0 0.0 0.0 0.0 0.0 0.0
0.0 0.0 0.0 0.0 0.0 0.0 0.0 0.0
0.0 0.0 0.0 0.0 0.0 0.0 0.0 0.0
00000000: 0000 0000 0000 0000 0000 0000 0000 0000
00000010: 0000 0000 0000 0000 0000 0000 0000 0000
00000020: 0000 0000 0000 0000 0000 0000 0000 0000
00000030: 0000 0000 0000 0000 0000 0000 0000 0000
00000040: 0000 0000 0000 0000 0000 0000 0000 0000
00000050: 0000 0000 0000 0000 0000 0000 0000 0000
00000060: 0000 0000 0000 0000 0000 0000 0000 0000
00000070: 0000 0000 0000 0000 0000 0000 0000 0000
00000080: 0000 0000 0000 0000 0000 0000 0000 0000
00000090: 0000 0000 0000 0000 0000 0000 0000 0000
000000a0: 0000 0000 0000 0000 0000 0000 0000 0000
000000b0: 0000 0000 0000 0000 0000 0000 0000 0000
000000c0: 0000 0000 0000 0000 0000 0000 0000 0000
000000d0: 0000 0000 0000 0000 0000 0000 0000 0000
000000e0: 0000 0000 0000 0000 0000 0000 0000 0000
000000f0: 0000 0000 0000 0000 0000 0000 0000 0000
00000100: 0000 0000 0000 0000 0000 0000 0000 0000
00000110: 0000 0000 0000 0000 0000 0000 0000 0000
00000120: 0000 0000 0000 0000 0000 0000 0000 0000
00000130: 0000 0000 0000 0000 0000 0000 0000 0000
00000140: 0000 0000 0000 0000 0000 0000 0000 0000
00000150: 0000 0000 0000 0000 0000 0000 0000 0000
00000160: 0000 0000 0000 0000 0000 0000 0000 0000
00000170: 0000 0000 0000 0000 0000 0000 0000 0000
00000180: 0000 0000 0000 0000 0000 0000 0000 0000
00000190: 0000 0000 0000 0000 0000 0000 0000 0000
000001a0: 0000 0000 0000 0000 0000 0000 0000 0000
000001b0: 0000 0000 0000 0000 0000 0000 0000 0000
000001c0: 0000 0000 0000 0000 0000 0000 0000 0000
000001d0: 0000 0000 0000 0000 0000 0000 0000 0000
000001e0: 0000 0000 0000 0000 0000 0000 0000 0000
000001f0: 0000 0000 0000 0000 0000 0000 0000 0000

value_heads.value_heads.extrinsic.weight f4 [1, 128]
0.19695482 0.0020520985 0.09591064 -0.15246709 0.019393086 -0.13751855 -0.21257354 0.03509611
-0.12361311 0.01183337 -0.0069008768 -0.01789987 -0.18369135 0.009328201 -0.101813294 0.044838935
-0.0563571 -0.14492057 0.17151922 0.13180992 -0.14219837 -0.056350708 -0.015047371 -0.071539
-0.0037633628 0.00056134164 -0.066150874 0.015676603 -0.08885583 0.045627892 -0.15383025 -0.05241123
0.20815727 0.12272343 -0.21020694 0.17053023 -0.067769125 0.017263561 -0.18681258 0.1996224
0.17991424 0.09714079 0.12590298 0.14488745 -0.042542532 -0.20797607 0.14383718 -0.20802175
0.18448502 -0.16113885 -0.19679767 -0.10999493 0.13321269 -0.0843716 -0.181445 0.09139159
0.19740075 0.077472776 0.0059633255 0.15735048 -0.07647492 -0.13215409 0.02906759 -0.07714066
0.03393574 0.0483855 -0.14576158 0.034405142 0.077111036 0.041962683 -0.1593551 0.11863279
0.1900152 -0.1786338 -0.11763675 0.043408424 0.14815933 -0.2090646 0.15310425 0.0509696
0.11411795 -0.090062976 0.14875752 -0.046342492 0.19627008 0.16425675 0.06348309 -0.010041043
-0.09614333 0.059118688 0.19301265 0.15828127 -0.2078051 -0.07351294 -0.074518174 -0.07510039
-0.089788675 0.040591806 0.11700082 -0.14472179 0.15288207 0.038259953 -0.096324116 -0.21204463
0.06833947 -0.031307444 -0.04008466 -0.11399451 -0.0021980405 -0.051829025 0.09329787 0.17925936
-0.12835196 0.123364896 0.040197253 -0.165906 0.036863655 0.17749175 -0.14145526 -0.20616603
0.13664836 -0.052708715 0.11173481 0.13876271 -0.016456857 -0.051119447 0.033782065 -0.08782993
00000000: 86ae 493e 807c 063b cc6c c43d 5520 1cbe
00000010: 40de 9e3c aad1 0cbe e1ac 59be f0c0 0f3d
00000020: df28 fdbd c0e0 413c c020 e2bb c0a2 92bc
00000030: 9619 3cbe 50d5 183c 7d83 d0bd 08a9 373d
00000040: b4d6 66bd 0f66 14be bca2 2f3e 2ef9 063e
00000050: 739c 11be 00d0 66bd 4089 76bc 0a83 92bd
00000060: c0a2 76bb 0027 133a 1c7a 87bd 386c 803c
00000070: 0cfa b5bd 50e4 3a3d ad85 1dbe 28ad 56bd
00000080: 2e27 553e 6c56 fb3d 7d40 57be 7a9f 2e3e
00000090: 8aca 8abd 506c 8d3c cc4b 3fbe d069 4c3e
000000a0: 703b 383e c0f1 c63d b6ec 003e 605d 143e
000000b0: 1441 2ebd aef7 54be 0e4a 133e a703 55be
000000c0: a4e9 3c3e 9501 25be 5485 49be 0645 e1bd
000000d0: e868 083e 04cb acbd b8cc 39be 842b bb3d
000000e0: 6c23 4a3e 0caa 9e3d 0068 c33b 7c20 213e
000000f0: e29e 9cbd 6753 07be 281f ee3c ecfb 9dbd
00000100: 3400 0b3d e02f 463d 8642 15be 68ec 0c3d
00000110: 64ec 9d3d 10e1 2b3d fc2d 23be c0f5 f23d
00000120: 5893 423e c7eb 36be 89eb f0bd 08cd 313d
00000130: 14b7 173e 0815 56be 5cc7 1c3e 80c5 503d
00000140: acb6 e93d f072 b8bd e453 183e a0d1 3dbd
00000150: 06fb 483e ec32 283e 6c03 823d 3083 24bc
00000160: cbe6 c4bd 7026 723d 1ca5 453e 7c14 223e
00000170: dcca 54be f48d 96bd fc9c 98bd 3cce 99bd
00000180: 20e3 b7bd 9843 263d 209e ef3d f331 14be
00000190: 1e8d 1c3e 78b6 1c3d 9445 c5bd 3a22 59be
000001a0: 90f5 8b3d 3c3c 00bd d02f 24bd f475 e9bd
000001b0: 000d 10bb ac4a 54bd f412 bf3d c48f 373e
000001c0: b26e 03be bca6 fc3d e0a5 243d 43e3 29be
000001d0: 58fe 163d 66c0 353e a6d9 10be 301d 53be
000001e0: 8ced 0b3e 18e5 57bd 38d5 e43d d017 0e3e
000001f0: 88d0 86bc a062 51bd 105f 0a3d 2ee0 b3bd
