results/ppo/defender_1/defender_1-0.pt (torch, 145168 bytes, 11 tensors)

network_body._body_endoder.seq_layers.0.weight f4 [128, 1]
0	0xbf3e450b	-0.743241
1	0xbf8f5617	-1.1198148
2	0x3f3d0f88	0.73851824
3	0xbf01059b	-0.5039918
4	0x3f06ace8	0.52607584
5	0x3f10f1d3	0.56618994
6	0x3cd76fef	0.026298491
7	0xbf8ff2bc	-1.1245952
8	0xbfaee598	-1.3663816
9	0xbeac5a7b	-0.3366278
10	0xbc3b3735	-0.011426737
11	0x3ebff231	0.37489465
12	0xbea7d9a0	-0.32783222
13	0x3fbfbbac	1.4979148
14	0xc0118f9e	-2.2743907
15	0xbeaa6deb	-0.33286986
16	0xbe7ccb9e	-0.24687049
17	0x3f06ee4a	0.5270735
18	0x402710dd	2.6104043
19	0x3f239abb	0.63907975
20	0x3e72b0f0	0.23700309
21	0xbf528ec7	-0.8224911
22	0xbda1af25	-0.07894734
23	0x3eb5ca4a	0.35505897
24	0xbf0e31a6	-0.5554451
25	0xbec86f95	-0.3914763
26	0xbfa85b0b	-1.3152784
27	0x3ef3bd0c	0.4760517
28	0xbebb27b8	-0.3655374
29	0x3e824bfb	0.25448593
30	0xbed22722	-0.4104548
31	0x3ed85205	0.42250076
32	0x3dee87d7	0.11647003
33	0x3f8bb096	1.0913265
34	0x3ef915a5	0.48649326
35	0xbf941d78	-1.1571493
36	0xbf1d49cf	-0.6144075
37	0xbfa6821a	-1.3008454
38	0x3f6dc29c	0.92875075
39	0xbf877cd1	-1.0584966
40	0x3f4f9fe9	0.8110338
41	0xbfc92f05	-1.5717474
42	0xbf5758b9	-0.84119755
43	0x3fa61efd	1.2978207
44	0xbea55355	-0.3229014
45	0xbfac7ff2	-1.3476546
46	0xbe11f38a	-0.14253059
47	0x3f0d3407	0.5515751
48	0x3fea1405	1.828736
49	0x3e89e7a0	0.26934528
50	0xbf281490	-0.65656376
51	0xbf2dec1c	-0.679384
52	0x3ecbada9	0.3978093
53	0x3fffccc1	1.9984361
54	0xc00e1cb9	-2.220503
55	0xbfc5632d	-1.5420891
56	0x3f9e082e	1.2346246
57	0xbf09a10f	-0.5376138
58	0xbec59175	-0.38587537
59	0x40117af5	2.2731297
60	0xbe2e7bd7	-0.17039429
61	0xbf2f75b6	-0.6853899
62	0xbf9bc733	-1.2170166
63	0x3f96e654	1.178904
64	0x3f4c75f0	0.7986746
65	0x3f2098bf	0.6273307
66	0xbd4a671b	-0.049414735
67	0x3f378021	0.71679884
68	0xbf99bfb6	-1.201163
69	0x3f4394e7	0.7639908
70	0x3e9ca7dd	0.3059682
71	0x3e62dbd9	0.22154178
72	0x3ec17eea	0.3779214
73	0x3f161d41	0.5863839
74	0x3f77ac26	0.9674705
75	0x3fa2239a	1.2667115
76	0xbf23223b	-0.63724107
77	0xbf96cb9b	-1.1780885
78	0xbd00527c	-0.031328663
79	0x3f3c9493	0.73664206
80	0xbf8abc46	-1.0838706
81	0x3ec3e96d	0.38264027
82	0x4022f361	2.5461047
83	0xbf4699ed	-0.7757862
84	0xc004d6af	-2.0756032
85	0xbe91808e	-0.28418392
86	0xbf8d87ba	-1.1057045
87	0x3f7ed0b8	0.9953723
88	0xbd4acba1	-0.049510602
89	0xbf856097	-1.0420102
90	0xbfc269b3	-1.5188507
91	0x3ed3e6e3	0.4138709
92	0x3f3a2717	0.72715896
93	0xbfbbee7e	-1.4682157
94	0x3f58d3e7	0.8469834
95	0x3eda1452	0.42593628
96	0xbf2e7185	-0.6814197
97	0xc0353d94	-2.8318834
98	0xbf903295	-1.1265436
99	0xbef57603	-0.47941598
100	0xbe5f65fa	-0.21816245
101	0xbf735e27	-0.9506554
102	0x3e44a946	0.19205198
103	0x3fc0b343	1.5054706
104	0x40274aed	2.613948
105	0x3e9ceff2	0.30651814
106	0xbf833a78	-1.0252218
107	0xbe8ed498	-0.2789657
108	0x3fa7cab1	1.3108732
109	0x3f5000a8	0.81251
110	0x3f2647f1	0.64953524
111	0xbe5acf4f	-0.21368144
112	0xbe547d0b	-0.20750825
113	0x3ec72698	0.38896632
114	0x3fc5d223	1.5454754
115	0x3d45ba7e	0.048273556
116	0x3e0a098a	0.13480201
117	0x3e4de210	0.20105767
118	0x3fa7438e	1.3067491
119	0x3f32b47b	0.6980664
120	0xbd498c00	-0.04920578
121	0x3f831d98	1.0243406
122	0x3f455802	0.77087414
123	0x3e1811bf	0.1485052
124	0xbf44423c	-0.76663566
125	0x3f2d3c36	0.6767
126	0xc01dff4d	-2.4687073
127	0x3d7897ec	0.06069176

network_body._body_endoder.seq_layers.0.bias f4 [128]
0	0x00000000	0.0
1	0x00000000	0.0
2	0x00000000	0.0
3	0x00000000	0.0
4	0x00000000	0.0
5	0x00000000	0.0
6	0x00000000	0.0
7	0x00000000	0.0
8	0x00000000	0.0
9	0x00000000	0.0
10	0x00000000	0.0
11	0x00000000	0.0
12	0x00000000	0.0
13	0x00000000	0.0
14	0x00000000	0.0
15	0x00000000	0.0
16	0x00000000	0.0
17	0x00000000	0.0
18	0x00000000	0.0
19	0x00000000	0.0
20	0x00000000	0.0
21	0x00000000	0.0
22	0x00000000	0.0
23	0x00000000	0.0
24	0x00000000	0.0
25	0x00000000	0.0
26	0x00000000	0.0
27	0x00000000	0.0
28	0x00000000	0.0
29	0x00000000	0.0
30	0x00000000	0.0
31	0x00000000	0.0
32	0x00000000	0.0
33	0x00000000	0.0
34	0x00000000	0.0
35	0x00000000	0.0
36	0x00000000	0.0
37	0x00000000	0.0
38	0x00000000	0.0
39	0x00000000	0.0
40	0x00000000	0.0
41	0x00000000	0.0
42	0x00000000	0.0
43	0x00000000	0.0
44	0x00000000	0.0
45	0x00000000	0.0
46	0x00000000	0.0
47	0x00000000	0.0
48	0x00000000	0.0
49	0x00000000	0.0
50	0x00000000	0.0
51	0x00000000	0.0
52	0x00000000	0.0
53	0x00000000	0.0
54	0x00000000	0.0
55	0x00000000	0.0
56	0x00000000	0.0
57	0x00000000	0.0
58	0x00000000	0.0
59	0x00000000	0.0
60	0x00000000	0.0
61	0x00000000	0.0
62	0x00000000	0.0
63	0x00000000	0.0
64	0x00000000	0.0
65	0x00000000	0.0
66	0x00000000	0.0
67	0x00000000	0.0
68	0x00000000	0.0
69	0x00000000	0.0
70	0x00000000	0.0
71	0x00000000	0.0
72	0x00000000	0.0
73	0x00000000	0.0
74	0x00000000	0.0
75	0x00000000	0.0
76	0x00000000	0.0
77	0x00000000	0.0
78	0x00000000	0.0
79	0x00000000	0.0
80	0x00000000	0.0
81	0x00000000	0.0
82	0x00000000	0.0
83	0x00000000	0.0
84	0x00000000	0.0
85	0x00000000	0.0
86	0x00000000	0.0
87	0x00000000	0.0
88	0x00000000	0.0
89	0x00000000	0.0
90	0x00000000	0.0
91	0x00000000	0.0
92	0x00000000	0.0
93	0x00000000	0.0
94	0x00000000	0.0
95	0x00000000	0.0
96	0x00000000	0.0
97	0x00000000	0.0
98	0x00000000	0.0
99	0x00000000	0.0
100	0x00000000	0.0
101	0x00000000	0.0
102	0x00000000	0.0
103	0x00000000	0.0
104	0x00000000	0.0
105	0x00000000	0.0
106	0x00000000	0.0
107	0x00000000	0.0
108	0x00000000	0.0
109	0x00000000	0.0
110	0x00000000	0.0
111	0x00000000	0.0
112	0x00000000	0.0
113	0x00000000	0.0
114	0x00000000	0.0
115	0x00000000	0.0
116	0x00000000	0.0
117	0x00000000	0.0
118	0x00000000	0.0
119	0x00000000	0.0
120	0x00000000	0.0
121	0x00000000	0.0
122	0x00000000	0.0
123	0x00000000	0.0
124	0x00000000	0.0
125	0x00000000	0.0
126	0x00000000	0.0
127	0x00000000	0.0

network_body._body_endoder.seq_layers.2.weight f4 [128, 128]
0	0x3cc617ba	0.024181236
1	0x3d739e82	0.059477337
2	0xbd5da389	-0.054111037
3	0xbe14f8db	-0.14548056
4	0x3d5ed311	0.054400507
5	0xbe58232d	-0.21107168
6	0x3d2f5d66	0.04281368
7	0x3e0e5f28	0.13903487
8	0x3ba888d4	0.0051432643
9	0xbcb86dfc	-0.022513382
10	0x3c65f8ac	0.014036339
11	0xbca2b4be	-0.019861575
12	0xbd51cb4a	-0.051219262
13	0x3d6db29f	0.058031674
14	0x3c37c55f	0.0112164905
15	0xbd2e224c	-0.042513177
16	0x3e677aad	0.22605391
17	0xbcb3fdb8	-0.021971568
18	0xbdc91228	-0.09817916
19	0xbdaa7269	-0.08322603
20	0x3c55af0d	0.013042224
21	0x3d181d3f	0.037137266
22	0xbd0c6b96	-0.03428229
23	0x3b5e4279	0.0033914133
24	0x3df02cd5	0.11727301
25	0x3e4b7480	0.1986866
26	0xbe0660d7	-0.13122879
27	0x3d8a2610	0.06745541
28	0xbd34d25b	-0.044145923
29	0xbd01254b	-0.031529706
30	0xbe8109de	-0.2520284
31	0x3dc5595c	0.096361846
32	0x3d122f15	0.035689432
33	0xbd1c410c	-0.03814797
34	0x3bbd4ecd	0.005777216
35	0x3dabcca1	0.08388639
36	0x3db59a90	0.08867371
37	0x3d05c242	0.03265596
38	0xbe01c5e5	-0.12673147
39	0xbddfd218	-0.10928744
40	0x3e0d5909	0.13803495
41	0x3d59faf3	0.05321784
42	0xbdd6b4e4	-0.10483721
43	0x3b16c761	0.0023007023
44	0xbaee80b5	-0.0018196317
45	0x3b84a5dc	0.0040480923
46	0x3d28df8a	0.04122881
47	0xbdafb0c0	-0.08578634
48	0x3e316466	0.17323455
49	0x3d207fb1	0.039184276
50	0x3e20915b	0.15680449
51	0xbd9a5bbd	-0.07537029
52	0xbd9ba45d	-0.07599709
53	0xbd0b851b	-0.034062486
54	0xbe423acb	-0.1896774
55	0xbdd46be1	-0.10372139
56	0xbc7b6453	-0.015343743
57	0x3cc55ec7	0.024093045
58	0x3cacf496	0.021112721
59	0xbc6fdaf7	-0.014639608
60	0xbe0e6728	-0.13906538
61	0xbd5197e1	-0.051170234
62	0x3c485b1c	0.012228753
63	0xbd641a52	-0.055689164
64	0xbc4c2383	-0.0124596385
65	0xbd6901f4	-0.05688663
66	0xbce488e5	-0.027897308
67	0xbdd34c38	-0.10317272
68	0x3dbc5f8f	0.09197914
69	0x3d121960	0.03566873
70	0xbbfdb497	-0.0077424753
71	0x3dee5959	0.116381355
72	0xbafb817c	-0.001918837
73	0x3b5807d8	0.003296366
74	0x3e4856de	0.19564387
75	0x3e534e8f	0.20635436
76	0x3d9a60fc	0.075380296
77	0x3c84a0c4	0.01618994
78	0x3c1e8511	0.00967528
79	0x3e1cc69b	0.15310137
80	0x3d800b7f	0.06252193
81	0x3d01b014	0.03166206
82	0xbdec524e	-0.11539136
83	0x3d23f971	0.040032808
84	0x3df3ea3d	0.11909912
85	0xbd2aeeb5	-0.041731555
86	0x3c32500b	0.010883342
87	0xbdbcd615	-0.092205204
88	0xbd120c3b	-0.035656195
89	0xbd2ef7de	-0.042716853
90	0x3d1c49f9	0.038156483
91	0x3ca0fb02	0.01965094
92	0xbbf8ef60	-0.007596895
93	0xbdebb88f	-0.11509811
94	0x3d818e12	0.06325926
95	0xbe88a25a	-0.26686364
96	0xbd6da1db	-0.058015686
97	0xbda7c2e2	-0.08191468
98	0x3e071fca	0.1319572
99	0xbdbdcfdd	-0.092681624
100	0xbd9efd0c	-0.077631086
101	0xbe175ac1	-0.14780714
102	0xbdf747ca	-0.120742396
103	0xbd9d47aa	-0.076796845
104	0xbdec1922	-0.11528231
105	0xbd827a0d	-0.063709356
106	0x3dbc36fd	0.09190176
107	0x3db0ae6e	0.0862702
108	0x3d9fb457	0.07798069
109	0x3de67d11	0.11254323
110	0xbc77e887	-0.015131122
111	0xbc90767e	-0.017634626
112	0x3d7821d5	0.06057914
113	0x3d1d56f6	0.03841301
114	0xbde24fc8	-0.11050373
115	0x3d70260b	0.05863003
116	0xbd3ab2a4	-0.04558052
117	0xbe0da86c	-0.13833779
118	0x3cd12dfb	0.02553462
119	0x3e538d2e	0.20659325
120	0x3d828bfb	0.063743554
121	0x3d1408f2	0.036141343
122	0xbde8bf80	-0.11364651
123	0xbddc3f02	-0.10754205
124	0xbda29e34	-0.07940331
125	0xbdfa645e	-0.12226175
126	0x3cee1d39	0.029066669
127	0xbd478102	-0.048707016
128	0x3dfd3b84	0.12364867
129	0xbe206331	-0.15662839
130	0x3d226b9d	0.03965341
131	0x3c8f796c	0.017513953
132	0xbd8211c5	-0.063510455
133	0x3dcca53f	0.09992456
134	0xbe2f29e1	-0.1710582
135	0x3e0339be	0.12814996
136	0xbd95ab28	-0.07308036
137	0xbdc57e5b	-0.09643241
138	0x3c7b3d5f	0.015334456
139	0xbb9fe7e8	-0.0048799403
140	0xbc8b2307	-0.016984476
141	0xbdac06c1	-0.08399726
142	0x3daf4cd6	0.08559577
143	0xbda424eb	-0.08014854
144	0xbbcebcd2	-0.00630913
145	0xbde80a47	-0.11330085
146	0xbd068053	-0.032837223
147	0x3b9fa304	0.004871728
148	0x3db46070	0.088074565
149	0x3db7183c	0.08940169
150	0x3e26ed96	0.1630157
151	0xbc9f288c	-0.019428514
152	0x3d696b58	0.056987137
153	0x3d7f8b0e	0.062388472
154	0x3e0f2086	0.1397725
155	0xbd8a6b2a	-0.06758721
156	0xbdac9555	-0.0842692
157	0xbdce8923	-0.100847505
158	0xbd73e15b	-0.059541088
159	0xbe06180b	-0.13095109
160	0x3d512aeb	0.05106632
161	0xbd8060eb	-0.06268486
162	0x3e35b12d	0.17743368
163	0x3dc4d834	0.0961155
164	0x3d4f088f	0.05054527
165	0xbc9cd110	-0.019142658
166	0x3b26732d	0.002539824
167	0x3e122120	0.14270449
168	0x3d7e4bc6	0.062083982
169	0xbcb4369e	-0.0219987
170	0x3c5621d3	0.013069588
171	0xbc503fb6	-0.012710502
172	0xbc294abe	-0.010332761
173	0x3c6f96f0	0.014623389
174	0xbd14b71d	-0.036307443
175	0xbc87fc33	-0.01659975
176	0xbc9f187c	-0.019420855
177	0x3d9c0b5f	0.07619356
178	0x3da145b7	0.07874625
179	0xbdd92669	-0.10603029
180	0xbd9ea193	-0.077456616
181	0x3b8fcc6a	0.0043883817
182	0xbc344b83	-0.0110043315
183	0x3dab22c4	0.083562404
184	0x3d163785	0.03667404
185	0xbd0d3e54	-0.03448327
186	0xbde5ac17	-0.11214464
187	0xbca14bb4	-0.019689418
188	0xbc3c78da	-0.011503423
189	0xbd810054	-0.06298891
190	0x3e1b8b59	0.15189876
191	0xbddf16e9	-0.10893042
192	0xbadda0e9	-0.0016908917
193	0xbd1002d7	-0.03515896
194	0x3e0d75d5	0.1381448
195	0xbdd0036c	-0.10156903
196	0xbe0659dc	-0.13120216
197	0x3e09294d	0.13394661
198	0xbd1f3986	-0.038873218
199	0x3e1f2d7c	0.15544695
200	0xbd404600	-0.046941757
201	0xbe15a73a	-0.14614573
202	0x3e66666d	0.2250001
203	0xbd14373d	-0.03618549
204	0xbda7e7d0	-0.081985116
205	0x3e46a843	0.19400124
206	0xbe1158e4	-0.14194065
207	0x3d8bf94c	0.06834659
208	0x3d825968	0.06364709
209	0x3ca711b4	0.020394184
210	0x3c9855b5	0.018595556
211	0x3e5bb74b	0.2145664
212	0x3cb01726	0.021495413
213	0x3d62e3a6	0.055392884
214	0x3cb7c5a7	0.022433115
215	0xbddb0474	-0.10694209
216	0x3d906c42	0.070518985
217	0x3dff9342	0.12479259
218	0x3dcf46f4	0.10120955
219	0xbe2c1d8a	-0.16808143
220	0x3e502d2c	0.20329732
221	0x3da94a0f	0.08266079
222	0x39bd1805	0.00036066785
223	0xbc6b684f	-0.014368131
224	0xbbdaf1f1	-0.0066816737
225	0xbdb9ffcd	-0.09081993
226	0xbdcc3f08	-0.0997296
227	0x3cc13b19	0.02358775
228	0xbd4db2a8	-0.050219208
229	0xb99977a5	-0.00029271576
230	0x3c994887	0.018711342
231	0xbdb6b181	-0.08920575
232	0x3da84e96	0.08218114
233	0xbdbc1c8e	-0.09185134
234	0x3ddab9fb	0.10680004
235	0xbde53ecc	-0.11193618
236	0xbc1f5c86	-0.009726649
237	0xbc5d24c6	-0.013497537
238	0x3dcbb98d	0.099475004
239	0xbd2df580	-0.042470455
240	0x3dd756ab	0.105145775
241	0xbce98cdf	-0.028509555
242	0xbb9b1db9	-0.004733768
243	0x3de8da28	0.11369735
244	0x3e594e76	0.21221337
245	0x3d94fd9a	0.07274933
246	0x3dca0fe5	0.09866313
247	0x3de5e5c7	0.11225467
248	0x3c8bba0d	0.01705649
249	0x3b8dbbfb	0.0043253875
250	0xbd8eb4b1	-0.06968058
251	0xbdc6788d	-0.09690962
252	0x3dfa3921	0.12217928
253	0xbd7da74b	-0.06192712
254	0xbcd8f233	-0.026482677
255	0xbc6e7cc1	-0.014556111

network_body._body_endoder.seq_layers.2.bias f4 [128]
0	0x00000000	0.0
1	0x00000000	0.0
2	0x00000000	0.0
3	0x00000000	0.0
4	0x00000000	0.0
5	0x00000000	0.0
6	0x00000000	0.0
7	0x00000000	0.0
8	0x00000000	0.0
9	0x00000000	0.0
10	0x00000000	0.0
11	0x00000000	0.0
12	0x00000000	0.0
13	0x00000000	0.0
14	0x00000000	0.0
15	0x00000000	0.0
16	0x00000000	0.0
17	0x00000000	0.0
18	0x00000000	0.0
19	0x00000000	0.0
20	0x00000000	0.0
21	0x00000000	0.0
22	0x00000000	0.0
23	0x00000000	0.0
24	0x00000000	0.0
25	0x00000000	0.0
26	0x00000000	0.0
27	0x00000000	0.0
28	0x00000000	0.0
29	0x00000000	0.0
30	0x00000000	0.0
31	0x00000000	0.0
32	0x00000000	0.0
33	0x00000000	0.0
34	0x00000000	0.0
35	0x00000000	0.0
36	0x00000000	0.0
37	0x00000000	0.0
38	0x00000000	0.0
39	0x00000000	0.0
40	0x00000000	0.0
41	0x00000000	0.0
42	0x00000000	0.0
43	0x00000000	0.0
44	0x00000000	0.0
45	0x00000000	0.0
46	0x00000000	0.0
47	0x00000000	0.0
48	0x00000000	0.0
49	0x00000000	0.0
50	0x00000000	0.0
51	0x00000000	0.0
52	0x00000000	0.0
53	0x00000000	0.0
54	0x00000000	0.0
55	0x00000000	0.0
56	0x00000000	0.0
57	0x00000000	0.0
58	0x00000000	0.0
59	0x00000000	0.0
60	0x00000000	0.0
61	0x00000000	0.0
62	0x00000000	0.0
63	0x00000000	0.0
64	0x00000000	0.0
65	0x00000000	0.0
66	0x00000000	0.0
67	0x00000000	0.0
68	0x00000000	0.0
69	0x00000000	0.0
70	0x00000000	0.0
71	0x00000000	0.0
72	0x00000000	0.0
73	0x00000000	0.0
74	0x00000000	0.0
75	0x00000000	0.0
76	0x00000000	0.0
77	0x00000000	0.0
78	0x00000000	0.0
79	0x00000000	0.0
80	0x00000000	0.0
81	0x00000000	0.0
82	0x00000000	0.0
83	0x00000000	0.0
84	0x00000000	0.0
85	0x00000000	0.0
86	0x00000000	0.0
87	0x00000000	0.0
88	0x00000000	0.0
89	0x00000000	0.0
90	0x00000000	0.0
91	0x00000000	0.0
92	0x00000000	0.0
93	0x00000000	0.0
94	0x00000000	0.0
95	0x00000000	0.0
96	0x00000000	0.0
97	0x00000000	0.0
98	0x00000000	0.0
99	0x00000000	0.0
100	0x00000000	0.0
101	0x00000000	0.0
102	0x00000000	0.0
103	0x00000000	0.0
104	0x00000000	0.0
105	0x00000000	0.0
106	0x00000000	0.0
107	0x00000000	0.0
108	0x00000000	0.0
109	0x00000000	0.0
110	0x00000000	0.0
111	0x00000000	0.0
112	0x00000000	0.0
113	0x00000000	0.0
114	0x00000000	0.0
115	0x00000000	0.0
116	0x00000000	0.0
117	0x00000000	0.0
118	0x00000000	0.0
119	0x00000000	0.0
120	0x00000000	0.0
121	0x00000000	0.0
122	0x00000000	0.0
123	0x00000000	0.0
124	0x00000000	0.0
125	0x00000000	0.0
126	0x00000000	0.0
127	0x00000000	0.0

action_model._discrete_distribution.branches.0.weight f4 [4, 128]
0	0xbb361367	-0.002778256
1	0xbbc834bb	-0.0061098016
2	0x3c045863	0.008077714
3	0x3c29811a	0.010345722
4	0x3c881b43	0.016614562
5	0x3c7c3d7a	0.0153955165
6	0xbada0ec0	-0.0016636476
7	0xbb860b42	-0.0040906975
8	0xbb6623df	-0.0035116596
9	0x3c47da53	0.012198049
10	0xbb802be3	-0.0039114817
11	0x39c8b5db	0.00038282466
12	0xbbf4b890	-0.0074682906
13	0xbc5872a8	-0.01321093
14	0xbc11bdef	-0.008895381
15	0x3c6764d0	0.014123157
16	0xbb81b6c3	-0.0039585545
17	0xbb9749ed	-0.004616967
18	0x3c0f8fc3	0.008762303
19	0xbbfed668	-0.007777024
20	0xbbd98767	-0.0066384557
21	0xbc1fead7	-0.00976058
22	0xbb145bd0	-0.0022637732
23	0xbc52af6b	-0.012859206
24	0x3b08511f	0.0020800305
25	0xbc029720	-0.007970601
26	0x3b2ef13c	0.002669408
27	0x3905c62f	0.00012757698
28	0xbb1acaad	-0.002361934
29	0xbc41c0e3	-0.011825773
30	0xb9fc7f00	-0.00048159808
31	0x3c98ee8b	0.018668434
32	0x3c1c360f	0.009534373
33	0x3c5f15ea	0.013616065
34	0xbabd43c7	-0.0014439755
35	0xba4b1017	-0.0007746233
36	0xbc9be66e	-0.019030776
37	0xbb94856f	-0.004532508
38	0x3bad9947	0.005297813
39	0xbc46ca30	-0.012133166
40	0x3bb458a9	0.005503733
41	0x3b4bdd57	0.003110727
42	0xbb27cf3e	-0.0025605704
43	0xbb4e847a	-0.0031512068
44	0xbb944ed7	-0.004526
45	0x3ba8c833	0.0051508187
46	0xbba4e319	-0.005031955
47	0x3be140ea	0.0068741934
48	0xbae8632f	-0.0017729754
49	0x3bcfb398	0.006338548
50	0x3c3b83a3	0.011444959
51	0x3c5c968a	0.013463626
52	0x3b28a825	0.0025734988
53	0x3bcb9a9b	0.006213499
54	0x3c6e6032	0.014549302
55	0x3b0360a0	0.0020046607
56	0x3c67bf92	0.014144795
57	0xbb315038	-0.002705587
58	0x3bc3653e	0.0059629967
59	0x3ba736dc	0.0051029753
60	0xbc796dc0	-0.01522392
61	0x3924960b	0.00015696154
62	0xbb17a90e	-0.0023141536
63	0xbb2d5425	-0.002644786
64	0x3baee2ef	0.005337111
65	0xbae67e33	-0.0017585218
66	0x3c40a378	0.011757724
67	0x3b758af3	0.0037466853
68	0xbbb14597	-0.005409907
69	0xbc42592a	-0.011862079
70	0xbbc2fb0f	-0.0059503387
71	0xbbbf30ef	-0.0058346908
72	0xbba40094	-0.0050049517
73	0xbc273648	-0.010205813
74	0x39f9cbba	0.0004764477
75	0x3bd44efd	0.0064791427
76	0xbc5d581f	-0.013509779
77	0xbc714470	-0.014725789
78	0x3af9c3f2	0.0019055589
79	0xbb8c2cf7	-0.004277821
80	0xbb9985e0	-0.0046851486
81	0x3c39dbf9	0.0113439495
82	0xbc160ff1	-0.009159074
83	0xbc29f343	-0.0103729395
84	0xbc2204ba	-0.009888822
85	0x3c3eeb72	0.011652814
86	0xbc050bf5	-0.008120527
87	0xbc4d87c5	-0.012544577
88	0x3b8af28f	0.004240341
89	0x3c9c5665	0.019084165
90	0xbb244bcf	-0.00250696
91	0xbc6bffd3	-0.014404255
92	0x3bb23a9a	0.0054391148
93	0x3beaf9f8	0.007170912
94	0xbbddf933	-0.0067740916
95	0xbc866c91	-0.01640919
96	0xbb005863	-0.0019583933
97	0xbc2bd9b9	-0.010488921
98	0x3ade863a	0.0016977258
99	0x3a0a370e	0.0005272486
100	0x3c28ace0	0.010295123
101	0x3c026930	0.007959649
102	0xbbbfb750	-0.00585071
103	0x3c92abb7	0.017904146
104	0xbc029a22	-0.007971318
105	0x3ca24fff	0.019813536
106	0x3c6b5d0b	0.014365445
107	0xbc4a5aef	-0.012350782
108	0x3aaa3a29	0.0012987304
109	0x3bad4b1f	0.005288496
110	0x3cb0ea81	0.021596195
111	0x39a63e2f	0.00031708318
112	0xbc7f8468	-0.015595533
113	0x3bb67d85	0.0055691623
114	0xbb9a00f0	-0.004699819
115	0xba7b559f	-0.00095876487
116	0xbbe44845	-0.006966623
117	0xbb83bf08	-0.0040205754
118	0x3bce89f8	0.0063030683
119	0xbc2f9eec	-0.010719042
120	0x3c19b3b5	0.009381224
121	0x3c928c10	0.017889053
122	0x3c09754b	0.008389781
123	0x3b9c9181	0.0047780876
124	0x3cdad510	0.026712924
125	0xbbeec66f	-0.0072868387
126	0x3aa5b680	0.001264289
127	0xbb4a8761	-0.0030903446
128	0xb938ec82	-0.00017635713
129	0x3ba79109	0.005113725
130	0x3aed3ad3	0.0018099196
131	0xbc211278	-0.009831063
132	0xbc3b4fc8	-0.011432596
133	0x3c842693	0.016131675
134	0xbbbdff3b	-0.005798248
135	0xbae7dd1f	-0.0017689801
136	0x3923e7b7	0.00015631212
137	0x3c46c0f1	0.012130962
138	0x3b835dde	0.0040089926
139	0xbbffd253	-0.007807055
140	0xbaa2aed3	-0.0012411721
141	0x3c32ac1b	0.010905291
142	0x3c054968	0.008135177
143	0xbb35d703	-0.0027746565
144	0x3b09d17e	0.0021029408
145	0xba643655	-0.0008705606
146	0xbc049c4d	-0.008093906
147	0x3c5255e7	0.0128378635
148	0xbc414d17	-0.011798165
149	0xb9c02fd3	-0.00036656726
150	0xbc0b2965	-0.008493756
151	0xbb946307	-0.0045284065
152	0x3ad8dc6d	0.0016545184
153	0xbaa44084	-0.0012531434
154	0x3b0581e4	0.002037161
155	0x3c83e59b	0.016100695
156	0x3c3925c8	0.011300512
157	0x3ae9a883	0.001782671
158	0x3c6bb628	0.014386691
159	0xbb6a57cf	-0.0035757904
160	0x3c80fa82	0.015744451
161	0xbbe2c1f0	-0.006920092
162	0xbc6c77a3	-0.0144328205
163	0x3bd38193	0.0064546554
164	0xbad870e0	-0.0016513132
165	0x3b66dff3	0.00352287
166	0xbc822e69	-0.01589127
167	0xba8beaab	-0.0010674795
168	0xbabf1d73	-0.001458092
169	0xbb092cc1	-0.0020931216
170	0x3b640e77	0.003479866
171	0xbb8fbebc	-0.004386751
172	0xbb632b80	-0.003466338
173	0x3c5714ea	0.013127545
174	0xbbcb9e4e	-0.0062139397
175	0x3cb26640	0.021777272
176	0x3aae51d7	0.0013299537
177	0xbbe4b8bb	-0.0069800294
178	0x3caf73a3	0.021417445
179	0xbc8e4222	-0.017365519
180	0x3bfc3b9a	0.0076975347
181	0xbb2e2217	-0.0026570612
182	0xbbfe4f0a	-0.007760887
183	0x3bcd2ba7	0.0062613073
184	0xbc57e5aa	-0.013177315
185	0xbc38f596	-0.011289021
186	0xbc32754c	-0.010892224
187	0xbc21926f	-0.009861573
188	0x3c828937	0.01593457
189	0xbbd0a658	-0.006367486
190	0x3bb4bd8f	0.005515761
191	0x3a68317d	0.0008857472
192	0x3b15a00f	0.0022830998
193	0xbc10afbf	-0.008830964
194	0xbbafce6c	-0.0053651836
195	0xbac98990	-0.001537608
196	0x3b8c05d1	0.0042731543
197	0x3b0fb755	0.0021929343
198	0xbbac2ddd	-0.0052544908
199	0xb9c0de65	-0.0003678679
200	0x3b7a4458	0.0038187709
201	0xbc061ee1	-0.008186073
202	0x3b34e232	0.0027600643
203	0x3a02f24a	0.00049952103
204	0x3a8f73b5	0.0010944518
205	0x3bc681e7	0.006057966
206	0x3b2827b6	0.0025658435
207	0xba34304a	-0.0006873651
208	0xbbc9bee3	-0.0061567887
209	0xbbb097a3	-0.0053891703
210	0x3bbe2486	0.005802694
211	0xbbe3d715	-0.00695313
212	0x3bf5a822	0.0074968496
213	0xbb395055	-0.0028276641
214	0xb9171383	-0.00014407751
215	0xbbd19a6b	-0.006396582
216	0x3c355f2b	0.011070053
217	0xbb0d592a	-0.0021568039
218	0x3b591402	0.0033123498
219	0xbc838f81	-0.016059639
220	0x3aaf795e	0.0013387611
221	0xbca1ae47	-0.019736422
222	0x3b9a1df8	0.0047032796
223	0x3c1f197f	0.009710669
224	0x3bff458d	0.0077902735
225	0xbae45f1d	-0.0017423365
226	0xbbaac910	-0.005211957
227	0xbb83a2b2	-0.0040171975
228	0xbb7e52e0	-0.0038806722
229	0xbc2255c4	-0.009908143
230	0xbb872025	-0.004123705
231	0x3ad3c93f	0.0016157998
232	0x3c828962	0.01593465
233	0x3af45300	0.0018640459
234	0x3c04006e	0.008056743
235	0xbbce2ce8	-0.0062919743
236	0x3c06432f	0.008194729
237	0xbbb81fd3	-0.005619028
238	0x3c3e4b93	0.011614698
239	0xba1bfeef	-0.0005950769
240	0xbbfdda28	-0.0077469535
241	0xbb3c682b	-0.0028748612
242	0x3b847cb8	0.004043188
243	0xbc654a5d	-0.01399478
244	0xbbd098c8	-0.006365869
245	0xbc287a40	-0.010283053
246	0x3a112e2f	0.0005538193
247	0xbc803460	-0.015649974
248	0x3c54561f	0.012959986
249	0x3c30e543	0.010796848
250	0x3bd57ae7	0.0065148952
251	0x395172c5	0.00019974548
252	0xbb723722	-0.0036959131
253	0x38ba50f6	8.884251e-05
254	0x3c07daef	0.008291944
255	0xbc610f1f	-0.013736515

action_model._discrete_distribution.branches.0.bias f4 [4]
0	0x00000000	0.0
1	0x00000000	0.0
2	0x00000000	0.0
3	0x00000000	0.0

network_body._body_endoder.seq_layers.0.weight f4 [128, 1]
0	0xbfebcc41	-1.8421708
1	0xbfaa4210	-1.3301411
2	0x3f064d63	0.5246183
3	0xbe551618	-0.2080921
4	0x3ed698a4	0.4191333
5	0xbf41add1	-0.7565585
6	0x3ef81170	0.48450804
7	0xbfbfee40	-1.4994583
8	0x3f55b4cc	0.83479
9	0xbf742c9b	-0.9538056
10	0xbf88251d	-1.0636326
11	0xbfdb667d	-1.7140652
12	0xbd1e372a	-0.038626827
13	0x3f4723d0	0.7778902
14	0x404c633a	3.1935563
15	0x3f09359e	0.5359744
16	0x3edcf2a9	0.43153885
17	0xbea7abb2	-0.3274818
18	0x3f62d14a	0.886006
19	0x3f37c575	0.7178567
20	0x4043d652	3.059956
21	0xbdbd9039	-0.09256024
22	0xbed6629e	-0.41872114
23	0x3fb51e6a	1.4149907
24	0xbf0b500d	-0.5441902
25	0x3e99761c	0.29972923
26	0xbf7aaf84	-0.97924066
27	0x3dbc6efd	0.09200857
28	0xc01ee6af	-2.4828298
29	0xc00002cc	-2.0001707
30	0xbf16856c	-0.58797336
31	0xbfa99a85	-1.3250281
32	0x3e78cea6	0.2429758
33	0x3efa0723	0.4883357
34	0xbf491392	-0.78545487
35	0xbf1cdc71	-0.61273867
36	0x3dbbfea6	0.0917943
37	0x3fb2e6c8	1.3976679
38	0x3f834eca	1.025842
39	0x3f749623	0.9554159
40	0x3ef9e37d	0.48806372
41	0x3f183185	0.5945056
42	0xbfb7c1e0	-1.4356041
43	0xbf2b5d9c	-0.6693971
44	0x3f3c2f05	0.73509246
45	0xbec065d2	-0.37577683
46	0x3f347c98	0.70502615
47	0x3f6ecdb0	0.93282604
48	0xbf9c50e5	-1.2212187
49	0x3ff5d7bb	1.9206461
50	0xbe08600e	-0.13317892
51	0x3e836960	0.25666332
52	0xbeb5be16	-0.35496587
53	0x3faa8aec	1.3323646
54	0xbe19a896	-0.15005717
55	0x3e7650cc	0.24054259
56	0x3f5f8802	0.87316906
57	0x3fb12c9f	1.3841742
58	0x3f7c1b36	0.9847902
59	0x3f3f3401	0.74688727
60	0xbee47fc5	-0.4462873
61	0x3e07b1b5	0.13251384
62	0x3f05ddc7	0.5229153
63	0xbe4bad20	-0.1989026
64	0xbf78c5a7	-0.97176594
65	0xbf4c53bd	-0.79815274
66	0x3ec0a408	0.37625146
67	0x3eb38b96	0.35067433
68	0xbdf7f096	-0.12106435
69	0xbe9afc6c	-0.30270708
70	0xbfa4e84d	-1.2883393
71	0x3f864d96	1.0492427
72	0xbf326ff7	-0.69702095
73	0x3f244d12	0.641801
74	0xbfac0bb7	-1.3441075
75	0x3fe8ea9c	1.8196597
76	0x3f6befe8	0.9216294
77	0xbf9df617	-1.2340726
78	0xbeb85d41	-0.36008647
79	0xbf828993	-1.0198234
80	0x3f0835f8	0.5320735
81	0xbe7ba030	-0.24572825
82	0x3f13d75a	0.57750475
83	0xbeeb9f2f	-0.46019885
84	0x3f187d23	0.59565943
85	0xbe57bb87	-0.2106763
86	0xbeb94386	-0.3618433
87	0x3d6e80ee	0.058228426
88	0x3cc693df	0.024240432
89	0x3efa9bc5	0.48946968
90	0x4001565a	2.0208955
91	0xc011c555	-2.2776692
92	0x3e60f06c	0.21966714
93	0xbeb8f03a	-0.36120778
94	0xbfaeb989	-1.3650371
95	0x3efa3aea	0.48873073
96	0xbf253eb2	-0.6454879
97	0x3f3cd69a	0.73764956
98	0x3f502941	0.8131295
99	0xbf67a043	-0.90478915
100	0xbfcd8f4a	-1.6059353
101	0x3efa196e	0.48847526
102	0x4028dece	2.638599
103	0xbf3995f0	-0.7249441
104	0xbf7a0a91	-0.97672373
105	0xbf8958a1	-1.0730172
106	0x3fea74a6	1.8316848
107	0x3e3ab4b9	0.18233003
108	0xbd995fb4	-0.07488957
109	0xbd995e9d	-0.07488749
110	0x3ef59cac	0.47971094
111	0xbf19c57c	-0.6006696
112	0xbfdba7d2	-1.716059
113	0x3f41ae2a	0.7565638
114	0xbdbdce92	-0.09267916
115	0xbf265dc9	-0.64986855
116	0xbf155c00	-0.58343506
117	0xbefb57b6	-0.49090356
118	0xbd58280e	-0.052772574
119	0x3f2eb730	0.6824827
120	0xbfe99d77	-1.825118
121	0x3f7b49ac	0.9815929
122	0x3eae1201	0.3399811
123	0x3f651357	0.89482635
124	0x3f74ba28	0.9559655
125	0xc005a3f5	-2.0881321
126	0x3c100a5f	0.008791535
127	0x3f511d6f	0.8168554

network_body._body_endoder.seq_layers.0.bias f4 [128]
0	0x00000000	0.0
1	0x00000000	0.0
2	0x00000000	0.0
3	0x00000000	0.0
4	0x00000000	0.0
5	0x00000000	0.0
6	0x00000000	0.0
7	0x00000000	0.0
8	0x00000000	0.0
9	0x00000000	0.0
10	0x00000000	0.0
11	0x00000000	0.0
12	0x00000000	0.0
13	0x00000000	0.0
14	0x00000000	0.0
15	0x00000000	0.0
16	0x00000000	0.0
17	0x00000000	0.0
18	0x00000000	0.0
19	0x00000000	0.0
20	0x00000000	0.0
21	0x00000000	0.0
22	0x00000000	0.0
23	0x00000000	0.0
24	0x00000000	0.0
25	0x00000000	0.0
26	0x00000000	0.0
27	0x00000000	0.0
28	0x00000000	0.0
29	0x00000000	0.0
30	0x00000000	0.0
31	0x00000000	0.0
32	0x00000000	0.0
33	0x00000000	0.0
34	0x00000000	0.0
35	0x00000000	0.0
36	0x00000000	0.0
37	0x00000000	0.0
38	0x00000000	0.0
39	0x00000000	0.0
40	0x00000000	0.0
41	0x00000000	0.0
42	0x00000000	0.0
43	0x00000000	0.0
44	0x00000000	0.0
45	0x00000000	0.0
46	0x00000000	0.0
47	0x00000000	0.0
48	0x00000000	0.0
49	0x00000000	0.0
50	0x00000000	0.0
51	0x00000000	0.0
52	0x00000000	0.0
53	0x00000000	0.0
54	0x00000000	0.0
55	0x00000000	0.0
56	0x00000000	0.0
57	0x00000000	0.0
58	0x00000000	0.0
59	0x00000000	0.0
60	0x00000000	0.0
61	0x00000000	0.0
62	0x00000000	0.0
63	0x00000000	0.0
64	0x00000000	0.0
65	0x00000000	0.0
66	0x00000000	0.0
67	0x00000000	0.0
68	0x00000000	0.0
69	0x00000000	0.0
70	0x00000000	0.0
71	0x00000000	0.0
72	0x00000000	0.0
73	0x00000000	0.0
74	0x00000000	0.0
75	0x00000000	0.0
76	0x00000000	0.0
77	0x00000000	0.0
78	0x00000000	0.0
79	0x00000000	0.0
80	0x00000000	0.0
81	0x00000000	0.0
82	0x00000000	0.0
83	0x00000000	0.0
84	0x00000000	0.0
85	0x00000000	0.0
86	0x00000000	0.0
87	0x00000000	0.0
88	0x00000000	0.0
89	0x00000000	0.0
90	0x00000000	0.0
91	0x00000000	0.0
92	0x00000000	0.0
93	0x00000000	0.0
94	0x00000000	0.0
95	0x00000000	0.0
96	0x00000000	0.0
97	0x00000000	0.0
98	0x00000000	0.0
99	0x00000000	0.0
100	0x00000000	0.0
101	0x00000000	0.0
102	0x00000000	0.0
103	0x00000000	0.0
104	0x00000000	0.0
105	0x00000000	0.0
106	0x00000000	0.0
107	0x00000000	0.0
108	0x00000000	0.0
109	0x00000000	0.0
110	0x00000000	0.0
111	0x00000000	0.0
112	0x00000000	0.0
113	0x00000000	0.0
114	0x00000000	0.0
115	0x00000000	0.0
116	0x00000000	0.0
117	0x00000000	0.0
118	0x00000000	0.0
119	0x00000000	0.0
120	0x00000000	0.0
121	0x00000000	0.0
122	0x00000000	0.0
123	0x00000000	0.0
124	0x00000000	0.0
125	0x00000000	0.0
126	0x00000000	0.0
127	0x00000000	0.0

network_body._body_endoder.seq_layers.2.weight f4 [128, 128]
0	0xbd927c2f	-0.071525924
1	0xbda0962f	-0.07841145
2	0xbda33b36	-0.07970278
3	0xbce21919	-0.027599858
4	0x3dc8b6e1	0.098005064
5	0xbd42cfdf	-0.047561523
6	0x3dae2481	0.08503056
7	0xbda641b3	-0.08118
8	0xb8d03080	-9.927247e-05
9	0xbd313a4c	-0.043268487
10	0x3ced6c16	0.028982203
11	0x3c36e631	0.01116328
12	0x3d8b652c	0.068064064
13	0x3d7b1329	0.06129757
14	0xbd37342f	-0.0447275
15	0x3bc0b5d3	0.00588105
16	0xbe046a5a	-0.12931195
17	0x3c319d32	0.010840701
18	0x3c925ab8	0.017865524
19	0x3d9960d2	0.0748917
20	0x3c180017	0.009277365
21	0x3e000c71	0.12504746
22	0x3d1cd735	0.038291175
23	0x3d9faa95	0.07796208
24	0xbd5275c3	-0.051381838
25	0x39712391	0.000229968
26	0x3e3ed884	0.18637282
27	0xbb489d55	-0.0030611355
28	0x3b8d4990	0.004311748
29	0x3d52a721	0.051428918
30	0xbd5955f9	-0.053060506
31	0x3db2f128	0.08737403
32	0x3e399803	0.18124394
33	0xbd85a6a3	-0.06525924
34	0xbd8f97ab	-0.0701135
35	0x3e11c9ba	0.14237109
36	0xbe044ebd	-0.12920661
37	0x3d846e37	0.06466334
38	0x3d600f0a	0.054701842
39	0xbdf6f787	-0.12058931
40	0xbc81b4e6	-0.01583333
41	0x3e36e809	0.17861952
42	0x3d8ad40d	0.06778727
43	0x3d4ad0b6	0.04951545
44	0x3dcd3c31	0.10021246
45	0x3d080000	0.033203125
46	0x3e4196be	0.1890516
47	0xbe21985d	-0.15780778
48	0xbdb3eee4	-0.08785799
49	0xbd447181	-0.04795981
50	0x3e5ca3dc	0.21546882
51	0x3d84c4fc	0.06482884
52	0x3e5eeb1e	0.21769378
53	0xbe4e0b7a	-0.20121565
54	0x3dc149ff	0.09437942
55	0x3d98342c	0.07431826
56	0xbb367956	-0.0027843318
57	0xbe1b2747	-0.15151702
58	0x3db5f403	0.08884432
59	0x3db9a550	0.09064734
60	0xbe0533c9	-0.13008036
61	0xbdb9cd3a	-0.09072347
62	0xbc935029	-0.01798256
63	0xbc4f6965	-0.012659405
64	0x3d6ebb90	0.058284342
65	0x3c550f89	0.013004192
66	0xbd7c5d23	-0.06161226
67	0xbdcc1d69	-0.09966547
68	0xbdcdb7a8	-0.10044795
69	0xbdba46ba	-0.09095521
70	0x3d91e989	0.071246214
71	0xbd22c7ff	-0.039741512
72	0xbab26f93	-0.0013613574
73	0xbbf6747f	-0.0075212116
74	0xbe2ff8fa	-0.17184821
75	0xbd30f85c	-0.043205604
76	0x3c46b4de	0.012128083
77	0xbe0de1ec	-0.13855714
78	0x3d164bda	0.03669343
79	0x3cbecc28	0.023290709
80	0xbe0e1e07	-0.13878642
81	0xbd47284e	-0.048622422
82	0xbcf68780	-0.030093908
83	0xbde892f8	-0.11356157
84	0x3d03d635	0.032186706
85	0x3d0a88ca	0.03382186
86	0x3d1a87cf	0.037727173
87	0xbcdff26d	-0.027337277
88	0x3cd3d7b1	0.025859686
89	0x3d791915	0.060814936
90	0x3dc33c72	0.095330134
91	0x3ceab7e2	0.028652135
92	0xbddf70ef	-0.10910212
93	0xbb887ad7	-0.0041650343
94	0xbd375d17	-0.04476651
95	0x3dafe55b	0.08588668
96	0x3c9a534c	0.018838547
97	0x3dbfd5e3	0.093669675
98	0xbc84c5ad	-0.01620754
99	0xbe23c18f	-0.15991805
100	0xbdef2cf5	-0.11678497
101	0xbb5b443f	-0.0033457426
102	0xbe09ae61	-0.13445427
103	0xbdd94a58	-0.10609883
104	0xbd3bcab7	-0.04584762
105	0xbcb8d7af	-0.022563783
106	0xba3393cc	-0.00068503316
107	0x3d4c3762	0.049857505
108	0x3e12da74	0.14341146
109	0xbc1ab20a	-0.009441862
110	0x3dce0ee6	0.100614354
111	0xbcd4d714	-0.025981463
112	0xbdf0e6a5	-0.11762742
113	0xbdd16f73	-0.102263354
114	0xbcc7002a	-0.02429207
115	0xbd385900	-0.045006752
116	0x3dbca295	0.092106976
117	0x3be92045	0.0071144425
118	0x3d55702c	0.05210893
119	0xbd4d5192	-0.05012662
120	0xbda275ff	-0.07932662
121	0x3c1ee78a	0.009698758
122	0x3cfaaf3d	0.030601138
123	0xbc56642e	-0.013085408
124	0xbe096155	-0.13416035
125	0xbd8732ea	-0.06601508
126	0x3d59f48b	0.05321173
127	0xbc00a494	-0.0078517385
128	0xbb23d05b	-0.0024996016
129	0xbc52fd10	-0.012877718
130	0x3dfd7da0	0.12377477
131	0x3cf94575	0.030428628
132	0xbd5365ad	-0.051610637
133	0xbd7e845c	-0.062137946
134	0x3cb8e45b	0.022569826
135	0xbc7c02f9	-0.015381568
136	0xbd47ffbf	-0.048827883
137	0x3d809550	0.06278479
138	0xbd1f2e29	-0.03886238
139	0xbe182daf	-0.14861177
140	0x3db9ac15	0.09066025
141	0x3d685dc0	0.056730032
142	0xbb78ce76	-0.0037964857
143	0xbe18971e	-0.14901397
144	0xbcabe055	-0.020980993
145	0x3e2e0aa7	0.16996251
146	0xbe3545b6	-0.17702374
147	0xbd6a70f1	-0.057236616
148	0xbd4844e6	-0.04889383
149	0xbd2115eb	-0.039327543
150	0x3d8221d1	0.06354106
151	0xbde78568	-0.11304742
152	0x3ccab572	0.024744723
153	0x3d2314ee	0.039814882
154	0x3d25c124	0.040467396
155	0x3e2be99e	0.16788337
156	0x3c00f821	0.007871659
157	0x3d86d2c2	0.065831676
158	0xbd826db8	-0.063685834
159	0x3d046ae7	0.032328513
160	0x3cd49317	0.025949044
161	0x3cefa5c1	0.029253842
162	0x3d03bc4d	0.032162
163	0xbcfb90b0	-0.03070864
164	0x3dd7e535	0.10541765
165	0x3d6257b0	0.055259407
166	0x3dd07845	0.101791896
167	0x3d491d92	0.049100466
168	0xbd91ce32	-0.07119407
169	0x3d1975fd	0.037466038
170	0x3ded9780	0.11601162
171	0xbd303f4c	-0.043029115
172	0x3cfd8b4c	0.030950211
173	0xbd910cee	-0.07082544
174	0x3d2ea4f7	0.04263779
175	0x3e0516f4	0.12997037
176	0xbd941130	-0.07229841
177	0xbd36a7a2	-0.04459346
178	0xbb199baf	-0.0023438742
179	0x3c8da0b0	0.017288536
180	0x3db9f1cc	0.09079322
181	0x3ba20842	0.004944832
182	0x3dd5bfec	0.10436997
183	0x3b948507	0.0045324597
184	0xbd843204	-0.06454852
185	0xbd17956b	-0.03700773
186	0xbcec542d	-0.028848732
187	0xbca333fa	-0.019922245
188	0xbcfafefb	-0.030639162
189	0xbd1ffd59	-0.03905997
190	0xbe06aa18	-0.13150823
191	0x3df86461	0.12128521
192	0xbb4f6588	-0.003164621
193	0xbd82fbc3	-0.06395676
194	0x3b1c033e	0.0023805643
195	0xbdc72842	-0.097244754
196	0xbd24c767	-0.040229227
197	0x3920b988	0.00015327905
198	0xbdc3e277	-0.09564679
199	0xbd91e3fb	-0.07123562
200	0x3d48cc0a	0.04902271
201	0xbb759600	-0.003747344
202	0x3e869259	0.2628353
203	0x3b27aefc	0.0025586477
204	0x3d9473e3	0.07248666
205	0xbd1c4c08	-0.038158447
206	0x3db74d0d	0.08950243
207	0x3d0033c9	0.031299386
208	0xbd1e7f1c	-0.03869544
209	0xbdc6fbfa	-0.097160295
210	0x3e0813f6	0.13288864
211	0x3e42621a	0.18982735
212	0x3dc14ef5	0.09438888
213	0x3e056aa1	0.13028957
214	0xbbd1a862	-0.0063982466
215	0xbdda1338	-0.10648197
216	0xbd3df39f	-0.046374913
217	0xbdb13185	-0.08652023
218	0xb9e37e75	-0.00043391032
219	0xbe0297c0	-0.127532
220	0x3ddd527d	0.10806749
221	0xbded5977	-0.1158933
222	0xbdbb9888	-0.091599524
223	0x3e268648	0.16262162
224	0xbc2db709	-0.010602721
225	0x3d1c9a67	0.038233187
226	0x3dd18864	0.102310926
227	0xbd1ce63c	-0.038305506
228	0x3cf2de71	0.029647084
229	0x3cc3aa52	0.023884926
230	0xbdd7952e	-0.10526501
231	0x3c8fdf30	0.017562479
232	0xbd3d76fd	-0.046256054
233	0xbe6e342d	-0.23262091
234	0xbc5839f1	-0.013197408
235	0xbe51fe4b	-0.20507161
236	0x3e0f65b6	0.14003643
237	0xbd93c1d8	-0.07214707
238	0x3e2ef0c2	0.1708403
239	0x3d81870b	0.063245855
240	0xbcb79edb	-0.022414615
241	0xbd3251fc	-0.043535218
242	0x3d276fef	0.040878233
243	0x3c8a78af	0.01690325
244	0x3dd17d6a	0.10228999
245	0xbda4747a	-0.08030029
246	0xbc205d15	-0.0097878175
247	0x3d16154f	0.036641415
248	0x3cc04d17	0.02347426
249	0x3ca4bca6	0.020109486
250	0x3da4274e	0.08015309
251	0x3cfac9ce	0.030613806
252	0x3d9359f3	0.07194891
253	0xbdecaded	-0.11556611
254	0xbdc5fdd5	-0.09667555
255	0x3d339b64	0.043849364

network_body._body_endoder.seq_layers.2.bias f4 [128]
0	0x00000000	0.0
1	0x00000000	0.0
2	0x00000000	0.0
3	0x00000000	0.0
4	0x00000000	0.0
5	0x00000000	0.0
6	0x00000000	0.0
7	0x00000000	0.0
8	0x00000000	0.0
9	0x00000000	0.0
10	0x00000000	0.0
11	0x00000000	0.0
12	0x00000000	0.0
13	0x00000000	0.0
14	0x00000000	0.0
15	0x00000000	0.0
16	0x00000000	0.0
17	0x00000000	0.0
18	0x00000000	0.0
19	0x00000000	0.0
20	0x00000000	0.0
21	0x00000000	0.0
22	0x00000000	0.0
23	0x00000000	0.0
24	0x00000000	0.0
25	0x00000000	0.0
26	0x00000000	0.0
27	0x00000000	0.0
28	0x00000000	0.0
29	0x00000000	0.0
30	0x00000000	0.0
31	0x00000000	0.0
32	0x00000000	0.0
33	0x00000000	0.0
34	0x00000000	0.0
35	0x00000000	0.0
36	0x00000000	0.0
37	0x00000000	0.0
38	0x00000000	0.0
39	0x00000000	0.0
40	0x00000000	0.0
41	0x00000000	0.0
42	0x00000000	0.0
43	0x00000000	0.0
44	0x00000000	0.0
45	0x00000000	0.0
46	0x00000000	0.0
47	0x00000000	0.0
48	0x00000000	0.0
49	0x00000000	0.0
50	0x00000000	0.0
51	0x00000000	0.0
52	0x00000000	0.0
53	0x00000000	0.0
54	0x00000000	0.0
55	0x00000000	0.0
56	0x00000000	0.0
57	0x00000000	0.0
58	0x00000000	0.0
59	0x00000000	0.0
60	0x00000000	0.0
61	0x00000000	0.0
62	0x00000000	0.0
63	0x00000000	0.0
64	0x00000000	0.0
65	0x00000000	0.0
66	0x00000000	0.0
67	0x00000000	0.0
68	0x00000000	0.0
69	0x00000000	0.0
70	0x00000000	0.0
71	0x00000000	0.0
72	0x00000000	0.0
73	0x00000000	0.0
74	0x00000000	0.0
75	0x00000000	0.0
76	0x00000000	0.0
77	0x00000000	0.0
78	0x00000000	0.0
79	0x00000000	0.0
80	0x00000000	0.0
81	0x00000000	0.0
82	0x00000000	0.0
83	0x00000000	0.0
84	0x00000000	0.0
85	0x00000000	0.0
86	0x00000000	0.0
87	0x00000000	0.0
88	0x00000000	0.0
89	0x00000000	0.0
90	0x00000000	0.0
91	0x00000000	0.0
92	0x00000000	0.0
93	0x00000000	0.0
94	0x00000000	0.0
95	0x00000000	0.0
96	0x00000000	0.0
97	0x00000000	0.0
98	0x00000000	0.0
99	0x00000000	0.0
100	0x00000000	0.0
101	0x00000000	0.0
102	0x00000000	0.0
103	0x00000000	0.0
104	0x00000000	0.0
105	0x00000000	0.0
106	0x00000000	0.0
107	0x00000000	0.0
108	0x00000000	0.0
109	0x00000000	0.0
110	0x00000000	0.0
111	0x00000000	0.0
112	0x00000000	0.0
113	0x00000000	0.0
114	0x00000000	0.0
115	0x00000000	0.0
116	0x00000000	0.0
117	0x00000000	0.0
118	0x00000000	0.0
119	0x00000000	0.0
120	0x00000000	0.0
121	0x00000000	0.0
122	0x00000000	0.0
123	0x00000000	0.0
124	0x00000000	0.0
125	0x00000000	0.0
126	0x00000000	0.0
127	0x00000000	0.0

value_heads.value_heads.extrinsic.weight f4 [1, 128]
0	0xbbc662e0	-0.0060542673
1	0xbdf701ec	-0.120609134
2	0xbc946fc8	-0.018119708
3	0x3de07c60	0.10961223
4	0x3d16b310	0.03679186
5	0x3d523b70	0.051326215
6	0xbe59219d	-0.21204229
7	0xbe1cb4f4	-0.15303403
8	0x3ce9dd18	0.028547809
9	0xbe574ccf	-0.21025394
10	0xbd9a99e8	-0.075488865
11	0x3b77b200	0.0037795305
12	0xbdb37014	-0.087616116
13	0xbe4ec00e	-0.2019045
14	0x3d10c8f0	0.03534788
15	0xbe5a2365	-0.21302564
16	0x3d6e1718	0.058127493
17	0xbcd26b48	-0.025685921
18	0x3e57a218	0.21057928
19	0x3da80ea8	0.082059205
20	0x3d8871a8	0.06662303
21	0xbd0c72d8	-0.03428921
22	0x3ce3dac8	0.027814284
23	0x3bdc6820	0.00672628
24	0xbd86a63e	-0.06574677
25	0x3e06c498	0.13160932
26	0x3e474930	0.19461513
27	0x3c163a20	0.0091691315
28	0xbdfe6fcb	-0.124236666
29	0xbd1b5cc0	-0.03793025
30	0xbe4b564c	-0.19857138
31	0xbe30dc2c	-0.17271489
32	0x3e1a3804	0.15060431
33	0xbe58b359	-0.21162166
34	0xbc490bf0	-0.0122709125
35	0x3dac0ddc	0.08401081
36	0xbe0cd082	-0.13751414
37	0x3e47e570	0.19521117
38	0xbdfe550a	-0.12418564
39	0xbdf0c1e2	-0.1175573
40	0xbb5d7640	-0.0033792406
41	0xbdb67ddc	-0.089107245
42	0xbe0df591	-0.13863207
43	0xbd69c568	-0.057073027
44	0xbd4d2678	-0.050085515
45	0xbcb5a490	-0.022173196
46	0x3db2f0b8	0.0873732
47	0x3cd75958	0.02628772
48	0xbdb2a754	-0.087233216
49	0x3da65bdc	0.081229895
50	0x3e447722	0.1918607
51	0xbdd5ab36	-0.104330465
52	0xbe313c0e	-0.17308065
53	0x3c926c10	0.017873794
54	0x3d1fc6a8	0.039007813
55	0x3d9f1e98	0.07769507
56	0x3d9a0914	0.07521263
57	0xbdc4e598	-0.09614104
58	0xbe021b56	-0.1270574
59	0xbdeb8c74	-0.11501399
60	0xbc8ee080	-0.017441034
61	0xbd7b0574	-0.061284497
62	0x3df58ab4	0.11989346
63	0x3de60008	0.11230475
64	0x3d9b0b30	0.07570493
65	0x3e1da086	0.15393266
66	0x3db80000	0.08984375
67	0xbd760560	-0.06006372
68	0xbe2d7f0f	-0.16943
69	0xbd4a7978	-0.049432248
70	0x3dde3bd0	0.10851252
71	0x3e4152ec	0.18879288
72	0xbe2fe45e	-0.17176959
73	0xbe502eaa	-0.20330301
74	0xbe31d810	-0.17367578
75	0x3d16df18	0.036833853
76	0x3ce56df8	0.028006539
77	0xbcc90300	-0.024537563
78	0xbe2fa417	-0.17152439
79	0xbe22fb8c	-0.1591627
80	0xbd93d2cc	-0.07217941
81	0x3dc3033c	0.09522101
82	0xbe22cfac	-0.15899533
83	0xbe37773f	-0.17916583
84	0x3e50fdf6	0.20409378
85	0xbe1eafea	-0.15496793
86	0x3e18be4c	0.14916342
87	0x3cad9350	0.021188408
88	0xbe2072eb	-0.15668838
89	0xbcb7c5f8	-0.022433266
90	0x3e0d780c	0.13815325
91	0x3e0f8eae	0.14019272
92	0xbe35f2f6	-0.17768463
93	0x3d8eee60	0.0697906
94	0xbcf84fa0	-0.030311406
95	0x3d176110	0.0369578
96	0xbd54eaa4	-0.051981583
97	0x3e3972b8	0.18110168
98	0x3e11681a	0.14199868
99	0xbe3249fe	-0.17411038
100	0x3e528382	0.20557979
101	0x3d48e1d0	0.049043477
102	0xbba4d140	-0.0050298274
103	0xbd8df14a	-0.06930788
104	0x3e5813a6	0.21101245
105	0x3db862ac	0.09003195
106	0x3e2f01ee	0.1709058
107	0x3dc16c08	0.094444335
108	0xbe1b4845	-0.15164287
109	0xbe3180fe	-0.17334363
110	0x3de1c43c	0.11023757
111	0x3cb7a030	0.02241525
112	0xbe3b5bad	-0.1829669
113	0xbdb194a4	-0.08670929
114	0x3e485014	0.19561797
115	0xbdea7e69	-0.11449892
116	0xbdc791bd	-0.09744594
117	0x3e5a3308	0.2130853
118	0x3e454968	0.19266284
119	0xbda64e18	-0.08120364
120	0x3df07d90	0.11742699
121	0x3d35e288	0.04440549
122	0xbdb11dd6	-0.08648269
123	0x3ddcabf0	0.10774982
124	0x3d9d68ac	0.0768598
125	0xbd6b5294	-0.0574518
126	0x3e52a496	0.20570597
127	0x3adc8580	0.0016824454
