results/ppo/defender_1/defender_1-64.pt (torch, 145191 bytes, 11 tensors)

network_body._body_endoder.seq_layers.0.weight f4 [128, 1]
0	0xbdcf7390	-0.10129464
1	0xbe450999	-0.19241942
2	0xbe9602ab	-0.2929891
3	0xbf8efebc	-1.1171489
4	0x3eb80a57	0.3594539
5	0x3ffb4ff8	1.963378
6	0x3f00662a	0.5015589
7	0xbf8f619b	-1.1201662
8	0x3f95a1cc	1.1690001
9	0xbfa34da8	-1.2758074
10	0x3f73ea2f	0.9527921
11	0x3e9c0221	0.30470374
12	0x3ec29071	0.38000825
13	0x3cbc60ae	0.02299532
14	0xbf04c9f2	-0.51870644
15	0xbed3593f	-0.41279027
16	0x3f8a9114	1.0825524
17	0x3f31f3a6	0.69512403
18	0xbf80e509	-1.0069896
19	0xbf97f6f9	-1.1872245
20	0xbf21b2b9	-0.63163334
21	0x3ea3052b	0.3183988
22	0x3e3aa554	0.1822713
23	0x3eb0a455	0.34500375
24	0xbf7fddd5	-0.99947864
25	0x3e9aa1d6	0.30201596
26	0xbf192b08	-0.59831285
27	0x3f0cfcc1	0.5507317
28	0x3f41bd63	0.75679606
29	0xbeabda2d	-0.33564892
30	0xbea32895	-0.318669
31	0x3e2f914a	0.17145267
32	0x3fa74d90	1.3070545
33	0x3f649742	0.892933
34	0x3fa193d0	1.2623234
35	0x3f7173e4	0.9431746
36	0x3a84c5db	0.0010129766
37	0xbda1e8ac	-0.07905707
38	0xbfba7316	-1.4566371
39	0x404e1202	3.219849
40	0x3fce9e3b	1.6142038
41	0x3f80dc03	1.0067142
42	0x3e12ddee	0.14342472
43	0xbf91115d	-1.1333424
44	0xbfd03411	-1.626589
45	0xbeca9e33	-0.3957382
46	0x3fa6dda3	1.3036388
47	0xbee5299e	-0.44758314
48	0xbf2131bc	-0.62966514
49	0x3ec2684c	0.37970197
50	0xbffe6251	-1.9873754
51	0x3fe3237b	1.7745203
52	0x3e77df05	0.24206169
53	0x3fea7b1d	1.8318821
54	0x3f4a0bea	0.7892443
55	0x3f3e8f14	0.7443707
56	0x400146b8	2.0199413
57	0xbf1780f9	-0.5918117
58	0xbc2f71dc	-0.0107082985
59	0x3e9fb52f	0.3119292
60	0x3f253954	0.645406
61	0x3fdbd349	1.7173854
62	0x3f67457a	0.9034039
63	0x3f6bdb3a	0.9213139
64	0x3e1776ab	0.14791362
65	0x3f0a4d9a	0.5402466
66	0x3ed1702c	0.40905893
67	0xbf85635d	-1.0420948
68	0x3f3f3874	0.74695516
69	0xbd851557	-0.06498211
70	0x3e7e6b37	0.24845587
71	0xbfa6bdf4	-1.3026719
72	0xbe83ef3f	-0.25768468
73	0xbe694dca	-0.2278358
74	0x3e7ce436	0.2469643
75	0x3eb66a34	0.35627902
76	0x3f1577e1	0.58386046
77	0x3e94077c	0.2891196
78	0x402d7db7	2.710798
79	0xbfa288e3	-1.2698025
80	0xbf4fb7ae	-0.8113965
81	0xbdf36613	-0.118847035
82	0xbf331248	-0.6994977
83	0x3e829115	0.25501314
84	0x3ff6a850	1.9270115
85	0xbefdddf9	-0.49583414
86	0x3fcfa0f4	1.6220994
87	0x3f151d41	0.5824776
88	0x3fd9c9af	1.7014674
89	0x3e19d20b	0.15021531
90	0xc0213827	-2.5190523
91	0x3f78bf36	0.97166765
92	0x3f42a270	0.7602911
93	0x3f87fafa	1.0623467
94	0x3f64803c	0.8925817
95	0xbfa04fba	-1.2524331
96	0xbf8f0c4d	-1.1175629
97	0xbe18bb6c	-0.14915246
98	0x3e057899	0.13034286
99	0xbf0e66de	-0.5562571
100	0x3e8c47d1	0.27398542
101	0xbe1f3124	-0.1554609
102	0xbe6da444	-0.23207194
103	0xbf07e62e	-0.530856
104	0x3f416098	0.75538015
105	0xbe3442e7	-0.17603646
106	0x3fb7741a	1.4332306
107	0x3f92f5e3	1.1481289
108	0xbf931b6c	-1.1492743
109	0x3fa311f6	1.2739856
110	0x3f807a38	1.0037298
111	0x3e2cf9b9	0.16892137
112	0xbf708552	-0.9395343
113	0x3f79869e	0.97471035
114	0x3db9c8a3	0.090714715
115	0xbedc2fc3	-0.4300519
116	0xbf866981	-1.0500947
117	0x3e0bdc59	0.13658275
118	0x3f7619c5	0.9613307
119	0xbfb2f306	-1.3980415
120	0x3f9f7daa	1.2460225
121	0xbf5105ed	-0.8164967
122	0xbf7a9218	-0.9787917
123	0x3fcf330b	1.6187452
124	0x3f4fc357	0.8115744
125	0x3fcffb61	1.624859
126	0xbf2fedab	-0.6872203
127	0x3e1891eb	0.14899413

network_body._body_endoder.seq_layers.0.bias f4 [128]
0	0x00000000	0.0
1	0x00000000	0.0
2	0x00000000	0.0
3	0x00000000	0.0
4	0x00000000	0.0
5	0x00000000	0.0
6	0x00000000	0.0
7	0x00000000	0.0
8	0x00000000	0.0
9	0x00000000	0.0
10	0x00000000	0.0
11	0x00000000	0.0
12	0x00000000	0.0
13	0x00000000	0.0
14	0x00000000	0.0
15	0x00000000	0.0
16	0x00000000	0.0
17	0x00000000	0.0
18	0x00000000	0.0
19	0x00000000	0.0
20	0x00000000	0.0
21	0x00000000	0.0
22	0x00000000	0.0
23	0x00000000	0.0
24	0x00000000	0.0
25	0x00000000	0.0
26	0x00000000	0.0
27	0x00000000	0.0
28	0x00000000	0.0
29	0x00000000	0.0
30	0x00000000	0.0
31	0x00000000	0.0
32	0x00000000	0.0
33	0x00000000	0.0
34	0x00000000	0.0
35	0x00000000	0.0
36	0x00000000	0.0
37	0x00000000	0.0
38	0x00000000	0.0
39	0x00000000	0.0
40	0x00000000	0.0
41	0x00000000	0.0
42	0x00000000	0.0
43	0x00000000	0.0
44	0x00000000	0.0
45	0x00000000	0.0
46	0x00000000	0.0
47	0x00000000	0.0
48	0x00000000	0.0
49	0x00000000	0.0
50	0x00000000	0.0
51	0x00000000	0.0
52	0x00000000	0.0
53	0x00000000	0.0
54	0x00000000	0.0
55	0x00000000	0.0
56	0x00000000	0.0
57	0x00000000	0.0
58	0x00000000	0.0
59	0x00000000	0.0
60	0x00000000	0.0
61	0x00000000	0.0
62	0x00000000	0.0
63	0x00000000	0.0
64	0x00000000	0.0
65	0x00000000	0.0
66	0x00000000	0.0
67	0x00000000	0.0
68	0x00000000	0.0
69	0x00000000	0.0
70	0x00000000	0.0
71	0x00000000	0.0
72	0x00000000	0.0
73	0x00000000	0.0
74	0x00000000	0.0
75	0x00000000	0.0
76	0x00000000	0.0
77	0x00000000	0.0
78	0x00000000	0.0
79	0x00000000	0.0
80	0x00000000	0.0
81	0x00000000	0.0
82	0x00000000	0.0
83	0x00000000	0.0
84	0x00000000	0.0
85	0x00000000	0.0
86	0x00000000	0.0
87	0x00000000	0.0
88	0x00000000	0.0
89	0x00000000	0.0
90	0x00000000	0.0
91	0x00000000	0.0
92	0x00000000	0.0
93	0x00000000	0.0
94	0x00000000	0.0
95	0x00000000	0.0
96	0x00000000	0.0
97	0x00000000	0.0
98	0x00000000	0.0
99	0x00000000	0.0
100	0x00000000	0.0
101	0x00000000	0.0
102	0x00000000	0.0
103	0x00000000	0.0
104	0x00000000	0.0
105	0x00000000	0.0
106	0x00000000	0.0
107	0x00000000	0.0
108	0x00000000	0.0
109	0x00000000	0.0
110	0x00000000	0.0
111	0x00000000	0.0
112	0x00000000	0.0
113	0x00000000	0.0
114	0x00000000	0.0
115	0x00000000	0.0
116	0x00000000	0.0
117	0x00000000	0.0
118	0x00000000	0.0
119	0x00000000	0.0
120	0x00000000	0.0
121	0x00000000	0.0
122	0x00000000	0.0
123	0x00000000	0.0
124	0x00000000	0.0
125	0x00000000	0.0
126	0x00000000	0.0
127	0x00000000	0.0

network_body._body_endoder.seq_layers.2.weight f4 [128, 128]
0	0x3dfc591d	0.123216845
1	0xbc2c4067	-0.010513402
2	0xbcb0c7a9	-0.02157958
3	0xbe0531fe	-0.13007352
4	0xbda79bdc	-0.08184025
5	0xbcc0686e	-0.023487296
6	0xbd954510	-0.07288563
7	0x3e1b8ea5	0.15191133
8	0x3d580a43	0.05274416
9	0xbd5dea02	-0.054178245
10	0x3d52aad4	0.051432446
11	0x3e32039c	0.1738419
12	0xbc4e1ba8	-0.012579836
13	0xbd867dc0	-0.06566954
14	0x3dcdb1f8	0.100437105
15	0x3e009632	0.12557295
16	0x3e0e6284	0.13904768
17	0x3cd54d58	0.026037857
18	0xbccfcaf9	-0.02536534
19	0xbd418184	-0.047242656
20	0xbbb67948	-0.005568657
21	0xbcd0e45f	-0.02549952
22	0x3d80be7f	0.06286334
23	0xbc1ab926	-0.009443557
24	0xbe93c62b	-0.28862128
25	0x3d2a3033	0.041549873
26	0x3cfeff9f	0.031127749
27	0x3dc1232e	0.09430538
28	0x3d010be7	0.03150549
29	0xbd2172f8	-0.039416283
30	0x3ddbf093	0.10739245
31	0xbc0f45d5	-0.008744677
32	0x3d9e45fd	0.07728193
33	0x3e24f88b	0.16110437
34	0xbd94d6a4	-0.07267502
35	0xbd41014e	-0.047120385
36	0x3deca56b	0.115549885
37	0xbc9db826	-0.019252848
38	0x3ca59bc0	0.020215869
39	0xbd9ff087	-0.07809549
40	0xbd8ab9ef	-0.06773745
41	0x3d0e1932	0.034691997
42	0x3ce43930	0.0278593
43	0xbd09551b	-0.03352843
44	0xbdd8b10d	-0.10580645
45	0xbe1a5107	-0.15069972
46	0xbe8398ca	-0.25702506
47	0xba5f2ee2	-0.0008513761
48	0x3d9d25a7	0.07673197
49	0xbd1f9d5e	-0.038968436
50	0xbd3a4038	-0.0454714
51	0x3d5a3e99	0.053282354
52	0x3ce67d79	0.028136002
53	0xbbe6c21d	-0.007042183
54	0xbca24aa6	-0.019810986
55	0x3dfcaa2b	0.123371445
56	0x3e066539	0.13124551
57	0x3c990127	0.018677307
58	0x3dc2d4ac	0.0951322
59	0xbdb74e49	-0.089504786
60	0x3d37c866	0.04486885
61	0x3e1d120f	0.1533892
62	0xbd857bc8	-0.0651775
63	0xbe26b9c3	-0.162818
64	0xbd617e28	-0.055051953
65	0xbb09d5da	-0.0021032006
66	0xbddfe3b3	-0.10932102
67	0x3dce9d4a	0.10088594
68	0x3cf8b742	0.030360822
69	0xbdf74db2	-0.12075366
70	0xbd7f5453	-0.062336277
71	0xbdefd542	-0.117105976
72	0xbda6b5b6	-0.08140127
73	0x3cb247f1	0.02176282
74	0x3e0678cd	0.1313202
75	0x3d25a3cc	0.040439412
76	0x3dc0c94f	0.094133966
77	0x3e436b57	0.19083916
78	0xbd1b7e3e	-0.03796219
79	0xbc264066	-0.01014719
80	0x3d64bddd	0.05584513
81	0xbcc82841	-0.024433257
82	0xbc8a04a9	-0.016847925
83	0xbaed108e	-0.0018086599
84	0xbe0a6820	-0.13516283
85	0xbd4dcd6c	-0.050244734
86	0x3d1811a0	0.037126184
87	0xbe0e09f9	-0.13870992
88	0x3e1942f9	0.14966954
89	0x3d7d6676	0.061865292
90	0xbe8108e7	-0.25202104
91	0x3d74bf29	0.059752617
92	0xbdf38df1	-0.118923075
93	0xbc73485b	-0.014848794
94	0x3d28c5c8	0.041204244
95	0x3c162317	0.0091636395
96	0x3d38ed70	0.045148313
97	0x3e3961f4	0.18103772
98	0xbe0c0cb2	-0.13676718
99	0xbd9b371e	-0.07578872
100	0xbcae7c2a	-0.02129944
101	0xbd9a74ff	-0.075418465
102	0xbdb5a016	-0.088684246
103	0xbd518df8	-0.051160783
104	0x3d432783	0.047645103
105	0xbcece9b7	-0.028920038
106	0xbc854825	-0.016269753
107	0xbd59793f	-0.053094145
108	0xbd2c57c9	-0.042075906
109	0xbcec20fd	-0.028824324
110	0xbe0a8b70	-0.13529754
111	0xbcc9b5d2	-0.024622831
112	0xbe365076	-0.17804131
113	0x3c797273	0.015225041
114	0x3d382713	0.04495914
115	0xbce4b69f	-0.027919112
116	0x3d1e48a7	0.038643505
117	0x3d2a2884	0.041542545
118	0xbdc69a71	-0.09697426
119	0x3d89aa40	0.06721926
120	0x3d33ed6d	0.0439276
121	0xbdd86c0c	-0.10567483
122	0x3e1c16ed	0.1524312
123	0x3d58486f	0.052803453
124	0x3ccf0e11	0.025275262
125	0xbe298aba	-0.16556826
126	0xbdb30ef5	-0.08743087
127	0xbde9f816	-0.11424272
128	0xbdd4af28	-0.10384971
129	0x3d740e68	0.05958405
130	0x3cec9150	0.028877884
131	0x3e44b406	0.19209298
132	0x3de9f8dc	0.11424419
133	0xbdda4c99	-0.10659141
134	0x3c943afe	0.018094536
135	0x3d956ee9	0.07296545
136	0xbe0faf4f	-0.14031719
137	0xbe079260	-0.13239431
138	0xbd9ac7b7	-0.07557624
139	0xbbdc647e	-0.006725847
140	0xbe64ad7e	-0.22331807
141	0x3b065f00	0.0020503402
142	0xbceaafff	-0.028648375
143	0x3d1e18ec	0.038597986
144	0x3ccbb6c7	0.024867428
145	0xbdd681e4	-0.104739934
146	0xbdde58f8	-0.10856813
147	0xbce926d7	-0.028460903
148	0x3d26c417	0.04071435
149	0x3df47fa8	0.11938411
150	0x3a919c9d	0.0011109296
151	0x3c5a5489	0.013325819
152	0x3d3731f3	0.04472537
153	0xbc05322b	-0.008129637
154	0xbcfe5b12	-0.031049285
155	0xbdbefe4d	-0.09325848
156	0x3c89e990	0.016835004
157	0xbd413935	-0.047173698
158	0x3d2bff4e	0.041991524
159	0x3e05eb28	0.13077986
160	0x3d1a7ea4	0.03771843
161	0x3dc215fc	0.094768494
162	0x3c43eb7b	0.011957998
163	0xbc908495	-0.017641345
164	0x3d2e4f01	0.042555813
165	0xbde38f5f	-0.1111133
166	0x3e507430	0.20356822
167	0xbd4a5f8e	-0.049407534
168	0xbdf4dac9	-0.119557925
169	0xbe0bbcb8	-0.13646209
170	0x3d110143	0.035401594
171	0x3d7da5a6	0.061925553
172	0x3d39343d	0.045215834
173	0xbd2e9a9e	-0.042627923
174	0x3d07a577	0.033116784
175	0xbcc85c6e	-0.024458136
176	0xbd8a5ecb	-0.067563616
177	0xbdcb763c	-0.09934661
178	0x3c98355e	0.018580135
179	0xbd3a91bb	-0.045549136
180	0xbdfc5868	-0.1232155
181	0xbe0c4306	-0.13697442
182	0x3d582800	0.052772522
183	0x3c0a6b50	0.008448437
184	0x3d894e9d	0.067044474
185	0x3d2c49d8	0.04206261
186	0x3d7ac220	0.06122029
187	0xbd8cee84	-0.06881431
188	0x3dac44c9	0.08411557
189	0x3d3f2fd2	0.046676464
190	0xbdaf8ab8	-0.085713804
191	0xbcf236d7	-0.029567165
192	0xbcc78314	-0.024354495
193	0xbdc033fc	-0.09384915
194	0xbe35f928	-0.17770827
195	0x3e0a8eaf	0.13530992
196	0x3ddf2f78	0.10897726
197	0xbd9770a7	-0.073945336
198	0xbd418b61	-0.047252063
199	0x3da19027	0.07888823
200	0xbcf338e1	-0.029690208
201	0xbde0e582	-0.10981275
202	0x3de2196f	0.11040007
203	0xbd794136	-0.060853206
204	0x3d9d882b	0.076919876
205	0x3de0a307	0.10968595
206	0xbd3edbb5	-0.046596248
207	0x3e1d840e	0.15382406
208	0x3cc6d872	0.024273131
209	0xbd519d43	-0.051175367
210	0xbb41fa89	-0.0029598793
211	0xbe11a430	-0.14222789
212	0x3da74bd2	0.081687585
213	0xbc386266	-0.011253929
214	0x3d1b4487	0.03790715
215	0xbd641f3c	-0.05569385
216	0xbe22463c	-0.15847105
217	0xbe358ee8	-0.17730296
218	0xbbedbc6e	-0.0072551286
219	0xbd3efb46	-0.04662635
220	0xbc29403c	-0.010330256
221	0xbd8283de	-0.06372808
222	0x3bf6daf9	0.007533428
223	0x3db9b6f5	0.090680994
224	0xbd387229	-0.045030747
225	0x3d85f683	0.06541159
226	0x3ca20253	0.019776499
227	0x3be53566	0.006994891
228	0x3b291fcf	0.0025806313
229	0x3c4f7dd1	0.012664274
230	0x3d4a40dc	0.04937826
231	0x3e20f8f2	0.15719965
232	0x3cbfeb44	0.023427613
233	0xbd4fc746	-0.05072715
234	0xbe417777	-0.18893228
235	0xbdbb12c7	-0.09134441
236	0xbcc5f4af	-0.024164526
237	0xbc021433	-0.007939386
238	0xbe366a70	-0.1781404
239	0x3df569b8	0.11983055
240	0xbd9afe89	-0.0756808
241	0x3d8e980d	0.06962595
242	0x3d870b3c	0.0659394
243	0xbe0d8e6a	-0.13823858
244	0x3d1c8baa	0.03821913
245	0x3d475903	0.048668873
246	0xbd00736c	-0.031360075
247	0xbd5d87f2	-0.054084726
248	0xbd28c7b2	-0.04120607
249	0x3dd0fffc	0.10205075
250	0x3c797d18	0.015227579
251	0x3bbb09f8	0.0057079755
252	0x3d3aa63b	0.045568686
253	0xbe1d36cc	-0.15352935
254	0xbdb25da0	-0.08709264
255	0xbd91a06a	-0.07110675

network_body._body_endoder.seq_layers.2.bias f4 [128]
0	0x00000000	0.0
1	0x00000000	0.0
2	0x00000000	0.0
3	0x00000000	0.0
4	0x00000000	0.0
5	0x00000000	0.0
6	0x00000000	0.0
7	0x00000000	0.0
8	0x00000000	0.0
9	0x00000000	0.0
10	0x00000000	0.0
11	0x00000000	0.0
12	0x00000000	0.0
13	0x00000000	0.0
14	0x00000000	0.0
15	0x00000000	0.0
16	0x00000000	0.0
17	0x00000000	0.0
18	0x00000000	0.0
19	0x00000000	0.0
20	0x00000000	0.0
21	0x00000000	0.0
22	0x00000000	0.0
23	0x00000000	0.0
24	0x00000000	0.0
25	0x00000000	0.0
26	0x00000000	0.0
27	0x00000000	0.0
28	0x00000000	0.0
29	0x00000000	0.0
30	0x00000000	0.0
31	0x00000000	0.0
32	0x00000000	0.0
33	0x00000000	0.0
34	0x00000000	0.0
35	0x00000000	0.0
36	0x00000000	0.0
37	0x00000000	0.0
38	0x00000000	0.0
39	0x00000000	0.0
40	0x00000000	0.0
41	0x00000000	0.0
42	0x00000000	0.0
43	0x00000000	0.0
44	0x00000000	0.0
45	0x00000000	0.0
46	0x00000000	0.0
47	0x00000000	0.0
48	0x00000000	0.0
49	0x00000000	0.0
50	0x00000000	0.0
51	0x00000000	0.0
52	0x00000000	0.0
53	0x00000000	0.0
54	0x00000000	0.0
55	0x00000000	0.0
56	0x00000000	0.0
57	0x00000000	0.0
58	0x00000000	0.0
59	0x00000000	0.0
60	0x00000000	0.0
61	0x00000000	0.0
62	0x00000000	0.0
63	0x00000000	0.0
64	0x00000000	0.0
65	0x00000000	0.0
66	0x00000000	0.0
67	0x00000000	0.0
68	0x00000000	0.0
69	0x00000000	0.0
70	0x00000000	0.0
71	0x00000000	0.0
72	0x00000000	0.0
73	0x00000000	0.0
74	0x00000000	0.0
75	0x00000000	0.0
76	0x00000000	0.0
77	0x00000000	0.0
78	0x00000000	0.0
79	0x00000000	0.0
80	0x00000000	0.0
81	0x00000000	0.0
82	0x00000000	0.0
83	0x00000000	0.0
84	0x00000000	0.0
85	0x00000000	0.0
86	0x00000000	0.0
87	0x00000000	0.0
88	0x00000000	0.0
89	0x00000000	0.0
90	0x00000000	0.0
91	0x00000000	0.0
92	0x00000000	0.0
93	0x00000000	0.0
94	0x00000000	0.0
95	0x00000000	0.0
96	0x00000000	0.0
97	0x00000000	0.0
98	0x00000000	0.0
99	0x00000000	0.0
100	0x00000000	0.0
101	0x00000000	0.0
102	0x00000000	0.0
103	0x00000000	0.0
104	0x00000000	0.0
105	0x00000000	0.0
106	0x00000000	0.0
107	0x00000000	0.0
108	0x00000000	0.0
109	0x00000000	0.0
110	0x00000000	0.0
111	0x00000000	0.0
112	0x00000000	0.0
113	0x00000000	0.0
114	0x00000000	0.0
115	0x00000000	0.0
116	0x00000000	0.0
117	0x00000000	0.0
118	0x00000000	0.0
119	0x00000000	0.0
120	0x00000000	0.0
121	0x00000000	0.0
122	0x00000000	0.0
123	0x00000000	0.0
124	0x00000000	0.0
125	0x00000000	0.0
126	0x00000000	0.0
127	0x00000000	0.0

action_model._discrete_distribution.branches.0.weight f4 [4, 128]
0	0x3aa847e6	0.001283881
1	0x3bb81edf	0.0056189145
2	0x3b0d7772	0.0021586088
3	0xbc4660f3	-0.012108075
4	0x3c4811fd	0.01221132
5	0xbb5f2cd8	-0.0034053829
6	0xbc91ad47	-0.01778282
7	0x3c289460	0.010289282
8	0xba75161f	-0.00093493046
9	0xbc12d555	-0.008961995
10	0xbc69e28b	-0.014275203
11	0xb82b3fe5	-4.0829083e-05
12	0x3b8b3f9a	0.0042495253
13	0x3a0cb9c2	0.0005368256
14	0xbc089d06	-0.008338219
15	0xbc2f8dbf	-0.010714947
16	0x3a484417	0.00076395407
17	0x3be453b7	0.0069679874
18	0x3b29c217	0.002590304
19	0x3c0addd7	0.008475742
20	0x3bff7923	0.007796423
21	0x3bf42753	0.007450977
22	0xbba4aa0c	-0.005025154
23	0xbc850027	-0.016235424
24	0x3b9a632d	0.0047115297
25	0x3b94d03f	0.0045414264
26	0xbc172508	-0.0092251375
27	0x3c575347	0.013142413
28	0x3927ce11	0.00016003127
29	0xbb553b45	-0.0032536548
30	0x3c2ce953	0.010553676
31	0xbc327412	-0.010891931
32	0xbba9100c	-0.0051593836
33	0xba960757	-0.0011446279
34	0xbc565eff	-0.013084172
35	0xbc41bab1	-0.011824296
36	0xbb8c723b	-0.0042860783
37	0x3c16fbbf	0.009215294
38	0xbb3773d7	-0.002799263
39	0xb929a3f4	-0.00016178173
40	0x3b48e4a8	0.0030653868
41	0x3c2f0f3d	0.010684785
42	0xbab1311b	-0.0013518663
43	0xbb9e1e73	-0.004825407
44	0x3bbd2beb	0.0057730577
45	0x3a2f3d03	0.00066848117
46	0xbb05d8a2	-0.0020423313
47	0x3c3e569a	0.011617327
48	0x38db7c6f	0.00010465911
49	0x3c603973	0.013685572
50	0x3bbd6143	0.0057794168
51	0xbb85f38f	-0.0040878723
52	0x39f99235	0.00047601914
53	0x3b8255df	0.003977522
54	0x3c239d0a	0.0099861715
55	0xbb7bb760	-0.003840886
56	0x38fcde5b	0.00012057713
57	0x3a50917f	0.0007956251
58	0x3be894e2	0.0070978263
59	0x3c0e351f	0.008679657
60	0x3c4cf670	0.012509927
61	0x39f04503	0.00045827785
62	0xbc237fb3	-0.009979176
63	0xbb9fa0af	-0.00487145
64	0xb9c58f48	-0.0003768152
65	0xbb250975	-0.0025182639
66	0xbba9c278	-0.005180653
67	0x3b7649e5	0.0037580666
68	0x3b5921b8	0.003313167
69	0xbc6213af	-0.013798638
70	0xbc6b3d7f	-0.0143579235
71	0xbbb0c036	-0.005394007
72	0xbbc2983e	-0.005938559
73	0xba3d2e57	-0.0007216683
74	0xbba949db	-0.005166275
75	0xbc299e55	-0.010352691
76	0x3c5f755a	0.013638819
77	0xbc10f310	-0.008847013
78	0xbbcf479a	-0.0063256742
79	0x3cae36a7	0.021266295
80	0x3c5be6da	0.0134217385
81	0x3b1b7454	0.002372046
82	0x3b238d1f	0.002495594
83	0xbc0d780a	-0.008634577
84	0xbabe1f32	-0.0014505147
85	0x3c4f561d	0.012654808
86	0x3a195408	0.00058490084
87	0xbb69bc28	-0.0035665128
88	0x3ba4cd1a	0.005029333
89	0xbc0886f1	-0.008332954
90	0xbbe98ba2	-0.007127241
91	0xbbb21109	-0.0054341597
92	0x3ba95780	0.0051679015
93	0xbc0bc82c	-0.008531611
94	0x3b9d37f0	0.004797928
95	0xbb6ca653	-0.003610988
96	0xbbeea71f	-0.007283106
97	0x3c0ecbc7	0.0087155765
98	0xba83cc97	-0.0010055479
99	0x3c8d8016	0.01727299
100	0xbc523440	-0.01282984
101	0xbb39e230	-0.0028363578
102	0x3c091ee1	0.0083691785
103	0x3ba85ef5	0.005138273
104	0xbc369d3a	-0.011145884
105	0x3bba0604	0.0056769866
106	0x3bbc1b53	0.005740562
107	0xbc7d97f5	-0.015478124
108	0xbac8de9e	-0.0015325134
109	0xbac4caa2	-0.0015014003
110	0xbb39a54a	-0.002832728
111	0x3be8fb37	0.0071100253
112	0xbc46666b	-0.012109379
113	0x3b34c1f6	0.002758143
114	0xbb93ebbc	-0.0045141857
115	0xb9c1cf46	-0.0003696626
116	0x3cb619db	0.022229126
117	0xbbdda6b3	-0.006764257
118	0x3c085b89	0.008322605
119	0x3b919452	0.00444273
120	0xb9534fa7	-0.00020152201
121	0x3cade03c	0.021225087
122	0x3b1395d1	0.0022519717
123	0xbc531312	-0.012882965
124	0xbb2407b4	-0.0025029005
125	0xbbfc154d	-0.007692969
126	0x3b4f19f2	0.0031601158
127	0xbc371504	-0.011174444
128	0xbbc4e37b	-0.006008563
129	0xbc2b4c8e	-0.010455264
130	0x3c9302c1	0.01794565
131	0x3bb45357	0.005503099
132	0xbc1868ee	-0.009302361
133	0xbbc7790f	-0.0060874294
134	0x3c288005	0.0102844285
135	0x3bb0d38f	0.0053963135
136	0x3b9508e2	0.004548178
137	0xbc0ee12e	-0.008720679
138	0xbb734a6a	-0.0037123212
139	0x3c380176	0.011230817
140	0x3c1610f7	0.009159318
141	0x38f2bfca	0.00011575183
142	0x3c1781c7	0.00924725
143	0xbc3ff98f	-0.011717214
144	0x3bd23865	0.006415414
145	0xbc007387	-0.007840044
146	0xbc41476c	-0.011796813
147	0x3ba38c21	0.00499107
148	0x3b0af9ec	0.0021206094
149	0x3b177c9b	0.0023115042
150	0x3b9845b0	0.0046469793
151	0xbbc1b09f	-0.0059109475
152	0xbbae4123	-0.0053178235
153	0x3bdf3757	0.006812017
154	0x3c08509a	0.008319998
155	0xbb84c33e	-0.004051595
156	0xbac143a0	-0.0014744885
157	0xbc383afd	-0.011244533
158	0x3c08e9b7	0.008356503
159	0x3ac4fc7b	0.0015028858
160	0xbc233b06	-0.009962803
161	0x3af6243f	0.0018779113
162	0xbbed9798	-0.0072507374
163	0xbaa3499f	-0.0012457854
164	0xba4740a4	-0.000760088
165	0xb9b050cb	-0.0003362953
166	0x3b80910f	0.0039235423
167	0x3bac74f1	0.005262964
168	0x3bda5b43	0.0066637113
169	0x3cb191a5	0.021675894
170	0x3c7ee135	0.015556623
171	0xbb51d852	-0.0032019806
172	0xbc1b634f	-0.009484126
173	0x3c6f6568	0.0146115795
174	0xbbfc1ae0	-0.0076936334
175	0xb7557e2d	-1.2725167e-05
176	0xbc220250	-0.009888247
177	0xb9e7ee6f	-0.000442374
178	0xb9e9131d	-0.00044455464
179	0x3b1d4a86	0.0024000718
180	0xbbe70f68	-0.007051397
181	0xbc011f5f	-0.007881015
182	0x3b62fbfd	0.003463506
183	0xbbd33f6b	-0.006446769
184	0xbcaf3f02	-0.02139235
185	0x3b99232f	0.0046733837
186	0x3c966d9f	0.018362818
187	0x3c5b1720	0.013372213
188	0xbc42a702	-0.011880638
189	0xbc8b97a8	-0.017040089
190	0xbc1988e9	-0.009371021
191	0x3beb56e5	0.0071819895
192	0x38ebc2cd	0.00011241958
193	0x3b3744db	0.0027964625
194	0xbbc4e0ed	-0.0060082586
195	0xbc47f69c	-0.012204792
196	0xbbc7e5f7	-0.006100412
197	0xbb610e78	-0.00343409
198	0x3c22c42a	0.0099344645
199	0x3c1707df	0.009218185
200	0xbc164dcc	-0.009173822
201	0x3a401917	0.00073279574
202	0x3b00ec2f	0.0019672026
203	0x3baed9f2	0.0053360397
204	0x3c9fa2c0	0.019486785
205	0x3c6b8e12	0.014377134
206	0x3b6942cf	0.00355928
207	0x3b4640e3	0.0030251078
208	0x3adf3137	0.0017028217
209	0x3be0d093	0.0068608015
210	0xbbf399bd	-0.0074340985
211	0x3a924f45	0.001116254
212	0xbae62768	-0.0017559351
213	0x3c6b77c2	0.014371814
214	0x3ca44492	0.020052228
215	0x3bfd5b07	0.0077317986
216	0x3b3c8a29	0.0028768873
217	0xbc044826	-0.008073842
218	0xbae30ac5	-0.0017321935
219	0x3c097833	0.008390474
220	0x3c0bbaf9	0.0085284645
221	0xbad8494d	-0.0016501338
222	0x3c5ffa15	0.013670464
223	0xbb7b6cdf	-0.0038364453
224	0xb99a261a	-0.00029401557
225	0x3c5384fa	0.012910122
226	0x3c5f58ff	0.013632058
227	0x3bd334b5	0.006445492
228	0xbc54aae3	-0.012980196
229	0xbbc070e9	-0.005872835
230	0xba8d677e	-0.0010788289
231	0xbbd859c3	-0.0066024973
232	0xbb288547	-0.0025714205
233	0x3ba433e5	0.005011069
234	0xbb529c78	-0.003213672
235	0xbba1604e	-0.0049248105
236	0x3c0cb933	0.008589077
237	0xba8f17b7	-0.0010917102
238	0x3bacc158	0.005272072
239	0xbc0c8c85	-0.008578424
240	0x3aad9ddd	0.00132459
241	0xbc5ac31a	-0.01335218
242	0x3bb16caf	0.0054145674
243	0xbc22cd3c	-0.009936627
244	0x3c570f77	0.013126246
245	0xbbc5773b	-0.0060261763
246	0xba5fd1c2	-0.0008538031
247	0xbb57304b	-0.0032835181
248	0x3bbe052f	0.005798958
249	0x3bcb2ca3	0.0062003895
250	0xbac750df	-0.0015206597
251	0xbad2a1f5	-0.0016069995
252	0x3c90d0ff	0.017677782
253	0x3c01224a	0.00788171
254	0x3b748cb7	0.0037315318
255	0x3bdb937f	0.0067009325

action_model._discrete_distribution.branches.0.bias f4 [4]
0	0x00000000	0.0
1	0x00000000	0.0
2	0x00000000	0.0
3	0x00000000	0.0

network_body._body_endoder.seq_layers.0.weight f4 [128, 1]
0	0xbd94c9f2	-0.072650805
1	0x3f580da7	0.8439583
2	0x3d8edae6	0.06975345
3	0xbf11ae6c	-0.5690677
4	0x3f849bef	1.0360087
5	0x3dc90cb4	0.09816876
6	0xbffdf070	-1.9839001
7	0xbfaac41e	-1.33411
8	0xbfa210a2	-1.2661326
9	0x3f2ab090	0.66675663
10	0x3f16ded9	0.5893379
11	0xbf1b7c6a	-0.60736716
12	0xbf8f7ff5	-1.1210924
13	0xbfc562c2	-1.5420763
14	0x3f9430e1	1.1577417
15	0xbf782f39	-0.96947056
16	0xbf1d9d05	-0.6156772
17	0x3d955ff2	0.07293691
18	0x3f59dd87	0.8510365
19	0x3f064870	0.5245428
20	0x3f3b53aa	0.73174536
21	0x3fd0328c	1.6265426
22	0xbebea194	-0.3723265
23	0x3f126049	0.5717817
24	0x3e4d69e1	0.20059921
25	0xbf81c7fe	-1.0139158
26	0x3e6b8d19	0.23003043
27	0x3fa3ecf1	1.2806684
28	0x3f065242	0.52469265
29	0xbf9dea30	-1.2337093
30	0x3f800d37	1.0004033
31	0xbf8b5362	-1.0884821
32	0x402c4355	2.6916096
33	0xbe357329	-0.17719711
34	0x3fa29ea5	1.2704664
35	0x3fe3ea55	1.7805887
36	0xbea39907	-0.31952688
37	0xbe41aaab	-0.18912761
38	0x3efa50c7	0.48889753
39	0x3ec45238	0.38343978
40	0x3fa45058	1.2837019
41	0xbe4e8a67	-0.20169984
42	0xbf8914da	-1.0709488
43	0x3f8955f0	1.0729351
44	0xbfeccf81	-1.8500825
45	0xbf89aabd	-1.075523
46	0x3f8be80e	1.0930192
47	0x3fa2e4bc	1.2726054
48	0x3f892b25	1.0716292
49	0x3f836ef6	1.0268238
50	0x3f19d0ae	0.60084045
51	0x3e8030d2	0.25037247
52	0xbf8ef072	-1.1167128
53	0xbfc4b1c6	-1.5366752
54	0x3e99dc5a	0.30050927
55	0xbe32a792	-0.17446736
56	0xbf2d61db	-0.6772744
57	0xbf84e179	-1.0381309
58	0x3f59e0a9	0.8510843
59	0xbeb552fc	-0.35414875
60	0x3f8f7d8c	1.1210189
61	0x3f40d23e	0.75320804
62	0x3f445845	0.7669719
63	0x3f910f53	1.1332802
64	0x3f1ff3ea	0.6248156
65	0xbe2b4900	-0.16727066
66	0xbf3c9f5c	-0.73680663
67	0xbf2cdcbd	-0.6752432
68	0xbf91b047	-1.138192
69	0xbfafeed5	-1.3744761
70	0xbe83a042	-0.25708205
71	0xbda162b6	-0.07880156
72	0x3ee06763	0.43828878
73	0xbf792cfc	-0.97334266
74	0xbf74cade	-0.9562205
75	0xbf17c2c3	-0.5928156
76	0x3ea1e8f9	0.31623057
77	0xbfe2ae97	-1.770953
78	0x3f3ae6fc	0.73008704
79	0xbe816d96	-0.2527892
80	0x3f4281d3	0.75979346
81	0x3f27cf85	0.65551025
82	0x3fa7cbfc	1.3109126
83	0x3fb0a1f3	1.3799423
84	0x3edc26d0	0.42998362
85	0x3f0466ef	0.51719564
86	0xbfdbabce	-1.7161806
87	0xbef92b74	-0.48665965
88	0xbfdbdc65	-1.7176634
89	0xbefe1a12	-0.49629265
90	0x3cf83402	0.030298237
91	0xbf7fa096	-0.9985441
92	0xc0071daf	-2.1111867
93	0x3f9a4549	1.2052394
94	0xbfadb098	-1.3569517
95	0xbf3e1a61	-0.74259
96	0xbf821626	-1.0163009
97	0xbe9a8eeb	-0.30187163
98	0x3edf2c0b	0.4358829
99	0xbfa2c2dd	-1.2715718
100	0x3e707e76	0.23485741
101	0x3c3825a4	0.011239443
102	0x3d82e087	0.063904814
103	0x3e913731	0.2836242
104	0x3e31e0c4	0.17370898
105	0x3f4d85b0	0.80282116
106	0xbf1eebd1	-0.6207858
107	0x3f56fcec	0.8397968
108	0xbf3a6f64	-0.7282622
109	0xbf5d7f18	-0.86522055
110	0xbea3d30a	-0.31996948
111	0x3f7c446b	0.985419
112	0x3f0ef4c0	0.5584221
113	0x3eae7d1a	0.3407982
114	0x3f64c694	0.89365506
115	0xc01a55b5	-2.4114811
116	0x3ec623f4	0.38699305
117	0x3e86be23	0.26316938
118	0xbe7a426c	-0.244394
119	0xbf9b2879	-1.2121726
120	0xbebcf960	-0.36909008
121	0x3f364cbd	0.71210843
122	0xbdeb4efe	-0.11489676
123	0xbfc2bffb	-1.5214838
124	0xbf61003d	-0.8789099
125	0xbe94cee4	-0.29064095
126	0x3f357690	0.70884037
127	0x3ff3aabb	1.9036478

network_body._body_endoder.seq_layers.0.bias f4 [128]
0	0x00000000	0.0
1	0x00000000	0.0
2	0x00000000	0.0
3	0x00000000	0.0
4	0x00000000	0.0
5	0x00000000	0.0
6	0x00000000	0.0
7	0x00000000	0.0
8	0x00000000	0.0
9	0x00000000	0.0
10	0x00000000	0.0
11	0x00000000	0.0
12	0x00000000	0.0
13	0x00000000	0.0
14	0x00000000	0.0
15	0x00000000	0.0
16	0x00000000	0.0
17	0x00000000	0.0
18	0x00000000	0.0
19	0x00000000	0.0
20	0x00000000	0.0
21	0x00000000	0.0
22	0x00000000	0.0
23	0x00000000	0.0
24	0x00000000	0.0
25	0x00000000	0.0
26	0x00000000	0.0
27	0x00000000	0.0
28	0x00000000	0.0
29	0x00000000	0.0
30	0x00000000	0.0
31	0x00000000	0.0
32	0x00000000	0.0
33	0x00000000	0.0
34	0x00000000	0.0
35	0x00000000	0.0
36	0x00000000	0.0
37	0x00000000	0.0
38	0x00000000	0.0
39	0x00000000	0.0
40	0x00000000	0.0
41	0x00000000	0.0
42	0x00000000	0.0
43	0x00000000	0.0
44	0x00000000	0.0
45	0x00000000	0.0
46	0x00000000	0.0
47	0x00000000	0.0
48	0x00000000	0.0
49	0x00000000	0.0
50	0x00000000	0.0
51	0x00000000	0.0
52	0x00000000	0.0
53	0x00000000	0.0
54	0x00000000	0.0
55	0x00000000	0.0
56	0x00000000	0.0
57	0x00000000	0.0
58	0x00000000	0.0
59	0x00000000	0.0
60	0x00000000	0.0
61	0x00000000	0.0
62	0x00000000	0.0
63	0x00000000	0.0
64	0x00000000	0.0
65	0x00000000	0.0
66	0x00000000	0.0
67	0x00000000	0.0
68	0x00000000	0.0
69	0x00000000	0.0
70	0x00000000	0.0
71	0x00000000	0.0
72	0x00000000	0.0
73	0x00000000	0.0
74	0x00000000	0.0
75	0x00000000	0.0
76	0x00000000	0.0
77	0x00000000	0.0
78	0x00000000	0.0
79	0x00000000	0.0
80	0x00000000	0.0
81	0x00000000	0.0
82	0x00000000	0.0
83	0x00000000	0.0
84	0x00000000	0.0
85	0x00000000	0.0
86	0x00000000	0.0
87	0x00000000	0.0
88	0x00000000	0.0
89	0x00000000	0.0
90	0x00000000	0.0
91	0x00000000	0.0
92	0x00000000	0.0
93	0x00000000	0.0
94	0x00000000	0.0
95	0x00000000	0.0
96	0x00000000	0.0
97	0x00000000	0.0
98	0x00000000	0.0
99	0x00000000	0.0
100	0x00000000	0.0
101	0x00000000	0.0
102	0x00000000	0.0
103	0x00000000	0.0
104	0x00000000	0.0
105	0x00000000	0.0
106	0x00000000	0.0
107	0x00000000	0.0
108	0x00000000	0.0
109	0x00000000	0.0
110	0x00000000	0.0
111	0x00000000	0.0
112	0x00000000	0.0
113	0x00000000	0.0
114	0x00000000	0.0
115	0x00000000	0.0
116	0x00000000	0.0
117	0x00000000	0.0
118	0x00000000	0.0
119	0x00000000	0.0
120	0x00000000	0.0
121	0x00000000	0.0
122	0x00000000	0.0
123	0x00000000	0.0
124	0x00000000	0.0
125	0x00000000	0.0
126	0x00000000	0.0
127	0x00000000	0.0

network_body._body_endoder.seq_layers.2.weight f4 [128, 128]
0	0xbdf193df	-0.11795782
1	0xbcfe4de1	-0.031042995
2	0xbca91c47	-0.020643367
3	0x3d68329c	0.05668889
4	0x3d902bda	0.07039614
5	0xbe13a099	-0.14416732
6	0xba054aa5	-0.000508467
7	0xbc93b736	-0.018031698
8	0xbdcd0888	-0.10011393
9	0xbdb25e66	-0.08709411
10	0x3de1d8f0	0.11027706
11	0xbd3d02a6	-0.046145104
12	0x3d68b1b1	0.056810085
13	0x3d869f25	0.06573323
14	0x3d44afb0	0.04801911
15	0x3e094563	0.13405375
16	0xbe239b44	-0.15977198
17	0x3d4fee71	0.050764505
18	0x3dd9fbc6	0.10643725
19	0xbdd0d6ad	-0.10197196
20	0x3d831205	0.06399921
21	0xbda17a73	-0.078846835
22	0xbdddc192	-0.10827936
23	0x3d49ab71	0.049235765
24	0x3ce2fd2e	0.027708616
25	0x3deda0fb	0.1160297
26	0x3b50430f	0.0031778251
27	0xbce1ee1a	-0.027579356
28	0x3db63978	0.0889768
29	0xbdbac131	-0.091188796
30	0x3c9110e3	0.017708248
31	0x3d6d2411	0.057895724
32	0x3b26f07a	0.0025472925
33	0xbe140d0b	-0.144581
34	0x3d863318	0.06552714
35	0x3e006347	0.12537871
36	0x3dc28d9e	0.094996676
37	0x3e1c4478	0.15260494
38	0xbd479c4d	-0.048733044
39	0xbdb1b3c4	-0.08676866
40	0x3d68b55f	0.056813594
41	0xbcc3da1a	-0.02390771
42	0xbd3899f8	-0.04506871
43	0xbda7c112	-0.08191122
44	0x3d9a0704	0.075208694
45	0x3d60a1c2	0.054841764
46	0xbd0985bc	-0.033574805
47	0x3d969d77	0.07354253
48	0x3d6f3d9e	0.058408372
49	0x3d2ca0b1	0.042145435
50	0x3d958da4	0.073024064
51	0xbc9940ea	-0.018707711
52	0xbb15e90a	-0.0022874498
53	0xbd8176e1	-0.063215025
54	0x3dfdc4c6	0.12391047
55	0xbd2b1694	-0.04176958
56	0xba05e8c3	-0.00051082316
57	0x3c705054	0.014667589
58	0x3e16a300	0.14710617
59	0x3c8e942c	0.017404638
60	0x3c3bb37f	0.011456369
61	0x3ce29d10	0.027662784
62	0x3da56c86	0.0807734
63	0x3d9570c6	0.072969005
64	0x3dc8fff2	0.09814443
65	0x3d14b3d9	0.03630433
66	0xbd200a9a	-0.03907261
67	0x3e5e18e9	0.2168919
68	0x3c623ece	0.013808919
69	0xbe2b1bdd	-0.16709848
70	0xbcfdc410	-0.030977279
71	0x3d6710a3	0.05641235
72	0xbd0b02f4	-0.033938363
73	0xbd895070	-0.06704795
74	0x3cc137cc	0.023586176
75	0xbe3b67dd	-0.1830134
76	0xbdd28c80	-0.102807045
77	0xbd25470e	-0.040350966
78	0xbd726058	-0.05917391
79	0x3e0766a1	0.13222744
80	0x3dc72ed1	0.097257264
81	0x3db43f54	0.088011414
82	0x3d45415a	0.048158027
83	0x3b664c27	0.0035140605
84	0xbc323181	-0.01087606
85	0xbd3d5d97	-0.046231832
86	0xbd5dc5cc	-0.054143712
87	0x3c504c02	0.012713434
88	0xbdcfa5f3	-0.10139074
89	0xbe12990f	-0.143162
90	0xbe300961	-0.17191078
91	0xbe8217bf	-0.25408742
92	0x3dbc0b59	0.09181852
93	0xbbcbe319	-0.0062221405
94	0xbcc9449a	-0.024568845
95	0x3ba34956	0.0049831076
96	0xbe024bd7	-0.12724243
97	0xbe0a90ef	-0.1353185
98	0xbcc545e3	-0.024081176
99	0xbcc368bd	-0.023853654
100	0xbd952ec9	-0.07284314
101	0x3daf6f5a	0.085661605
102	0x3d4b324c	0.049608514
103	0x3ddb5402	0.107093826
104	0x3ca4e058	0.020126507
105	0xbcb68958	-0.022282287
106	0x3b01827f	0.001976162
107	0x3e104888	0.14090168
108	0x3de44f74	0.11147967
109	0xbd25ca1d	-0.040475953
110	0xbd3f9d10	-0.046780646
111	0xbbed9c73	-0.007251316
112	0xbd32a6fd	-0.043616284
113	0xbd06da99	-0.032923315
114	0xbe3d8908	-0.18509305
115	0xbc220cb0	-0.00989072
116	0xbc8886e5	-0.016665885
117	0xbe08adad	-0.13347502
118	0xbe1c1ec0	-0.15246105
119	0xbd90cd65	-0.07070426
120	0xbc919634	-0.017771818
121	0xbd335bb4	-0.043788627
122	0x3c3b6fe4	0.011440251
123	0xbc15a1cd	-0.009132815
124	0x3c45f4b9	0.012082272
125	0x3d00277f	0.031287666
126	0xbcfa39ab	-0.030545076
127	0xbd1a6742	-0.03769613
128	0xbcdf17ca	-0.027233023
129	0x3d782eae	0.060591392
130	0x3e0ee2bc	0.1395368
131	0x3dd5ea78	0.10445112
132	0x3d918e64	0.07107237
133	0x3cc191e5	0.023629138
134	0x3da566c5	0.08076242
135	0x3d598590	0.05310589
136	0xbc5d671c	-0.013513353
137	0x3df257f4	0.11833182
138	0xbdd1e824	-0.102493554
139	0x3d6bd762	0.057578452
140	0x3ca684a0	0.020326912
141	0xbbd3226e	-0.0064433133
142	0x3dc1b9db	0.09459277
143	0x3da64fc3	0.08120682
144	0xbca29f0d	-0.019851232
145	0xbda2a6e4	-0.07941988
146	0xbc85d029	-0.01633461
147	0xbe07c20e	-0.1325762
148	0xbd32c02a	-0.043640293
149	0x3c084837	0.008317999
150	0xbc48e6eb	-0.012262086
151	0xbd561d4e	-0.05227404
152	0x3e05853d	0.13039108
153	0x3de59a51	0.11211074
154	0x3c823edc	0.015899114
155	0xbdbc24ca	-0.091867045
156	0xbd19ef4a	-0.03758172
157	0xba19d003	-0.0005867483
158	0x3d8f041e	0.06983207
159	0x3ce6c74c	0.028171204
160	0x3d124b7a	0.03571651
161	0x3b634d4f	0.003468353
162	0xbd6fcc9d	-0.058544744
163	0x3dc80cfb	0.09768101
164	0xbce33da7	-0.027739359
165	0xbd05b20b	-0.032640498
166	0xbcc1a5a6	-0.023638558
167	0x3dad406a	0.08459552
168	0xbcdec00a	-0.02719118
169	0x3d729c6a	0.0592312
170	0xbd9efa4c	-0.07762584
171	0xbc0fa9d9	-0.008768522
172	0xbc810d4d	-0.015753413
173	0x3e14d823	0.14535575
174	0xbbcff0d3	-0.006345847
175	0x3d860fc1	0.065459736
176	0xbd50a8fa	-0.0509424
177	0xbd38a588	-0.045079738
178	0xbe3c88b7	-0.18411528
179	0xbcb717cb	-0.022350213
180	0x3e20d523	0.15706305
181	0xbd552804	-0.052040115
182	0xbddc41fa	-0.107547715
183	0x3cb00190	0.02148512
184	0x3c6e20c6	0.014534181
185	0x3c32a603	0.010903838
186	0xbc329e23	-0.010901961
187	0xbe495762	-0.1966224
188	0xbe17fe9e	-0.14843222
189	0xbd946761	-0.072462805
190	0x3c8b3a2b	0.01699551
191	0xbd541658	-0.05177912
192	0xbd85b917	-0.06529444
193	0xbdeccde7	-0.1156271
194	0x3e807724	0.25090897
195	0xbde167a7	-0.11006098
196	0x3d41d1cb	0.047319215
197	0x3db4aae0	0.08821654
198	0x3d8e81d6	0.06958358
199	0x3df6f4a0	0.12058377
200	0xbdecdec2	-0.11565925
201	0x3d026a26	0.031839512
202	0x3deccc32	0.11562385
203	0xbe1eed6d	-0.15520258
204	0x3d59d460	0.053181052
205	0xbd307a1f	-0.043085214
206	0xbdb5201e	-0.088440165
207	0xbda6a020	-0.0813601
208	0xbccdbbd6	-0.025113981
209	0xbdf1dc2d	-0.11809573
210	0x3d19c91b	0.037545305
211	0x3dc0aac9	0.09407575
212	0xbdeddb5f	-0.11614107
213	0x3d180cd3	0.037121605
214	0xbd9911a3	-0.07474067
215	0x3c7c58bc	0.015402015
216	0xbe02e64e	-0.12783167
217	0xbdd7918a	-0.10525806
218	0xbc23bd38	-0.009993844
219	0xbda3ff16	-0.08007638
220	0x3e10cb3a	0.14140025
221	0x3e0adad1	0.13560034
222	0x3d8ef8d2	0.069810525
223	0x3e05590a	0.13022247
224	0x3da31998	0.07963866
225	0xbda3362c	-0.07969317
226	0xbd6d44b3	-0.057926845
227	0x3d7a8e24	0.061170712
228	0xbcd23c18	-0.02566342
229	0xbce36873	-0.027759766
230	0x3d0e9577	0.03481051
231	0x3dde3c30	0.108513236
232	0x3afac6aa	0.0019132693
233	0x3da49b4d	0.08037434
234	0xbcb24104	-0.021759517
235	0xbdb013a8	-0.08597499
236	0xbe487a70	-0.19577956
237	0x3db2b03f	0.087250225
238	0xbc2c2643	-0.010507169
239	0x3dd8b8c5	0.10582117
240	0xbe0e3625	-0.13887842
241	0x3d6a7895	0.057243902
242	0x3deb28c6	0.11482386
243	0x3dba374c	0.09092578
244	0xbcf40e6b	-0.029792031
245	0xbdad283b	-0.08454939
246	0xbc5fb273	-0.013653385
247	0xbca91cf6	-0.020643692
248	0xbdbb6ca4	-0.09151581
249	0xbccc6052	-0.024948273
250	0xbd89636f	-0.067084186
251	0x3d8f619d	0.0700104
252	0x3de835ed	0.113384105
253	0x3e0ccb86	0.13749513
254	0x3db5824d	0.088627435
255	0xbd0a4ef6	-0.03376671

network_body._body_endoder.seq_layers.2.bias f4 [128]
0	0x00000000	0.0
1	0x00000000	0.0
2	0x00000000	0.0
3	0x00000000	0.0
4	0x00000000	0.0
5	0x00000000	0.0
6	0x00000000	0.0
7	0x00000000	0.0
8	0x00000000	0.0
9	0x00000000	0.0
10	0x00000000	0.0
11	0x00000000	0.0
12	0x00000000	0.0
13	0x00000000	0.0
14	0x00000000	0.0
15	0x00000000	0.0
16	0x00000000	0.0
17	0x00000000	0.0
18	0x00000000	0.0
19	0x00000000	0.0
20	0x00000000	0.0
21	0x00000000	0.0
22	0x00000000	0.0
23	0x00000000	0.0
24	0x00000000	0.0
25	0x00000000	0.0
26	0x00000000	0.0
27	0x00000000	0.0
28	0x00000000	0.0
29	0x00000000	0.0
30	0x00000000	0.0
31	0x00000000	0.0
32	0x00000000	0.0
33	0x00000000	0.0
34	0x00000000	0.0
35	0x00000000	0.0
36	0x00000000	0.0
37	0x00000000	0.0
38	0x00000000	0.0
39	0x00000000	0.0
40	0x00000000	0.0
41	0x00000000	0.0
42	0x00000000	0.0
43	0x00000000	0.0
44	0x00000000	0.0
45	0x00000000	0.0
46	0x00000000	0.0
47	0x00000000	0.0
48	0x00000000	0.0
49	0x00000000	0.0
50	0x00000000	0.0
51	0x00000000	0.0
52	0x00000000	0.0
53	0x00000000	0.0
54	0x00000000	0.0
55	0x00000000	0.0
56	0x00000000	0.0
57	0x00000000	0.0
58	0x00000000	0.0
59	0x00000000	0.0
60	0x00000000	0.0
61	0x00000000	0.0
62	0x00000000	0.0
63	0x00000000	0.0
64	0x00000000	0.0
65	0x00000000	0.0
66	0x00000000	0.0
67	0x00000000	0.0
68	0x00000000	0.0
69	0x00000000	0.0
70	0x00000000	0.0
71	0x00000000	0.0
72	0x00000000	0.0
73	0x00000000	0.0
74	0x00000000	0.0
75	0x00000000	0.0
76	0x00000000	0.0
77	0x00000000	0.0
78	0x00000000	0.0
79	0x00000000	0.0
80	0x00000000	0.0
81	0x00000000	0.0
82	0x00000000	0.0
83	0x00000000	0.0
84	0x00000000	0.0
85	0x00000000	0.0
86	0x00000000	0.0
87	0x00000000	0.0
88	0x00000000	0.0
89	0x00000000	0.0
90	0x00000000	0.0
91	0x00000000	0.0
92	0x00000000	0.0
93	0x00000000	0.0
94	0x00000000	0.0
95	0x00000000	0.0
96	0x00000000	0.0
97	0x00000000	0.0
98	0x00000000	0.0
99	0x00000000	0.0
100	0x00000000	0.0
101	0x00000000	0.0
102	0x00000000	0.0
103	0x00000000	0.0
104	0x00000000	0.0
105	0x00000000	0.0
106	0x00000000	0.0
107	0x00000000	0.0
108	0x00000000	0.0
109	0x00000000	0.0
110	0x00000000	0.0
111	0x00000000	0.0
112	0x00000000	0.0
113	0x00000000	0.0
114	0x00000000	0.0
115	0x00000000	0.0
116	0x00000000	0.0
117	0x00000000	0.0
118	0x00000000	0.0
119	0x00000000	0.0
120	0x00000000	0.0
121	0x00000000	0.0
122	0x00000000	0.0
123	0x00000000	0.0
124	0x00000000	0.0
125	0x00000000	0.0
126	0x00000000	0.0
127	0x00000000	0.0

value_heads.value_heads.extrinsic.weight f4 [1, 128]
0	0x3d4f0e68	0.05055085
1	0x3e092794	0.13394004
2	0xbded7282	-0.11594106
3	0xbd88aeca	-0.06673963
4	0xbe0ec270	-0.1394136
5	0xbe404794	-0.18777305
6	0x3e3badf6	0.1832808
7	0xbc0c6e90	-0.008571282
8	0xbd534a90	-0.05158478
9	0xbe02ffb8	-0.12792861
10	0x3e1d1dc8	0.15343392
11	0x3d26a328	0.04068294
12	0x3d8ab80c	0.067733854
13	0xbe48f2c5	-0.19623859
14	0x3d107208	0.035265
15	0x3d6dd0a8	0.05806032
16	0xbe23dff5	-0.16003402
17	0xbda304f4	-0.07959929
18	0xbd8c4732	-0.06849517
19	0xbdad6e72	-0.084683314
20	0xbe309b13	-0.17246656
21	0xbd29c8d4	-0.04145129
22	0xbe3f7589	-0.1869718
23	0x3e45b396	0.19306788
24	0x3e52b31c	0.20576137
25	0xbe4d2133	-0.20032196
26	0x39ad7600	0.00033085048
27	0x3d4c8b20	0.049937367
28	0xbe324bbf	-0.17411707
29	0x3d1047a0	0.035224557
30	0x3e5a6632	0.21328047
31	0x3e22ed6a	0.15910879
32	0x3ca47930	0.020077318
33	0x3d8bc1c8	0.0682407
34	0x3d9e03e0	0.07715583
35	0x3d9be24c	0.07611522
36	0x3e41c19e	0.18921515
37	0x3d71b4e0	0.059010386
38	0xbdf2fb41	-0.11864329
39	0x3e15afee	0.14617893
40	0xbe487823	-0.19577079
41	0x3d937dd8	0.07201737
42	0x3df767d8	0.120803535
43	0xbd15c6c0	-0.036566496
44	0x3c46d7c0	0.0121364
45	0xbd5971dc	-0.0530871
46	0xbc6b89d0	-0.014376119
47	0xbdd5c633	-0.10438194
48	0xbe310a7e	-0.17289159
49	0xbdf4406d	-0.11926351
50	0xbe041dc0	-0.12901974
51	0x3c746250	0.014916018
52	0x3e480ebc	0.1953687
53	0x3e554b5c	0.20829529
54	0xbdea7729	-0.11448509
55	0x3defebfc	0.11714932
56	0x3d901678	0.070355356
57	0x3d9c5bd8	0.07634705
58	0x3e2b4f10	0.16729379
59	0x3e4d7b08	0.20066464
60	0x3d3c8bc8	0.046031743
61	0x3e01e068	0.1268326
62	0xbd444370	-0.047915876
63	0xbc47b710	-0.012189642
64	0x3e4fe102	0.20300677
65	0x3e05c05c	0.1306166
66	0xbda8b428	-0.08237487
67	0x3e109406	0.14118966
68	0xbd2d9e10	-0.04238707
69	0xbe44926a	-0.19196478
70	0xbe2771ce	-0.16352007
71	0xbdd7af5b	-0.10531493
72	0xbe050979	-0.12991895
73	0x3cfaf5a0	0.030634701
74	0x3e435e8c	0.19079036
75	0xbdedbced	-0.116083
76	0x3e14c29c	0.14527363
77	0x3e395ea2	0.18102506
78	0xbe551e8d	-0.20812435
79	0x3d8d5e70	0.06902778
80	0x3e3b867e	0.18313023
81	0x3e5af102	0.21381
82	0x3e3ddf02	0.18542102
83	0x3e09038a	0.13380256
84	0x3e46929e	0.19391868
85	0x3d1d13c0	0.038348913
86	0x3ddb5ce0	0.10711074
87	0xbdf8326d	-0.12118993
88	0x3ce2d968	0.027691558
89	0x3e02d89c	0.12777942
90	0xbccb5af8	-0.02482365
91	0xbdb2c014	-0.08728042
92	0x3e5460ae	0.20740005
93	0x3d4dfb88	0.050288707
94	0x3e31f666	0.1737915
95	0x3dd00608	0.101574
96	0xbdbd5abe	-0.09245823
97	0xbe1ec37e	-0.15504262
98	0x3db882a0	0.0900929
99	0xbb620240	-0.0034486204
100	0x3d81ddfc	0.06341168
101	0xbd81a938	-0.06331104
102	0xbd6eac48	-0.05826977
103	0x3d33bad8	0.04387936
104	0x3d9feea0	0.07809186
105	0x3e2932c4	0.16523272
106	0x3d66b7d0	0.05632764
107	0xbe12937c	-0.14314073
108	0xbdfcc417	-0.12342089
109	0x3e2ca190	0.16858506
110	0x3e28c2f0	0.16480613
111	0xbe1747c5	-0.14773472
112	0x3e527824	0.20553643
113	0xbe4b6885	-0.1986409
114	0x3e40d814	0.18832427
115	0xbdada530	-0.08478773
116	0x3cc5cf80	0.024146795
117	0xbda6a99a	-0.08137818
118	0x3e3c81aa	0.18408838
119	0x3cbcb508	0.023035541
120	0x3d14cbf0	0.036327302
121	0x3dfbd608	0.122966826
122	0x3d6c5a70	0.057703435
123	0x3dd246bc	0.10267398
124	0xbc76be60	-0.015060037
125	0x3d3e6fa0	0.046493173
126	0x3d5fc1d0	0.054628193
127	0xbe05ed29	-0.1307875
