Assets/defender_tower-41092.onnx (onnx, 140653 bytes, 6 tensors)

network_body._body_endoder.seq_layers.0.weight f4 [128, 126]
0	0xbdb008fe	-0.08595465
1	0xbe098bb7	-0.13432203
2	0x3dec3145	0.11532835
3	0xbd95b75f	-0.07310366
4	0xbd97190b	-0.073778234
5	0x3da34dba	0.079738095
6	0x3d6a1317	0.05714711
7	0x3dd4db09	0.1039334
8	0x3e652e77	0.22381006
9	0xbe32d319	-0.1746334
10	0xbe1b3299	-0.1515602
11	0x3daf360c	0.085552305
12	0x3c847412	0.016168628
13	0x3db5004a	0.08837946
14	0x3df0e808	0.117630064
15	0xbcbd0124	-0.023071833
16	0xbdaaf69f	-0.083478205
17	0xbe061906	-0.13095483
18	0x3d6fea5e	0.05857312
19	0xbd591fbb	-0.053008776
20	0xbb4c6505	-0.0031188142
21	0xbd92e113	-0.07171836
22	0x3e145079	0.14483823
23	0x3e11c416	0.14234957
24	0x3dc7b6ec	0.097516865
25	0xbd0e591e	-0.034752958
26	0xbcd5586a	-0.026043136
27	0xbd950092	-0.072754994
28	0x3d085af2	0.033289857
29	0x3d88db73	0.066824816
30	0xbdcab3e7	-0.09897595
31	0x3cff302b	0.031150898
32	0xbd6b273a	-0.057410456
33	0x3e09e989	0.13467993
34	0x3cad2eb4	0.021140434
35	0x3dfabe6a	0.1224335
36	0x3c83237f	0.016008137
37	0xbe3fd592	-0.18733814
38	0xbda9ada8	-0.082850754
39	0xbe0eee64	-0.13958126
40	0x3d7da47e	0.06192445
41	0xbcde2392	-0.02711657
42	0x3b9cdc66	0.0047870157
43	0x3d1398f3	0.036034536
44	0xbc4341c6	-0.011917537
45	0xbdff03a7	-0.124518685
46	0x3d42af68	0.04753056
47	0x3d10a593	0.035314154
48	0xbccd6be0	-0.025075853
49	0xbbfdcea4	-0.0077455807
50	0xbcf98e61	-0.0304634
51	0x3d825c39	0.06365246
52	0xbd63446d	-0.055485178
53	0xbd86c65f	-0.06580805
54	0xbc105c7b	-0.008811112
55	0xbd4a0be8	-0.04932776
56	0x3ba93b83	0.005164565
57	0xbc4f27a8	-0.012643732
58	0xbcd1c859	-0.025608229
59	0xbc7f5159	-0.01558336
60	0xbe2be19e	-0.16785285
61	0xbc409452	-0.011754112
62	0x3e0b7a4a	0.13620868
63	0xbd834423	-0.064094804
64	0x3d5a2aee	0.053263597
65	0xbc80c02a	-0.015716631
66	0x3e26c36e	0.16285488
67	0xbb3039e1	-0.0026889967
68	0xbb8a3092	-0.004217216
69	0xbd10c20b	-0.035341304
70	0x3c33d23e	0.010975419
71	0xbc6a7dfd	-0.0143122645
72	0xbb95dbc7	-0.0045733186
73	0xbc44b75e	-0.012006609
74	0xbbde7909	-0.006789331
75	0xbd672f60	-0.056441665
76	0x3d8aeb6a	0.06783183
77	0x3dfc261f	0.123119585
78	0x3c4f8a2d	0.012667221
79	0xbd7b5b84	-0.061366573
80	0xbd1d5f6b	-0.038421076
81	0x3e22dbc6	0.1590415
82	0xbbf7125d	-0.007540031
83	0x3e19de18	0.15026128
84	0xbde73368	-0.11289102
85	0xbc670edc	-0.014102664
86	0x3cac0a99	0.021001147
87	0x3dda474c	0.1065813
88	0x3caaeb19	0.020864056
89	0xbd15da5d	-0.0365852
90	0x3e40b5b1	0.1881931
91	0x3e28089e	0.16409537
92	0xbe033ac9	-0.12815394
93	0xbdb7ab80	-0.08968258
94	0xbcdb8a49	-0.026799338
95	0xbe1a7b19	-0.1508602
96	0x3d53f369	0.051745806
97	0xbd5546ce	-0.052069478
98	0xbdcbd4d4	-0.09952703
99	0xbc4ad3e4	-0.01237962
100	0xbcc9ceba	-0.024634708
101	0xbe1cdd48	-0.15318787
102	0x3df89b78	0.12139028
103	0x3d5eaec8	0.054365903
104	0x3db44251	0.08801711
105	0xbda1e298	-0.079045475
106	0x3d8e692a	0.06953652
107	0x3d50e6d7	0.051001396
108	0xbd7a986d	-0.06118052
109	0xbd2a8fea	-0.041641153
110	0x3ccc74e0	0.024958074
111	0xbaf27a01	-0.0018499495
112	0xbdc03f16	-0.09387033
113	0x3b69b967	0.0035663487
114	0xbdcba1e1	-0.09942985
115	0xbd9f782d	-0.077865936
116	0xbdd3210e	-0.10309039
117	0xbdc8a2ce	-0.097966775
118	0xbd17e597	-0.03708419
119	0x3d009ac9	0.031397615
120	0x3d7de044	0.061981454
121	0x3c6e4444	0.014542643
122	0x3c615f46	0.013755625
123	0x3c9979cb	0.018734833
124	0x3d0e6983	0.034768593
125	0xbbd2f439	-0.006437805
126	0xbc3acc4e	-0.011401249
127	0x3dcba4e5	0.099435605
128	0x3d87314b	0.06601199
129	0x3e0c14b3	0.13679771
130	0xbd4c63d1	-0.04989988
131	0xbc1417d8	-0.009038888
132	0xbc61f68a	-0.01379169
133	0xbd08f959	-0.03344092
134	0xbd087230	-0.033312023
135	0xbd2a7eb4	-0.04162474
136	0x3e208a7f	0.15677832
137	0x3df731f3	0.12070074
138	0x3dca6e00	0.09884262
139	0xbd6b4a11	-0.057443682
140	0xbd57cb73	-0.05268426
141	0x3c137d67	0.009002066
142	0x3c58a3ea	0.013222674
143	0x3d91ae13	0.0711328
144	0x3de6e3c7	0.11273914
145	0xbd6a2cd3	-0.057171654
146	0xbd988a1a	-0.07448216
147	0xbd933bb9	-0.071891256
148	0xbe05635f	-0.13026188
149	0x3c5f42e8	0.013626792
150	0x3d929c2b	0.07158693
151	0x3dcc8745	0.09986738
152	0xbd50c985	-0.050973434
153	0xbc9515ea	-0.018198926
154	0xbda40da0	-0.08010411
155	0x3da6a901	0.08137704
156	0x3e5a4819	0.21316566
157	0x3c39365b	0.011304463
158	0x3e33dc71	0.1756456
159	0xbd5b28dc	-0.053505763
160	0x3cf29733	0.029613113
161	0xbdba69f5	-0.09102241
162	0xbdc85c71	-0.09783257
163	0xbc8f603b	-0.017501941
164	0xbc497e4c	-0.012298178
165	0x3d3ab603	0.045583736
166	0xbe33fd16	-0.17577013
167	0xbc303a88	-0.010756142
168	0xbcfda743	-0.030963546
169	0x3e035872	0.12826708
170	0xbd8f4e0f	-0.0699731
171	0xbe202413	-0.15638761
172	0x3dc038b9	0.09385819
173	0xbdec8d74	-0.115504175
174	0xbdcddcb1	-0.10051859
175	0xbdf5e263	-0.120060705
176	0x3d5d1666	0.05397644
177	0x3ceed7a7	0.029155565
178	0xbcdde967	-0.027088834
179	0xbc17da89	-0.009268411
180	0x3de68877	0.11256497
181	0x3d13a1d2	0.036042996
182	0xbdb130d3	-0.086518906
183	0x3c771e21	0.015082867
184	0x3e437acf	0.19089817
185	0x3d7dc4cf	0.06195527
186	0x3c73fc3f	0.014891683
187	0xbd8e49b2	-0.0694765
188	0x3b21c727	0.0024685354
189	0x3e0e5f02	0.1390343
190	0xbd7612c1	-0.06007648
191	0xbdaee964	-0.085406095
192	0x3d386234	0.04501553
193	0x3dc2778d	0.09495459
194	0xbd9088dc	-0.07057354
195	0x3db73ee5	0.08947543
196	0x3cfe2c65	0.031027028
197	0x3e1059f6	0.14096817
198	0x3d77fdb6	0.060544692
199	0x3d47b4aa	0.04875628
200	0xbc7c97fe	-0.015417097
201	0xbd8ced1f	-0.06881165
202	0xbd43c0a9	-0.047791157
203	0xbc3e098d	-0.011598957
204	0xbde5e41f	-0.11225151
205	0xbcd43888	-0.025905862
206	0x3dfc8f6a	0.123320416
207	0xbce40bd2	-0.027837668
208	0x3e1485ea	0.14504209
209	0xbd543611	-0.051809374
210	0x3d34879d	0.044074643
211	0xbd8309c9	-0.06398351
212	0x3d0df41c	0.03465663
213	0xbd1aa264	-0.037752524
214	0x3dd6fe8d	0.104977705
215	0x3de3e6ed	0.1112803
216	0xb81b0460	-3.6958954e-05
217	0x3df1b90f	0.11802875
218	0x3b92789f	0.0044699456
219	0x3e042620	0.12905169
220	0xbdc3cefd	-0.09560964
221	0xbc60f8c7	-0.013731188
222	0x3be928ed	0.0071154744
223	0xbd266acb	-0.04062919
224	0xbdf3d24d	-0.11905346
225	0x3d0ff7e3	0.035148513
226	0x3b8b83f4	0.0042576734
227	0x3e357ae0	0.17722654
228	0x3d41acd7	0.047283974
229	0x3b90b04b	0.004415547
230	0x3d68def1	0.05685324
231	0x3def788c	0.11692914
232	0x3c0e1309	0.0086715305
233	0xbd70f12a	-0.058823742
234	0xbb3370b9	-0.002738042
235	0xbe0ce36b	-0.13758628
236	0x3d89b4c8	0.067239344
237	0xbd88baf4	-0.066762835
238	0x3e5095ef	0.20369695
239	0x3c569d7a	0.013099069
240	0x3d450735	0.048102576
241	0x3d76bbc3	0.060237657
242	0xbdefa948	-0.1170221
243	0x3d0e3419	0.034717653
244	0xbe051d37	-0.12999426
245	0x3d214347	0.0393708
246	0x3da4d7a9	0.080489464
247	0x3d3d9c55	0.046291668
248	0xbd8c2227	-0.068424515
249	0xbd872dee	-0.06600557
250	0xbda8e64f	-0.08247053
251	0x3e1fc3e5	0.15602072
252	0xbe31ea03	-0.17374425
253	0x3d9bf4a0	0.07615018
254	0x3e912059	0.28344992
255	0x3b207101	0.0024481418

network_body._body_endoder.seq_layers.0.bias f4 [128]
0	0xba41e1da	-0.000739602
1	0xbb318ac3	-0.0027090765
2	0xb88abaee	-6.615171e-05
3	0x38c63d04	9.452741e-05
4	0xbbad6a9e	-0.005292251
5	0x3bd9bf3f	0.0066451128
6	0xbb253977	-0.0025211254
7	0x3b28e333	0.0025770187
8	0xbb00d028	-0.001965532
9	0xbb83e6cd	-0.0040253163
10	0xbb152372	-0.0022756723
11	0xbae8fd5d	-0.0017775703
12	0xb9971a4c	-0.00028820557
13	0x3b3d7208	0.002890708
14	0x3aa03aaa	0.0012224515
15	0x3aa62e59	0.0012678608
16	0xbab035d9	-0.0013443782
17	0xbb060e71	-0.0020455385
18	0xbbfb4e20	-0.0076692253
19	0xbac38ce6	-0.001491931
20	0xba2479fd	-0.0006274281
21	0x3bbea4da	0.0058179917
22	0x3bbbf05d	0.0057354406
23	0xbb15edb7	-0.0022877285
24	0xbb60fc78	-0.003433017
25	0xbaab922d	-0.0013089828
26	0x3b288ee7	0.0025719942
27	0x39f4aff2	0.00046670396
28	0x3befcbbb	0.0073179877
29	0xbb5920ca	-0.0033131116
30	0x3ac46335	0.0014983179
31	0xbb4a48f0	-0.0030866228
32	0xb6cbee53	-6.077616e-06
33	0x3b8df688	0.0043323673
34	0xbb9618c5	-0.0045805895
35	0xbaac4dcd	-0.0013145745
36	0xb9d2829c	-0.00040151633
37	0xba7f5b56	-0.0009741088
38	0xba962826	-0.0011456057
39	0xbb93fadf	-0.00451599
40	0x3b6e20f9	0.0036335571
41	0x3b3c05cc	0.0028689979
42	0xbb2ae6c5	-0.002607749
43	0xb9d90a0f	-0.0004139696
44	0x38c70543	9.4900395e-05
45	0x3ad3266b	0.0016109472
46	0x3b5f3a1c	0.0034061735
47	0x3b1f6954	0.0024324255
48	0x39c1fd34	0.0003700048
49	0xbac83a25	-0.0015276117
50	0xbb98913d	-0.0046559856
51	0x3ae9d550	0.0017840061
52	0xb9e3e318	-0.00043466012
53	0x3b6d704d	0.0036230267
54	0x3b87dc10	0.0041461065
55	0x3b35fb47	0.0027768181
56	0xbac58407	-0.0015069254
57	0xb9c25c76	-0.00037071452
58	0xbbc158ec	-0.005900493
59	0x3bf24652	0.0073936367
60	0x3ad038a5	0.0015886022
61	0xba046244	-0.0005050043
62	0xbae1fbfb	-0.0017241234
63	0xbbb7f305	-0.005613687
64	0xb71a0dd0	-9.182331e-06
65	0x3b408346	0.002937512
66	0xbb4339ff	-0.0029789207
67	0x3b34c979	0.0027585907
68	0xbb7496ba	-0.0037321285
69	0xb9d55aad	-0.00040694085
70	0x3ae71b2a	0.0017631997
71	0x3a211e70	0.0006146198
72	0xbb205246	-0.0024463101
73	0xba844c9d	-0.0010093633
74	0xbad7742b	-0.0016437819
75	0x3a7ba8b3	0.0009600028
76	0xbbb1d239	-0.005426672
77	0x39a591a3	0.0003157976
78	0xbae38c40	-0.0017360523
79	0x3c247579	0.010037773
80	0xba973d27	-0.001153861
81	0x3b2d50c2	0.002644584
82	0x3ad8fc1f	0.001655463
83	0xbac0368b	-0.0014664693
84	0xbb7d7450	-0.0038674064
85	0x3b6ecc25	0.0036437598
86	0x3be25e2c	0.006908199
87	0xbb6c300d	-0.0036039383
88	0x3b1b3248	0.0023681093
89	0x3a5dd4e7	0.0008462206
90	0x3a1dfdd4	0.0006026898
91	0xba8bdf00	-0.0010671318
92	0xbae8fe2c	-0.0017775944
93	0xbae8d66d	-0.0017764099
94	0xbb0f6b1c	-0.002188391
95	0xbaf3d1e3	-0.001860198
96	0xb96bebb5	-0.00022499154
97	0xb7a10a96	-1.9197625e-05
98	0x3ba0f817	0.004912387
99	0xba7953e9	-0.00095111
100	0x3b73eb2e	0.0037219035
101	0x3adc2160	0.0016794614
102	0xbb0e3e56	-0.0021704636
103	0xb8d5d6c0	-0.00010196632
104	0x3b3e73d4	0.0029060738
105	0xbb69efb9	-0.0035695864
106	0xbb024a7a	-0.0019880817
107	0x3a600159	0.00085451227
108	0x3ae088ec	0.001713065
109	0xba0318fd	-0.0005000977
110	0xba3430c9	-0.00068737246
111	0x3830b1e4	4.2127343e-05
112	0xbba35148	-0.0049840547
113	0xbb87d563	-0.0041453107
114	0xbae0d122	-0.001715217
115	0xba71265f	-0.0009199138
116	0x3b636923	0.0034700118
117	0xbad0c189	-0.0015926819
118	0x3a0f872b	0.00054751587
119	0x3b4afe91	0.0030974487
120	0xbaa22d46	-0.0012373112
121	0x3bb65ae9	0.0055650366
122	0xbb776eb2	-0.0037755189
123	0xba31266a	-0.00067577383
124	0xbb8271d1	-0.003980853
125	0xb88b5adf	-6.6449626e-05
126	0xbaec257c	-0.0018016542
127	0x3bc69edd	0.0060614184

network_body._body_endoder.seq_layers.2.weight f4 [128, 128]
0	0xbba8ad7e	-0.005147635
1	0xbccaee1c	-0.024771743
2	0xbd003b6c	-0.03130667
3	0x3df79431	0.12088812
4	0xbdd6206f	-0.10455405
5	0x3d06df57	0.032927837
6	0xbd6b461b	-0.057439905
7	0x3c2df5ef	0.010617717
8	0xbd45106f	-0.048111375
9	0x3e0fbd89	0.14037146
10	0xb999c391	-0.00029328142
11	0xbdc6aac5	-0.097005405
12	0xbe6c820e	-0.23096487
13	0xbd9cb192	-0.07651056
14	0xbd5a909b	-0.053360563
15	0x3e4da475	0.20082267
16	0xbd2d2588	-0.04227212
17	0xbd83186d	-0.06401143
18	0xb9e8274c	-0.00044279767
19	0x3a1c6ca4	0.00059671164
20	0x3ca0c8b1	0.019626947
21	0x3d1edacf	0.03878289
22	0x3cc9651d	0.024584347
23	0xbe5d1adb	-0.21592276
24	0xbdff4603	-0.124645256
25	0x3bd65e02	0.0065419683
26	0x3c9af1d5	0.018914143
27	0x3d078b8f	0.033092078
28	0x3d791df5	0.060819585
29	0x3cce0dbb	0.025153032
30	0x3e466a93	0.19376592
31	0x3d378e85	0.04481365
32	0xbd37d1e4	-0.0448779
33	0xbdea6a9f	-0.114461176
34	0x3e1870f2	0.14886835
35	0x3dba1d66	0.090876386
36	0xbe13b21a	-0.14423409
37	0xbdb7fad9	-0.08983392
38	0xbcfa618f	-0.030564098
39	0x3e22fb9f	0.15916298
40	0xbdb80c4d	-0.08986721
41	0x3e195c2c	0.14976567
42	0xbd06db6d	-0.032924104
43	0x3cb0ffba	0.021606315
44	0xbdb76e45	-0.08956579
45	0x3d0be064	0.034149542
46	0x3d779646	0.060446046
47	0xbdd6ade7	-0.10482388
48	0xbe25a8fc	-0.16177744
49	0xbe5ce91b	-0.21573298
50	0x3e17a79a	0.14810029
51	0xbe583e92	-0.21117619
52	0x3db9cd2f	0.09072339
53	0xbd07b195	-0.03312834
54	0x3d646a19	0.055765245
55	0xbd115e68	-0.035490423
56	0xbda1e577	-0.07905095
57	0x3d80cda9	0.062892266
58	0x3dd93f87	0.1060782
59	0xbdca2c2e	-0.09871708
60	0x3e47eff0	0.19525123
61	0x3d1a1e22	0.037626393
62	0xbcc52b8a	-0.024068613
63	0xbd475cb5	-0.048672397
64	0xbc52cb5f	-0.01286587
65	0x3ce10a04	0.027470596
66	0x3d8fe8de	0.07026838
67	0x3caece01	0.021338465
68	0xbd5c4177	-0.05377337
69	0xbdb791b1	-0.08963335
70	0xbd77267d	-0.06033944
71	0x3e30b859	0.17257823
72	0x3d26594a	0.040612496
73	0xbcc8acfb	-0.024496546
74	0xbaabc02b	-0.0013103535
75	0xbe1325e1	-0.14369918
76	0x3dd6106f	0.10452353
77	0xbe003954	-0.12521869
78	0xbdc46170	-0.09588897
79	0x3e2e5248	0.17023575
80	0xbd8694b0	-0.06571329
81	0x3d92113f	0.07132196
82	0xbdad4dd3	-0.084621094
83	0x3bcaeddd	0.0061929063
84	0xbdc883a2	-0.09790732
85	0xbdc126a4	-0.09431198
86	0xbc8d00f6	-0.017212372
87	0xbd6bf354	-0.057605103
88	0x3db486b3	0.08814754
89	0x3cf4b65d	0.029872114
90	0xbc842c24	-0.01613433
91	0x3d91f22c	0.07126269
92	0xbd7bc074	-0.061462834
93	0xbe0c8eb6	-0.13726315
94	0xbd5d8e89	-0.05409101
95	0xbd888080	-0.066651344
96	0xbe09ae33	-0.13445358
97	0x3e3d54f0	0.18489432
98	0xbe1c53b0	-0.15266299
99	0x3c9caa49	0.019124167
100	0xbe20b558	-0.15694177
101	0x3de2c83a	0.110733464
102	0x3c3cb5d2	0.011517959
103	0x3d91c614	0.071178585
104	0x3beb8696	0.0071876748
105	0x3decdc31	0.11565436
106	0x3c824c0b	0.0159054
107	0x3dde59c0	0.10856962
108	0xbd679de5	-0.056547064
109	0x3d683357	0.056689586
110	0x3db1b8f9	0.08677859
111	0xbc20b3b4	-0.00980847
112	0x3d3a9082	0.04554797
113	0xbdd7cf09	-0.10537536
114	0x3d776d95	0.06040724
115	0x3d310582	0.043218143
116	0x3cb6f6bd	0.02233445
117	0x3d489458	0.048969597
118	0x3e0cbe6e	0.13744518
119	0xbdace9f5	-0.08443061
120	0x3c30b47e	0.01078522
121	0xbd3e8ab0	-0.04651898
122	0xbc65d4c3	-0.014027777
123	0xbde84108	-0.11340529
124	0xbca9ba09	-0.020718591
125	0x3dd350f2	0.103181735
126	0xbaa25cd4	-0.0012387284
127	0x3dd2628b	0.10272702
128	0xbd192f7d	-0.037398804
129	0xbd03744e	-0.03209334
130	0x3e2ca94a	0.16861454
131	0x3c96e122	0.018417899
132	0x3d00fec2	0.031492956
133	0x3d2b25de	0.04178416
134	0xbd91cbd3	-0.071189545
135	0xbe26c30a	-0.16285339
136	0x3e0afd86	0.13573274
137	0x3db534d0	0.08847964
138	0x3e02b3de	0.12763926
139	0x3d8db1b2	0.06918658
140	0x3b5ad42c	0.0033390624
141	0x3d313226	0.043260716
142	0xbdcaf21d	-0.09909461
143	0xbc10628f	-0.008812561
144	0x3d75f24f	0.060045537
145	0x3bbcb6d9	0.005759102
146	0x3d80b762	0.062849775
147	0x3e03caf9	0.12870397
148	0x3d466bea	0.04844276
149	0xbd569143	-0.052384626
150	0x3df2cdaa	0.118556336
151	0x3d9771db	0.07394763
152	0xbd97bb0b	-0.074087225
153	0xbe1563cf	-0.14588855
154	0xbd194312	-0.03741748
155	0xbd40eb36	-0.047099315
156	0x3e2a5fce	0.16638109
157	0xbd763f29	-0.060118828
158	0xbcfe29d9	-0.031025814
159	0x3d9caf95	0.07650677
160	0xbd5e3a7c	-0.054254994
161	0x3cf4267b	0.029803505
162	0x3d0e2729	0.034705315
163	0xbd96bd74	-0.07360354
164	0xbd802f7e	-0.062590584
165	0xbdd5c09d	-0.10437129
166	0xbd2521cd	-0.040315438
167	0xbda04a4c	-0.07826671
168	0x3ce63b1e	0.028104361
169	0xbd952ed2	-0.07284321
170	0x3dfc83dd	0.123298384
171	0x3dd033ef	0.101661555
172	0xbc5e7290	-0.0135771185
173	0xbd238bda	-0.039928295
174	0xbdb6450c	-0.088998884
175	0x3db15d76	0.086604044
176	0x3d0fa878	0.035072774
177	0x3d8486c7	0.06471019
178	0xbe41aa65	-0.18912657
179	0x3e129c07	0.14317332
180	0xbdbafd6b	-0.09130367
181	0xbc5defd4	-0.013545949
182	0x3cf264ff	0.029589174
183	0xbda8e605	-0.08246998
184	0xbb6a01a6	-0.003570655
185	0xbccaf4e8	-0.024774984
186	0x3def385d	0.11680672
187	0xbce9f841	-0.02856076
188	0xbc4c5a73	-0.012472737
189	0x3c81ad81	0.015829803
190	0xbc0a3d89	-0.008437523
191	0xbdaf262f	-0.08552205
192	0x3d90644b	0.07050379
193	0x3e2ff013	0.17181425
194	0x3cd7edaf	0.026358454
195	0x3c39f98c	0.0113510005
196	0xbc9f6c04	-0.019460686
197	0x3d390cd9	0.045178268
198	0x3dd5c08f	0.10437118
199	0x3d82988d	0.06376753
200	0x3d305098	0.04304561
201	0xbd5e6277	-0.054293122
202	0x3dfefd6e	0.124506816
203	0x3b89faa0	0.004210785
204	0xbc5dec26	-0.013545072
205	0x3e34d806	0.17660531
206	0xbd3eeb72	-0.046611257
207	0x3ddff743	0.10935833
208	0xbdff6c97	-0.12471884
209	0x3de1dd1f	0.110285036
210	0x3e0aa866	0.13540801
211	0xbdd94e49	-0.10610635
212	0x3e2986d1	0.16555335
213	0x3db3e411	0.087837346
214	0x3e6d6b9c	0.23185581
215	0xbd82499b	-0.063616954
216	0xbe4d1913	-0.20029096
217	0xbcc1de05	-0.023665437
218	0xbe02eac2	-0.12784865
219	0x3bfc253c	0.0076948684
220	0xbd9d09cf	-0.076678865
221	0xbd674d85	-0.056470413
222	0xbde73c00	-0.11290741
223	0xbdbca1d8	-0.09210557
224	0x3e1e88c5	0.15481861
225	0x3db77a16	0.08958833
226	0x3db22dfc	0.08700177
227	0x3dfc2214	0.123111874
228	0x3c31e2e5	0.0108573185
229	0x3da358ab	0.079758964
230	0xbdaa29ba	-0.0830874
231	0xbe2f005e	-0.17089984
232	0x3d3a0411	0.045414034
233	0xbd60fbb7	-0.054927554
234	0xbc5be3b9	-0.0134209925
235	0x3df04086	0.11731057
236	0x3e0728c2	0.13199142
237	0x3e0ac0ea	0.13550153
238	0xbde094c4	-0.10965875
239	0x3d03e6dd	0.03220259
240	0x3c52c0d7	0.012863359
241	0xbb63bafd	-0.0034748905
242	0x3c145564	0.009053562
243	0xbbc2f9c6	-0.0059501855
244	0x3d9b1227	0.07571822
245	0xbcde5231	-0.027138801
246	0x3d3809f7	0.04493138
247	0xbdc6d641	-0.097088344
248	0x3df90cc8	0.12160641
249	0xbe090345	-0.13380153
250	0xbe10e12f	-0.141484
251	0x3bec6e50	0.0072152987
252	0xbd38f373	-0.045154046
253	0xbd91fb20	-0.071279764
254	0xbd987a49	-0.07445199
255	0x3e2a67d5	0.16641171

network_body._body_endoder.seq_layers.2.bias f4 [128]
0	0x3b0aa390	0.002115462
1	0xbaa16410	-0.0012313146
2	0xba73a594	-0.00092943874
3	0xbb6405a4	-0.00347934
4	0x3af2af3b	0.0018515358
5	0xbb807b21	-0.003920928
6	0x3b09b402	0.0021011834
7	0x3a0e386f	0.00054252794
8	0x3b84e3c8	0.004055474
9	0x3b5dc890	0.0033841468
10	0xbb857795	-0.004073093
11	0xbb25efa7	-0.0025319846
12	0xbbccd680	-0.0062511563
13	0xbb8e183c	-0.004336385
14	0x3bf8e489	0.007595603
15	0xb94f7e1b	-0.00019788036
16	0xbb3ad165	-0.0028506157
17	0xbab710aa	-0.0013966758
18	0xba589ea2	-0.0008263384
19	0x39bc7f8c	0.00035953184
20	0x372a65f7	1.015653e-05
21	0xba4f9e2d	-0.00079199934
22	0xbb633e29	-0.0034674502
23	0x3a142679	0.0005651485
24	0xbaa215df	-0.0012366137
25	0xbb83dd15	-0.0040241578
26	0xba92ffe0	-0.0011215173
27	0x3b9c9224	0.0047781635
28	0xbb891c27	-0.004184264
29	0x3b093cb6	0.0020940728
30	0x3b66d3c7	0.0035221444
31	0xbb9b06f0	-0.0047310516
32	0xbbc35b36	-0.005961801
33	0x3b004c59	0.0019576757
34	0x3a2ba458	0.00065476215
35	0x379aeeeb	1.8469485e-05
36	0xbb0d9057	-0.0021600926
37	0xbb887ecc	-0.004165506
38	0xbaa080a7	-0.0012245373
39	0xbadf5bb0	-0.0017040875
40	0xb7212f63	-9.607381e-06
41	0x3a3042e9	0.00067238376
42	0xbb969761	-0.0045956825
43	0x398d6fae	0.00026976824
44	0x3a603889	0.0008553346
45	0x3a7a9301	0.00095586485
46	0x3b22defc	0.0024852147
47	0xbb81014c	-0.003936922
48	0xba78c1f8	-0.0009489353
49	0xbb4ded40	-0.003142193
50	0x3ade41a9	0.0016956824
51	0x3af92372	0.0019007756
52	0xbbb74ed5	-0.0055941143
53	0x39f0fda2	0.00045965338
54	0x3b766611	0.0037597457
55	0x3b530acd	0.0032202483
56	0x3bc3d6d6	0.005976538
57	0xbaa7c12b	-0.0012798657
58	0xba4b05f6	-0.00077447237
59	0x3a95a2a8	0.0011416273
60	0xb7a7a08a	-1.9982708e-05
61	0xbb813b58	-0.003943842
62	0xbae5e2bf	-0.0017538889
63	0x3af142f1	0.0018406791
64	0xbaa34e9a	-0.0012459338
65	0xbb9d3509	-0.004797582
66	0x3b55ab44	0.0032603303
67	0x3a4a605e	0.00077200483
68	0x3881a310	6.181572e-05
69	0x3b3f25d8	0.0029166844
70	0xb963fd3e	-0.00021742747
71	0x3b3b628c	0.0028592674
72	0xbbda0dd7	-0.006654482
73	0xba1b1e8b	-0.0005917332
74	0xbbb74360	-0.0055927485
75	0x3bcd1e16	0.00625969
76	0xb6d39ed6	-6.306781e-06
77	0xbbaec519	-0.0053335545
78	0xbb4971b6	-0.0030737943
79	0x3b1061c9	0.002203094
80	0xbb0a9811	-0.0021147768
81	0xbb6588d9	-0.0035024195
82	0xbadc5e39	-0.0016812749
83	0xbb3e790a	-0.0029063844
84	0xb815e977	-3.57418e-05
85	0x3b2a37b6	0.0025973148
86	0xba1950f6	-0.0005848551
87	0x3b455d16	0.0030115298
88	0x3b96d691	0.004603215
89	0x3b39d249	0.00283541
90	0x3a29c561	0.000647625
91	0xba8ab954	-0.0010583797
92	0x3c067efc	0.008208986
93	0x3b6913dd	0.0035564818
94	0x3b3fddf8	0.002927659
95	0x3b22df04	0.0024852166
96	0xbb17285b	-0.0023064825
97	0x3aa653a7	0.0012689725
98	0xbb32c558	-0.002727827
99	0xbb29287e	-0.0025811489
100	0xbbc1c892	-0.0059138024
101	0x3c073e38	0.00825458
102	0x39da82c1	0.0004167762
103	0x3b99f812	0.0046987617
104	0x3bbe6b0b	0.0058111004
105	0xbb6d507b	-0.00362113
106	0xbb3b1010	-0.002854351
107	0xbab01499	-0.0013433873
108	0x3ae1e502	0.0017234387
109	0xb94f822e	-0.00019789554
110	0xba404506	-0.0007334504
111	0x3b8962a6	0.004192668
112	0x3aecb4fb	0.0018059307
113	0xbba4a4e8	-0.005024541
114	0xba00b2e9	-0.0004909472
115	0x3b9a958d	0.004717535
116	0xbb4d0252	-0.00312819
117	0xb93a9c1d	-0.00017796499
118	0x3b524aa8	0.0032087956
119	0xba56bf70	-0.00081919786
120	0xbb579cf7	-0.0032899955
121	0xbafa97f4	-0.0019118772
122	0x3b969511	0.004595407
123	0x3b33cd6e	0.0027435678
124	0x3ad8b883	0.0016534481
125	0x3bb7f136	0.0056134714
126	0x3b32009c	0.0027161008
127	0x3aa02c04	0.0012220149

action_model._discrete_distribution.branches.0.weight f4 [9, 128]
0	0xbc566321	-0.013085158
1	0xbc0e1c29	-0.008673706
2	0x3adeaf87	0.0016989567
3	0x3b88a126	0.004169601
4	0x396fd5c7	0.00022872454
5	0xbb8a571a	-0.004221809
6	0xbc18e369	-0.009331563
7	0xbbaaaeb3	-0.005208814
8	0xbc6b3726	-0.01435641
9	0x3c77066c	0.015077215
10	0x3b5075d0	0.0031808503
11	0xbb1cf331	-0.0023948664
12	0x3c0ada54	0.008474905
13	0x3c64f848	0.0139752105
14	0xbbdf89cd	-0.006821847
15	0xbbcfbe6b	-0.0063398383
16	0x3b17128e	0.002305183
17	0xbc177e8d	-0.009246481
18	0xbc552342	-0.013008894
19	0x3ab6b9ef	0.001394091
20	0x3c0b46a6	0.008500731
21	0xb862e6a8	-5.4097414e-05
22	0xbbf12882	-0.0073595652
23	0xbb39fc9f	-0.0028379334
24	0x3b199e70	0.0023440383
25	0x3a9d6868	0.0012009265
26	0xbbf2d55a	-0.0074106874
27	0x3ca209d7	0.019780083
28	0x3c0cd29c	0.008595135
29	0x3aa67688	0.001270012
30	0xbab17784	-0.0013539647
31	0x3c3d6b29	0.0115611935
32	0x3c02cfba	0.007984096
33	0x3c5f0eb1	0.013614343
34	0xbc09356d	-0.008374554
35	0xbc12c3e6	-0.008957839
36	0x3ae7bd48	0.0017680312
37	0x3b8705b9	0.0041205552
38	0xbc13f19a	-0.00902977
39	0x3a770716	0.0009423358
40	0xbbb356db	-0.0054730005
41	0x3b06030a	0.0020448589
42	0xb9b5ee17	-0.000347004
43	0x3b6268d2	0.003454734
44	0xbb14bff0	-0.0022697411
45	0xbc7c35e3	-0.015393707
46	0xbc1b9126	-0.009495055
47	0x3bc3b0c6	0.005972001
48	0x39b2f62a	0.00034134212
49	0x3bb9903a	0.005662945
50	0xbc94475e	-0.018100437
51	0x3a8cd357	0.0010744137
52	0x3b809f10	0.0039252117
53	0x3bc775ee	0.0060870564
54	0xbb933768	-0.004492689
55	0x3cbbc2c5	0.022920022
56	0x3c23ee38	0.010005526
57	0x3b62d92a	0.0034614303
58	0x3c45048d	0.012025011
59	0x3b16d701	0.0023016336
60	0xbb20af48	-0.0024518538
61	0xbb4ded1f	-0.0031421853
62	0xb9c1dbbf	-0.00036975552
63	0xbba1abd0	-0.0049338117
64	0x3c6f9cf6	0.014624825
65	0x3c94d727	0.018168999
66	0x38e098c7	0.00010709609
67	0x3c690b2d	0.014223856
68	0x3c413187	0.011791593
69	0x3bcebf81	0.00630945
70	0x3aded7be	0.0017001552
71	0xbba6a8af	-0.0050860266
72	0x3cb10409	0.02160837
73	0x3c842895	0.016132632
74	0x3cdec7b9	0.027194845
75	0xbb5be742	-0.0033554588
76	0x3b394612	0.0028270525
77	0x3bbdffb3	0.005798304
78	0x3bade3c0	0.005306691
79	0x3c322770	0.01087366
80	0x3be788e4	0.007065879
81	0x3c6cdf89	0.014457592
82	0x3b30bb20	0.0026967004
83	0x3bbda229	0.0057871533
84	0xbbb82fe3	-0.005620943
85	0xbca04ec7	-0.019568814
86	0xbb894db5	-0.0041901716
87	0xbc81cdbc	-0.015845172
88	0xbbccabe5	-0.0062460774
89	0xbc51db2c	-0.012808602
90	0xbc7b955a	-0.015355432
91	0xbb95b74f	-0.004568971
92	0xbc1489be	-0.009066043
93	0xbb8c864d	-0.004288471
94	0xbbaee261	-0.005337045
95	0x39c8852e	0.000382462
96	0x3b14ccc2	0.0022705053
97	0xbc41cf4a	-0.011829207
98	0x3c84065a	0.01611631
99	0xbb176803	-0.0023102767
100	0x39440e14	0.00018697261
101	0xbc8da2fc	-0.017289631
102	0xbc901133	-0.017586326
103	0xbc579b5f	-0.013159602
104	0x3b8b7e3d	0.004256992
105	0x3c99ce6b	0.018775186
106	0xbba48bde	-0.0050215563
107	0x39c433fd	0.00037422767
108	0xbbbb7193	-0.005720326
109	0xbc1845ba	-0.009293968
110	0xbbd79530	-0.006579064
111	0x37f51705	2.9216995e-05
112	0xbbc640e1	-0.0060502146
113	0xbb501cbe	-0.0031755413
114	0x3b24924a	0.002511161
115	0xbca83edb	-0.020537784
116	0x3c1c8fd8	0.009555779
117	0x3b4ec743	0.0031551875
118	0xbc89112d	-0.016731823
119	0x3b9ba765	0.0047501796
120	0xbb7fae82	-0.0039013927
121	0x3c854a4f	0.016270785
122	0xba8538e6	-0.0010164052
123	0xbb981434	-0.0046410803
124	0xba2cfe0b	-0.00065991346
125	0xbc1a36a9	-0.009412446
126	0xbb783e3d	-0.0037878894
127	0xba281b5d	-0.0006412769
128	0xbc11f195	-0.008907695
129	0x3c1ab9bf	0.009443699
130	0x3c5feacc	0.01366682
131	0xbc8077b0	-0.015682071
132	0x3c2fd20b	0.0107312305
133	0x3c38b18f	0.011272802
134	0x3b08cddf	0.0020874662
135	0xbc0ae91a	-0.008478427
136	0x3b6f6ae7	0.0036532225
137	0xbbb3db34	-0.0054887775
138	0x3c8d9846	0.017284524
139	0x3b0e0cc7	0.0021675096
140	0x3b347663	0.0027536384
141	0x3c49da46	0.012320107
142	0xbb2ac14f	-0.0026055162
143	0x3c17c96f	0.009264334
144	0xbb1d6566	-0.0024016737
145	0x3a10c1fd	0.00055220706
146	0x3bb1948b	0.005419319
147	0xbcd1a5ab	-0.025591692
148	0xbbc9d156	-0.006158988
149	0xbbbb8152	-0.0057222033
150	0x3bf11278	0.007356938
151	0x3c20705f	0.009792416
152	0x3b85fb80	0.004088819
153	0x3bccea9b	0.006253553
154	0xb80f6391	-3.4186585e-05
155	0xba3f64b2	-0.00073010765
156	0xbb194364	-0.0023386115
157	0x3c55ae75	0.013042082
158	0x3b2bbf16	0.0026206425
159	0x3c6aa032	0.01432042
160	0x383061ba	4.2052685e-05
161	0x3922c59f	0.00015523144
162	0xbb0b0ef8	-0.002121864
163	0xb9c24716	-0.00037055527
164	0xbb35af46	-0.002772288
165	0xbc24924c	-0.0100446455
166	0x3a10fe44	0.00055310526
167	0x3be74009	0.007057194
168	0x3c01b06f	0.0079156
169	0xbc231595	-0.009953876
170	0x3b17fd4e	0.0023191753
171	0xbc2d1d5b	-0.010566081
172	0xbc58d2e6	-0.013233876
173	0x3af33777	0.0018555959
174	0x3c06921c	0.008213546
175	0xbc160fc4	-0.009159032
176	0x3c528892	0.012849944
177	0xbc4fee34	-0.012691069
178	0x3b93f76f	0.0045155804
179	0xbb2bbc99	-0.0026204942
180	0x3c203901	0.009779216
181	0xbc07e1c0	-0.008293569
182	0xbbc76b97	-0.0060858238
183	0x3bb97707	0.005659941
184	0x3c3996fc	0.011327501
185	0xbb9f198a	-0.0048553394
186	0x3c04b034	0.008098651
187	0xbc8b8521	-0.017031254
188	0xbbcc3a23	-0.0062325164
189	0x3bc06877	0.005871828
190	0xbb57523c	-0.0032855412
191	0x3a3d785c	0.0007227713
192	0x3b8f1fff	0.004367828
193	0xbbbae555	-0.005703608
194	0xbc105a26	-0.008810556
195	0x3c0e78b4	0.00869577
196	0x3bb8c8e6	0.0056391833
197	0x3ba1c7c2	0.004937143
198	0xbbca8ddb	-0.0061814613
199	0x3b304341	0.0026895555
200	0xb962c321	-0.00021625731
201	0xbbfadcf0	-0.0076557323
202	0x3b36ee0b	0.002791288
203	0xbc22276e	-0.009897096
204	0xbb088c78	-0.002083568
205	0xbbadb0a0	-0.0053005964
206	0x3c8946d4	0.016757406
207	0x3c9b5e5b	0.01896589
208	0x3b98cf8e	0.0046634143
209	0x3c82f967	0.015988065
210	0xbc944ebb	-0.018103948
211	0x3b8a2808	0.004216198
212	0xbba84c1c	-0.005136026
213	0xbb0e3906	-0.002170147
214	0x3bdb15ff	0.0066859717
215	0x3ba8f159	0.005155724
216	0xba16e9ca	-0.0005756883
217	0x3b8386f5	0.004013891
218	0x3c0bc6d4	0.008531291
219	0xbc2dfdf6	-0.010619631
220	0xbc83b762	-0.016078655
221	0x3b61ea89	0.003447207
222	0x3bf984e4	0.0076147188
223	0xbc32c9ea	-0.010912398
224	0x3baeea62	0.005337999
225	0x3c369b75	0.011145462
226	0x3c14c80a	0.009080896
227	0xbb82d90a	-0.003993158
228	0x3c7b0e75	0.015323271
229	0x3bc8317c	0.0061094146
230	0x3c404063	0.011734101
231	0x3c977ea9	0.018493013
232	0x3b663940	0.0035129339
233	0x39c14b1a	0.00036867784
234	0x3c69cf9c	0.014270689
235	0xbc7b7883	-0.015348556
236	0xbb869464	-0.004107045
237	0x3b93e83b	0.004513768
238	0xbb2d28fb	-0.0026422131
239	0x3ba064e4	0.0048948396
240	0x3c99e220	0.018784583
241	0xbc38a9b1	-0.011270926
242	0x3c9affec	0.018920861
243	0xbc2f6f7b	-0.010707731
244	0xbad14595	-0.0015966172
245	0xbc4aa306	-0.012367969
246	0xbc89cd67	-0.016821576
247	0x3bb3fa84	0.0054925103
248	0x3b42ccce	0.0029724124
249	0x3c71e12b	0.014763157
250	0xbc96f7e3	-0.018428748
251	0xbc8122c6	-0.015763652
252	0x3c73b533	0.014874744
253	0xbad803c5	-0.0016480616
254	0xbc20cd53	-0.009814578
255	0xbc047731	-0.008085058

action_model._discrete_distribution.branches.0.bias f4 [9]
0	0xbbc88886	-0.0061197905
1	0xba6f6ada	-0.00091330486
2	0x3a55041d	0.0008125918
3	0x3b588707	0.0033039467
4	0xb902f185	-0.00012487739
5	0x3a5ee6b9	0.0008503008
6	0x3b89188b	0.004183834
7	0x3a0190b0	0.00049425196
8	0xbb683f80	-0.003543824
