Assets/defender_4.onnx (onnx, 96621 bytes, 6 tensors)

network_body._body_endoder.seq_layers.0.weight f4 [128, 40]
0	0xbe768395	-0.24073632
1	0xbcca4f7a	-0.0246961
2	0x3cecaee4	0.028891988
3	0xbe1e4c81	-0.15458871
4	0xbd5ee7cd	-0.05442028
5	0x3cccdfe6	0.025009107
6	0xbe82e381	-0.25564197
7	0x3dc43797	0.095809154
8	0x3e54de82	0.20788005
9	0x3c93fe9f	0.018065749
10	0xbe5c2b7f	-0.21500967
11	0x3e56cf9c	0.20977634
12	0xbe7d5868	-0.24740756
13	0x3d8da7cb	0.069167696
14	0xbe53ac8b	-0.20671289
15	0xbe052240	-0.13001347
16	0xbcd1807b	-0.02557396
17	0xbe4278af	-0.1899135
18	0x3ed5cc93	0.4175764
19	0xbdd9fac3	-0.10643532
20	0xbe1d113e	-0.15338609
21	0xbc30ed32	-0.010798739
22	0x3dbd8e0a	0.092556074
23	0x3e235a5b	0.15952437
24	0x3e6f9ec2	0.23400405
25	0xbe0f2b07	-0.13981257
26	0x3d8b18b7	0.06791823
27	0x3dc7105b	0.097199164
28	0x3e4e165f	0.20125721
29	0x3d5c1683	0.053732406
30	0x3e18b8a6	0.14914188
31	0xbe3319ed	-0.17490359
32	0xbd5b84e5	-0.053593535
33	0x3de9b347	0.114111476
34	0xbdfbfb8f	-0.1230384
35	0x3db5ac03	0.08870699
36	0x3c2850b0	0.010273144
37	0xbd032c4a	-0.03202466
38	0x3caba62f	0.020953266
39	0x3cd9fcb5	0.026609758
40	0xbcd04186	-0.025421869
41	0xbe866ef7	-0.26256534
42	0xbdf3be37	-0.11901515
43	0x3d8b0e7b	0.06789871
44	0xbd440368	-0.04785481
45	0x3e7c9336	0.24665532
46	0xbe874388	-0.2641871
47	0xbe6077c0	-0.21920681
48	0xbe13b392	-0.1442397
49	0xbea641c1	-0.3247204
50	0x3e3a015f	0.18164586
51	0xbdb24a8f	-0.08705627
52	0xbd85b91c	-0.065294474
53	0x3c66bc9e	0.014083056
54	0xbe7892b8	-0.24274719
55	0x3dac76bf	0.084210865
56	0x3e16d001	0.14727785
57	0xbb18eee2	-0.0023335745
58	0xbde09763	-0.10966375
59	0xbe94a9ac	-0.290357
60	0xbdf7bb8d	-0.12096319
61	0x3e17a2d0	0.14808202
62	0xbe61ac48	-0.22038376
63	0xbd152f49	-0.036422048
64	0x3d75b194	0.059983805
65	0xbe6ce84e	-0.23135492
66	0x3e21c17d	0.15796466
67	0x3eaaac3d	0.33334532
68	0x3e2a4fc2	0.16631988
69	0xbbec9e35	-0.007221008
70	0xbe47ba0d	-0.19504566
71	0x3e3f14e6	0.18660316
72	0x3e8a760c	0.27043188
73	0x3dd57c9e	0.104241595
74	0x3dbd21ad	0.09234939
75	0xbdd7981e	-0.10527061
76	0x3e3d2295	0.18470223
77	0xbd91b3f5	-0.07114402
78	0xbcfcee46	-0.030875336
79	0xbe3d0b54	-0.18461353
80	0xbdcae1c4	-0.099063426
81	0x3d5993c5	0.05311944
82	0xbdd09f01	-0.101865776
83	0x3e029cf9	0.12755193
84	0xbe9c69fb	-0.30549607
85	0xbd24bdae	-0.040219955
86	0xbdf3256d	-0.11872373
87	0x3d70a04c	0.05874662
88	0x3de9fd79	0.11425299
89	0x3d3022fb	0.04300211
90	0xbe499e45	-0.19689281
91	0x3e609a9b	0.21933977
92	0xbc2fd3c8	-0.010731645
93	0xbd369e5a	-0.04458461
94	0xbea843ca	-0.3286422
95	0xbd6ce40b	-0.057834666
96	0x3df0a213	0.11749663
97	0xbd2bcd5c	-0.041943893
98	0xbe00598f	-0.12534164
99	0xb9d7a580	-0.00041131303
100	0x3e384dcc	0.17998427
101	0x3e077ee2	0.13231996
102	0xbd62354a	-0.0552266
103	0xbc93d55a	-0.01804607
104	0xbe707ee9	-0.23485912
105	0x3e23750c	0.15962619
106	0xbd14fdc6	-0.03637483
107	0x3d306d61	0.04307306
108	0x3dbbc676	0.09168713
109	0x3e31dc30	0.17369151
110	0xbe3fd330	-0.18732905
111	0x3e90a23b	0.28248772
112	0x3d5ac0f0	0.053406656
113	0xbe0b3f05	-0.13598259
114	0xbdb45eca	-0.08807142
115	0xbdd516cc	-0.10404739
116	0xbdaf8292	-0.08569826
117	0x3e3ea10a	0.18616119
118	0xbd88752d	-0.066629745
119	0xbd893026	-0.06698637
120	0x3d5496c9	0.051901612
121	0x3dd4f57e	0.103983864
122	0x3d8cae5a	0.068691924
123	0x3db139ee	0.08653627
124	0xbdbe5786	-0.092940375
125	0x3e26a489	0.16273703
126	0xbe2e98ec	-0.17050523
127	0xbdde3237	-0.108494215
128	0x3e0be066	0.1365982
129	0xbe224df3	-0.15850048
130	0x3e993be7	0.29928514
131	0xbc1e5963	-0.009664866
132	0xbde90e58	-0.11379689
133	0x3de01319	0.109411426
134	0x3d65eb61	0.056132678
135	0xbe43b89f	-0.19113396
136	0x3e34aa39	0.1764306
137	0xbe0126d2	-0.12612465
138	0xbd26537f	-0.04060697
139	0xbe3bbd0d	-0.18333836
140	0x3c3fb518	0.011700891
141	0xbe2355b5	-0.15950663
142	0x3c8d028c	0.017213129
143	0xbe01526a	-0.12629095
144	0x3eb5575b	0.3541821
145	0xbecdf5e0	-0.4022665
146	0x3dd79de1	0.1052816
147	0x3d5b8fe2	0.053604014
148	0x3e1236c2	0.14278701
149	0x3cdf9e5b	0.02729719
150	0xbd72e099	-0.059296224
151	0xbe88f739	-0.26751116
152	0xbcb15948	-0.021649018
153	0x3db73d95	0.08947293
154	0x3e3cbabf	0.18430613
155	0xbecacf2a	-0.3961118
156	0xbe7f0f9a	-0.24908295
157	0x3dfb9960	0.12285113
158	0x3eb2983c	0.3488177
159	0xbe10f5e0	-0.14156294
160	0xbdd70d73	-0.10500612
161	0xbe39a4de	-0.18129298
162	0x3d719093	0.058975767
163	0x3de3c543	0.11121609
164	0x3e00e519	0.12587394
165	0xbe8242f1	-0.25441697
166	0xbcaaf784	-0.020869978
167	0xbd8c655f	-0.068552725
168	0x3ec32984	0.3811761
169	0x3e41fe0f	0.18944572
170	0xbe1af80f	-0.1513369
171	0xbcf57852	-0.0299646
172	0xbca32ec1	-0.019919755
173	0x3dc7fe27	0.097652726
174	0xbdcddf81	-0.100523956
175	0x3ca827c6	0.020526778
176	0xbe092c7e	-0.13395879
177	0xbc6ad882	-0.014333846
178	0x3ca510ce	0.020149615
179	0x3cf4be66	0.029875945
180	0x3dafd16c	0.08584866
181	0x3edc794b	0.4306129
182	0x3daae974	0.08345309
183	0x3c8bbf13	0.017058885
184	0xbd4ccfe2	-0.05000294
185	0xbc505285	-0.012714987
186	0xbe80baa1	-0.25142387
187	0x3bce20a6	0.006290513
188	0x3ddc7a18	0.10765475
189	0xbdcd454f	-0.10022985
190	0x3e4899e0	0.19589949
191	0x3d8527b1	0.06501711
192	0x3e6b489d	0.22976919
193	0xbc70526a	-0.014668087
194	0xbe0638ec	-0.13107651
195	0xbe40f0e4	-0.18841892
196	0x3e864986	0.2622797
197	0xbe600dc9	-0.21880259
198	0xbe0d269c	-0.1378426
199	0x3c3496c0	0.01102227
200	0xbe53d8df	-0.20688199
201	0x3cee8371	0.02911541
202	0x3cd90eeb	0.026496371
203	0xbe857e13	-0.2607275
204	0xbded5c42	-0.115898624
205	0x3dc77a0d	0.09740076
206	0xbdd14372	-0.10217942
207	0x3e254061	0.1613784
208	0x3e4e4353	0.2014287
209	0x3e7c1215	0.24616273
210	0x3e68d10b	0.22735994
211	0xbdc1f5c6	-0.09470706
212	0x3e5dfae1	0.21677734
213	0x3e255fd2	0.16149834
214	0xbdbd7424	-0.09250668
215	0xbc7af164	-0.015316341
216	0x3eaeb969	0.34125832
217	0x3e27d77f	0.16390799
218	0x3cbbad4e	0.022909787
219	0xbe7716f9	-0.24129857
220	0xbd8a4fa2	-0.0675347
221	0xbe073eb9	-0.1320752
222	0xbdbfcdae	-0.09365402
223	0xbc1a90bc	-0.009433921
224	0x3e294025	0.16528375
225	0x3d3b0d8a	0.04566721
226	0xbe0ae071	-0.1356218
227	0xbbaba750	-0.005238451
228	0xbe5c2ab5	-0.21500666
229	0xbd9fa1ae	-0.0779451
230	0x3e80f65e	0.25187963
231	0xbe71610d	-0.23572178
232	0xbdcd25cb	-0.10016974
233	0x3e33a674	0.17543966
234	0x3e216f5b	0.15765135
235	0xbe057561	-0.13033058
236	0xbe118381	-0.14210321
237	0xbd9b2f77	-0.075774126
238	0xbc75dd69	-0.015006402
239	0x3dc51930	0.09623945
240	0x3e021ae9	0.12705578
241	0x3e3708c9	0.17874445
242	0x3c594086	0.0132600125
243	0xbde32960	-0.11091876
244	0x3e503901	0.20334245
245	0x3defec40	0.11714983
246	0xbd8aed88	-0.06783587
247	0xbeb01b47	-0.3439581
248	0x3d3d2143	0.0461743
249	0x3e29c3d9	0.16578616
250	0xbe690da3	-0.22759108
251	0xbe459d14	-0.19298202
252	0x3d569c97	0.05239543
253	0x3de10956	0.10988109
254	0xbd97b0c8	-0.07406765
255	0xbd6c447a	-0.05768249

network_body._body_endoder.seq_layers.0.bias f4 [128]
0	0xbbd226f8	-0.006413337
1	0xbc96ad90	-0.018393308
2	0xbbf760c3	-0.0075493767
3	0x3be195bc	0.006884305
4	0x3b34788c	0.0027537672
5	0x3bc1b056	0.0059109135
6	0x3c69a93d	0.014261541
7	0x3b88291a	0.0041552903
8	0x3b12cd05	0.0022400033
9	0xbc2b9418	-0.01047232
10	0xbc0e43e9	-0.008683183
11	0xbbdfad8e	-0.0068261093
12	0xba1d11ab	-0.00059917074
13	0xbc74d517	-0.014943383
14	0x3981e7f8	0.00024777628
15	0xbb8ba5d7	-0.004261713
16	0x3b279a3d	0.002557411
17	0x3c1849e6	0.0092949625
18	0xbb8241c9	-0.0039751274
19	0xbafb9314	-0.0019193613
20	0xbbb5a6ec	-0.0055435803
21	0x3ac251b1	0.0014825371
22	0x3acec63e	0.0015775634
23	0x3b1a7e4d	0.0023573816
24	0xbbc0cb9f	-0.0058836485
25	0x3c136106	0.0089953
26	0xbb934afc	-0.004495023
27	0xbb081afc	-0.0020768037
28	0xb8c5771c	-9.415878e-05
29	0x39393004	0.00017660862
30	0x3bbe879c	0.0058145057
31	0x3bc25db8	0.0059315823
32	0x3b215e05	0.002462269
33	0xbb5c35c5	-0.0033601385
34	0xbaf9d9ca	-0.0019062099
35	0x3b5b5f4d	0.0033473552
36	0x3bb956d0	0.005656101
37	0xba3dd932	-0.00072421425
38	0x3c8df29f	0.017327605
39	0x3a0c8530	0.00053604227
40	0xbb3b2228	-0.0028554294
41	0x3b93ff7b	0.0045165396
42	0x3b3ccad0	0.002880741
43	0x3ab4f4a4	0.0013805819
44	0xbae40eb6	-0.0017399404
45	0x3bd01373	0.006349975
46	0xbb5b916b	-0.0033503424
47	0x3b7a5a99	0.0038200973
48	0x3bc244b1	0.005928599
49	0x3b3c8265	0.0028764245
50	0x38941642	7.061336e-05
51	0xba92b15f	-0.0011191777
52	0x3c6326a5	0.013864194
53	0xbc66ca91	-0.0140863815
54	0xbc65ecd1	-0.014033512
55	0xbc942874	-0.018085696
56	0xba8f624e	-0.0010939331
57	0x3caf1f09	0.021377103
58	0x3b8a4b67	0.0042204144
59	0xbc8ab9cc	-0.016934298
60	0xbc143cdb	-0.009047712
61	0x3bdb38e5	0.006690132
62	0xbc0e9cae	-0.008704348
63	0xbabf756e	-0.001460714
64	0x3a030723	0.0004998317
65	0xbc3bd0e8	-0.011463381
66	0xbc5af0c0	-0.013363063
67	0x3aa847a4	0.0012838733
68	0x3a965658	0.0011469824
69	0xbbd29d3e	-0.006427436
70	0xbbee2ecd	-0.0072687627
71	0x38d859b8	0.00010316394
72	0x3b9be9fe	0.0047581187
73	0xbc32b71d	-0.010907915
74	0x3b190d9e	0.0023354064
75	0xbccd66e2	-0.025073472
76	0xbbb9cb14	-0.0056699608
77	0x3bfb75e1	0.0076739644
78	0xbc1f9c10	-0.009741798
79	0x3a2960e9	0.0006461279
80	0xbb7c084c	-0.0038457094
81	0xbb85fea6	-0.0040891943
82	0x3af5c811	0.0018751641
83	0x3c9a16c4	0.018809684
84	0xbc389f8d	-0.011268509
85	0x3ae27388	0.0017276863
86	0xbc2cd999	-0.010549926
87	0x3c771b93	0.015082258
88	0x3c200e6d	0.009769064
89	0x3b5a1912	0.0033279103
90	0xbc41a8ae	-0.0118200015
91	0xbbd0ccf3	-0.006372088
92	0x3aec9055	0.0018048385
93	0xbc8c390d	-0.017117048
94	0xbbb0da5b	-0.0053971238
95	0xbc97b02c	-0.018516622
96	0xbbb84bf2	-0.0056242878
97	0xbbe4154a	-0.0069605457
98	0xbc1b4bd0	-0.009478524
99	0xbbb730c0	-0.0055905282
100	0xbbcd1249	-0.0062582833
101	0x3b915dc4	0.0044362266
102	0xbbfdfb36	-0.007750894
103	0xbc18b9b4	-0.009321619
104	0x3c015990	0.0078948885
105	0x3be532ed	0.006994596
106	0x3b3eb5d4	0.0029100077
107	0xbb2079c9	-0.0024486652
108	0x3c24d869	0.010061362
109	0x3baab3e6	0.005209434
110	0xbc23ccd7	-0.009997568
111	0xbb338136	-0.0027390248
112	0x3aabc81c	0.0013105902
113	0x3bd8d3ab	0.0066170297
114	0xbc40f16d	-0.01177631
115	0xbb3ff8e7	-0.0029292644
116	0xbc2bd05d	-0.010486689
117	0xba313373	-0.00067596807
118	0xba54d5fe	-0.00081190455
119	0x3b962e0c	0.004583126
120	0x3b3b196f	0.0028549095
121	0xbbbb91af	-0.005724154
122	0xbb82e987	-0.003995124
123	0x3af98fae	0.0019040012
124	0xb9e78546	-0.0004415905
125	0xb8c92820	-9.591901e-05
126	0x3a5e1ae1	0.0008472633
127	0x3b05d585	0.0020421457

network_body._body_endoder.seq_layers.2.weight f4 [128, 128]
0	0xbdae1c20	-0.08501458
1	0xbd54dc65	-0.051967997
2	0xbbc6bc37	-0.0060649174
3	0xbd9a5179	-0.07535071
4	0x3ca605e8	0.020266488
5	0xbcaf6c94	-0.021414079
6	0x3e1ea61f	0.15493058
7	0xbd47c43a	-0.04877112
8	0x3dd94c89	0.10610301
9	0xbc8a4db4	-0.016882755
10	0x3dce1338	0.100622594
11	0xbb2263e6	-0.0024778782
12	0xbd448506	-0.047978424
13	0x3c1992e6	0.009373402
14	0xbd9a6bd2	-0.07540096
15	0x3e48f6b9	0.19625367
16	0xbcd90c1f	-0.026495038
17	0xbce8a80e	-0.028400447
18	0xbdca42e1	-0.098760374
19	0xbd42146e	-0.047382765
20	0xba392941	-0.0007063337
21	0xbcdffb69	-0.027341561
22	0xbe0915ca	-0.13387218
23	0xbe4d4e2a	-0.20049348
24	0x3d0d7016	0.03453072
25	0x3c4b51cc	0.012409639
26	0x3dcfc940	0.10145807
27	0xbd1c0c54	-0.038097695
28	0x3db2b8ba	0.0872664
29	0xbdf0d407	-0.11759191
30	0xbd355bc9	-0.044276986
31	0xbdfc9979	-0.1233396
32	0x3c86b34d	0.01644292
33	0xbdccc235	-0.099979796
34	0x3c9381b9	0.018006193
35	0x3db9e032	0.09075965
36	0x3c470326	0.012146747
37	0xbcf00e0c	-0.029303573
38	0x3e0277e3	0.12741046
39	0x3d1b03a8	0.037845284
40	0xbe0100ad	-0.12597914
41	0xbe087392	-0.13325337
42	0x3c3bbdfa	0.011458868
43	0x3e1df6be	0.15426156
44	0xbd7d4c25	-0.061840195
45	0xbd2ade31	-0.041715804
46	0x3c00b510	0.007855669
47	0xbd344472	-0.044010587
48	0xbd8ae4c9	-0.067819186
49	0xbdbf0ad2	-0.09328236
50	0xbe0f36e6	-0.13985786
51	0xbd3bfe59	-0.04589686
52	0xbe0973f1	-0.13423134
53	0xbe207d5c	-0.15672821
54	0xbd0fce90	-0.035109103
55	0x3d8d3423	0.0689471
56	0x3d68fe18	0.056882948
57	0xbe12c883	-0.14334302
58	0xbd12bdde	-0.035825603
59	0xbbf9b45e	-0.0076203784
60	0x3d00c768	0.03144017
61	0xbb96b833	-0.004599595
62	0xbb35e33a	-0.0027753846
63	0xbbb4ca87	-0.005517307
64	0xbc9f1314	-0.019418277
65	0xbc94485e	-0.018100914
66	0xbc3e7223	-0.011623892
67	0x3ce2ba2a	0.02767666
68	0x3d1cc5ac	0.038274452
69	0x3d813f26	0.06310873
70	0xbbcbb336	-0.006216432
71	0x3c7185ea	0.0147414
72	0x3c29026b	0.010315518
73	0xbd37e696	-0.04489764
74	0xbe2c4838	-0.16824424
75	0x3cc1ec2f	0.023672191
76	0x3dbc4f01	0.09194756
77	0xbd4051ca	-0.046953
78	0xbd3fba96	-0.0468088
79	0xbe38454e	-0.17995188
80	0xbe13c575	-0.14430793
81	0x3e0bcd6e	0.13652584
82	0xbd8e35be	-0.06943844
83	0xbdaca685	-0.084301986
84	0xbe2d7293	-0.16938238
85	0xbd616ecd	-0.05503731
86	0xbdb8794d	-0.09007511
87	0x3cc9bcc4	0.024626143
88	0x3dba84af	0.09107339
89	0xbb88a190	-0.0041696504
90	0xbda5cc52	-0.08095612
91	0xbdaf115e	-0.085482344
92	0xbe269924	-0.16269356
93	0xbe0f7a86	-0.14011583
94	0x3da1eac0	0.07906103
95	0xbbcbed81	-0.006223381
96	0x3d4aafba	0.049483992
97	0xbe11b6b5	-0.14229853
98	0x3d0e0de6	0.034681223
99	0xbbe41310	-0.0069602802
100	0xbcedb60a	-0.029017467
101	0x3c6b6fc4	0.014369909
102	0xbe89e8df	-0.2693548
103	0xbdf11f1a	-0.1177351
104	0xbd2bf54c	-0.04198198
105	0x3c9bf3e6	0.019037198
106	0x3ae6acc5	0.0017599097
107	0xbe2eb29e	-0.17060325
108	0xbc10bb95	-0.008833786
109	0x3d0763a4	0.03305401
110	0x3c470fb4	0.01214974
111	0xbdafec76	-0.08590023
112	0xbdca9644	-0.09891942
113	0x3e1e7170	0.1547296
114	0xbbbe47c4	-0.005806895
115	0xbdcec740	-0.10096598
116	0xbbb8501a	-0.005624783
117	0x3e0d666b	0.138086
118	0xbe05e0da	-0.13074055
119	0xbe37be24	-0.17943627
120	0xbc170fb4	-0.0092200525
121	0xbcd6e545	-0.026232371
122	0x3d919e9d	0.07110331
123	0xbde109c2	-0.10988189
124	0x3c34bd88	0.011031516
125	0xbdcb0418	-0.0991289
126	0xbc53a722	-0.012918266
127	0xbdaac29b	-0.08337899
128	0xbd8babf5	-0.068199076
129	0x3b7dcb2f	0.0038725843
130	0x3d37690c	0.044777915
131	0x3e0030a0	0.12518549
132	0xbc1a7631	-0.009427593
133	0x3b99e950	0.0046970025
134	0x3d939f05	0.07208065
135	0xbdd42a1f	-0.103595965
136	0xbc72b472	-0.014813529
137	0x3ddb17c6	0.10697894
138	0xbd8d2abd	-0.06892917
139	0x3d6d9f41	0.058013204
140	0xbdc46a4a	-0.095905855
141	0x3e342047	0.17590438
142	0xbc351ae0	-0.011053771
143	0x3d80ea40	0.0629468
144	0xbc97a8f1	-0.018513175
145	0x3c9e4fa0	0.019325078
146	0xbd97d402	-0.07413484
147	0x3dd87ae8	0.105703175
148	0x3de1e7be	0.110305294
149	0xbe15168a	-0.14559379
150	0xbc645042	-0.013935151
151	0xbddd8393	-0.108161114
152	0x3ca93719	0.020656155
153	0x395a8a33	0.00020841583
154	0x3d5eb821	0.054374818
155	0x3cc8c18f	0.024506358
156	0x3d3ae54b	0.045628827
157	0x3ddcf5d6	0.10789077
158	0xbd04b38d	-0.032397795
159	0xbe58637f	-0.21131705
160	0x3d9b977d	0.075972535
161	0xbe3b9f1b	-0.18322413
162	0x3e038cb7	0.12846647
163	0x3dd93723	0.106062196
164	0x3c791639	0.015203052
165	0xbbb56f74	-0.005536968
166	0x3d57380b	0.05254368
167	0xbe05eb02	-0.1307793
168	0x3c76453b	0.015031154
169	0x3da55d36	0.08074419
170	0x3bd65a52	0.0065415287
171	0x3d4c00ed	0.04980557
172	0xbdac2635	-0.08405725
173	0xbd42e971	-0.04758591
174	0x3dc9fc6d	0.098625995
175	0xbce7e709	-0.028308408
176	0x3e1601eb	0.14649169
177	0xbe30a8a5	-0.17251833
178	0xbe1f7b2f	-0.15574335
179	0xbd92ce13	-0.07168212
180	0xba71e55f	-0.00092275994
181	0x3dbd02ea	0.092290714
182	0xbd29ec3c	-0.041485056
183	0x3defc59a	0.117076114
184	0xbdcc5a83	-0.09978201
185	0x3d93c0df	0.072145216
186	0x3d1b497c	0.037911877
187	0xbc139334	-0.009007264
188	0xbd234c17	-0.039867487
189	0x3da0cf3c	0.07852027
190	0xbcd0b4a9	-0.02547677
191	0x3d8661cf	0.06561624
192	0x3e0f5c70	0.14000106
193	0x3c8ed0f9	0.01743363
194	0x3d2aa2d6	0.0416592
195	0x3b2a194a	0.0025955015
196	0xbdc4e9d4	-0.09614912
197	0x3d3255ba	0.043538786
198	0x3d489de0	0.048978686
199	0x3dc7f1d3	0.09762921
200	0x3d26da05	0.040735263
201	0x3d80d5ff	0.062908165
202	0xbdefee8f	-0.11715423
203	0x3dd7567a	0.10514541
204	0xbd5f7473	-0.054554414
205	0x3d940fe6	0.07229595
206	0xbd426cfd	-0.04746722
207	0xbd75ac95	-0.05997904
208	0x3debde0f	0.11516964
209	0x3c163c66	0.009169674
210	0xbdb83b6b	-0.08995708
211	0xbdb797fd	-0.08964536
212	0xbcd9fa20	-0.026608527
213	0xbdf802ef	-0.121099345
214	0x3c31eba5	0.010859405
215	0xbe0b5565	-0.13606794
216	0xbdab3387	-0.083594374
217	0x3dba3cca	0.09093626
218	0xbc508680	-0.01272738
219	0x3a4ac1a6	0.00077345443
220	0xbc269b3e	-0.010168849
221	0x3e03007c	0.12793154
222	0xbd613d24	-0.05498995
223	0x3e01ba26	0.12668666
224	0xbe127d85	-0.14305694
225	0xbd961ae8	-0.07329351
226	0xbdde632d	-0.1085876
227	0x3d5d0c3d	0.05396675
228	0x3b33311d	0.0027342506
229	0xbdf6fbb8	-0.1205973
230	0xbd4e4517	-0.050358858
231	0xbcc8a81a	-0.02449422
232	0xbe0d3f27	-0.13793622
233	0xbd7fa8cb	-0.062416833
234	0x3de1f0d0	0.110322595
235	0xbc511081	-0.0127602825
236	0x3e090b36	0.13383183
237	0xbcae331b	-0.021264603
238	0xbd9a9926	-0.07548742
239	0xbd95f91d	-0.07322905
240	0x3de5750f	0.11203968
241	0x3d38f04d	0.045151044
242	0xbdf467c4	-0.11933854
243	0x3e26400e	0.16235372
244	0xbdf2d51e	-0.11857055
245	0x3dc6761f	0.096904986
246	0x3e31d66a	0.17366949
247	0x3d5ea08f	0.05435234
248	0x3d4e91c2	0.050431974
249	0x3d358e4e	0.044325165
250	0xbd8857be	-0.066573605
251	0x3d809b84	0.06279662
252	0x3db665a5	0.08906106
253	0xbe24a53a	-0.16078654
254	0xbd6c6020	-0.05770886
255	0xbd12dc3c	-0.035854563

network_body._body_endoder.seq_layers.2.bias f4 [128]
0	0x3c0b65cf	0.00850816
1	0xbba55808	-0.0050458945
2	0x3a5c6f59	0.0008408926
3	0x3b2e4cd5	0.0026596088
4	0x3b9bb33d	0.0047515915
5	0xbc2a9baf	-0.010413094
6	0x3c899b85	0.01679779
7	0x3a8acbb9	0.0010589279
8	0x3c066a18	0.008204006
9	0xbbf4baa9	-0.0074685407
10	0x3a367a2b	0.00069609535
11	0xbbaa8379	-0.005203661
12	0x3a9558e7	0.0011394293
13	0xbb08eb97	-0.0020892376
14	0xbb90c407	-0.0044178995
15	0xbbea72ab	-0.007154783
16	0x3aafb4c1	0.0013405309
17	0x3bb9ac9b	0.005666328
18	0xbbd58f46	-0.0065173237
19	0xbb100a0b	-0.0021978642
20	0xbb0517dd	-0.0020308413
21	0xbb6ca5ad	-0.0036109493
22	0x3aa6a943	0.0012715239
23	0xbb6b7880	-0.0035929978
24	0xbafc4d18	-0.001924905
25	0x3aba7fc8	0.0014228756
26	0xbae6392d	-0.0017564647
27	0xbb2c458f	-0.0026286577
28	0xba944dad	-0.0011314653
29	0xb9abb707	-0.00032752028
30	0x3bfba83a	0.0076799663
31	0x3bb7c972	0.005608731
32	0xbb997eb2	-0.0046842927
33	0xbb9a6a23	-0.0047123595
34	0xb9310606	-0.0001688228
35	0xbaa30b1a	-0.0012439222
36	0xba653988	-0.00087442296
37	0x3c360fa0	0.011112124
38	0xbb806ad7	-0.0039189863
39	0x3cb4d9bf	0.022076486
40	0xbb9cf2c0	-0.0047896802
41	0x3c5b1315	0.013371249
42	0xbb11ebd8	-0.0022265818
43	0x3ab3f2d2	0.0013728982
44	0x3b4d0fe8	0.0031289998
45	0x368ad603	4.1376347e-06
46	0x3b4f68dc	0.0031648194
47	0xbb40bcfb	-0.0029409516
48	0x3959100a	0.00020700708
49	0x3ac04307	0.0014668413
50	0x3bf02484	0.0073285718
51	0xbb9ec3e9	-0.0048451317
52	0x3a94e85d	0.0011360754
53	0x3c059daa	0.008155266
54	0x3aad2af4	0.0013211654
55	0x3c95ab32	0.018270109
56	0xbba24c1d	-0.004952921
57	0x3ad4ab45	0.0016225359
58	0x3b074313	0.0020639345
59	0x3be58d2d	0.007005355
60	0xbbf4cf01	-0.007470966
61	0x3aec8132	0.0018043874
62	0xbb0da8af	-0.0021615436
63	0xbc075206	-0.008259302
64	0xbb342ba0	-0.0027491823
65	0xbc22b659	-0.00993117
66	0xbb5a6b5a	-0.0033328147
67	0xbb0372ac	-0.0020057363
68	0x3c4b40a5	0.012405549
69	0xbc3e3879	-0.011610144
70	0xbc0039a7	-0.007826245
71	0xbb3156b1	-0.0027059729
72	0x3b81cb7e	0.0039610257
73	0xbb41c128	-0.0029564593
74	0xbbe75cbf	-0.0070606167
75	0x3c29332f	0.0103271445
76	0x3c1fec3f	0.009760915
77	0xbb4c4bd0	-0.0031173117
78	0xbb8404b5	-0.0040288814
79	0xbbbe17e5	-0.0058011883
80	0x3b995b89	0.0046801013
81	0xbc07274c	-0.008249115
82	0xbc069f4e	-0.008216692
83	0x3bd18bdf	0.0063948478
84	0xbb5123c8	-0.0031912196
85	0xbbf1a1cb	-0.0073740236
86	0x3ae69a13	0.0017593525
87	0xbc14da77	-0.009085289
88	0x3a102af2	0.00054995634
89	0x3b780464	0.0037844414
90	0xbbf8b528	-0.007589955
91	0xbc33b1bd	-0.010967669
92	0xbc055dd6	-0.008140048
93	0xbb5d2758	-0.0033745375
94	0xbb644bd6	-0.003483524
95	0xbb7a1e91	-0.0038165192
96	0x3bce3c7f	0.006293833
97	0xbbf30329	-0.007416148
98	0xbc0a4ca7	-0.008441127
99	0xbbd81646	-0.006594452
100	0x3a1656ed	0.0005734999
101	0xbbd15290	-0.006388016
102	0x3a5a4980	0.00083269924
103	0x3ae3a63e	0.001736827
104	0xbb862a16	-0.0040943725
105	0xbbda68d8	-0.0066653304
106	0x3c0e96a6	0.00870291
107	0xbc04a644	-0.008096281
108	0xbabae7a3	-0.0014259707
109	0xbbe7f2ae	-0.00707849
110	0xb7957e33	-1.782095e-05
111	0xbc2bfba5	-0.010497008
112	0x3c519736	0.012792399
113	0xbc2d0a8a	-0.010561595
114	0xbb84a6e5	-0.0040482157
115	0xbbdc6087	-0.006725374
116	0xbb9f001b	-0.0048523075
117	0x3a8669c1	0.0010254906
118	0x3ad60813	0.0016329311
119	0xbb31e040	-0.002714172
120	0xba90f64c	-0.001105973
121	0xbbebc025	-0.0071945363
122	0xbb9386ec	-0.004502168
123	0xbc04ea57	-0.008112512
124	0xba1293bc	-0.0005591472
125	0xbbd64542	-0.006539018
126	0xbc0ff507	-0.008786446
127	0xbc12fcba	-0.0089713875

action_model._discrete_distribution.branches.0.weight f4 [9, 128]
0	0x3cfc6939	0.030811893
1	0xbb9c135a	-0.004763049
2	0x3c839fda	0.016067434
3	0xbb4187dd	-0.0029530444
4	0xbc218dc6	-0.009860462
5	0x3c3174f0	0.010831103
6	0xbbf3082e	-0.0074167466
7	0x3cd3e6be	0.025866862
8	0xbbd818c4	-0.006594749
9	0xbba301a3	-0.0049745603
10	0xbc56760b	-0.013089667
11	0xbbcefb05	-0.006316545
12	0x3c59cdca	0.013293693
13	0xbbd037e8	-0.006354321
14	0xbb80e901	-0.003934026
15	0xbbf89980	-0.007586658
16	0xbc9d5e11	-0.019209893
17	0x3cff3567	0.031153394
18	0xbb45e451	-0.0030195902
19	0xbc662dd5	-0.014049013
20	0x3adad8e7	0.0016696722
21	0x3c0bc524	0.008530889
22	0x3910452c	0.00013758679
23	0x3ae04d3d	0.0017112863
24	0x3c068556	0.008210501
25	0xbc3a9afb	-0.011389489
26	0x3bcabe65	0.0061872476
27	0xbb8455fa	-0.0040385695
28	0xbc4f7149	-0.012661287
29	0x3c5d3f04	0.013503794
30	0xbc5785db	-0.013154472
31	0xbb342480	-0.0027487576
32	0xbbae1d3f	-0.005313545
33	0x3bbd2bcf	0.0057730447
34	0x3c23939d	0.009983924
35	0x3c978f35	0.018500904
36	0xba8cda69	-0.0010746244
37	0x3c50b662	0.012738796
38	0x3c05bedb	0.008163179
39	0x3c2f574c	0.010701966
40	0x3c717e38	0.014739566
41	0xbac56f9b	-0.0015063168
42	0xbcbe3601	-0.02321911
43	0x3bb7057b	0.00558537
44	0x3c15eaee	0.00915025
45	0x3c1552e1	0.009113998
46	0x3c776303	0.01509929
47	0xbc373eb8	-0.011184387
48	0xbc1885f4	-0.009309281
49	0xbc021796	-0.007940194
50	0xbcdd00b3	-0.026977872
51	0xbc5b6c10	-0.013392463
52	0x3ba0442d	0.0048909397
53	0xbca76b5e	-0.020436939
54	0xbbdf0395	-0.006805847
55	0x3a7dd983	0.0009683596
56	0xbbf75e1b	-0.00754906
57	0xbc6dd511	-0.014516131
58	0x3c2d4104	0.010574583
59	0xbcac07d6	-0.02099983
60	0xbbc66d23	-0.0060554906
61	0xbc0454be	-0.008076845
62	0xbcfcff71	-0.030883523
63	0x3a429f50	0.0007424252
64	0xbc941834	-0.018077947
65	0xbc6f61e2	-0.014610739
66	0x3b3106af	0.002701204
67	0xbc5ed181	-0.013599754
68	0xbc16542a	-0.00917534
69	0xbc766bf3	-0.015040386
70	0xba8978aa	-0.0010488231
71	0x3a5efe33	0.00085065066
72	0xba8b7279	-0.0010638974
73	0x3c897c97	0.016783042
74	0xbb29780a	-0.0025858902
75	0x3c8b530a	0.01700737
76	0xbbdc4081	-0.0067215567
77	0xbb8b4dc0	-0.004251212
78	0xbc288577	-0.010285727
79	0xbcab1369	-0.020883279
80	0x3a086a8d	0.00052038656
81	0xbc7fd867	-0.015615559
82	0xbbf27583	-0.0073992624
83	0xbcda4b69	-0.026647286
84	0x3c08f30a	0.008358726
85	0x3cf8494f	0.030308394
86	0x3c0fc917	0.008775971
87	0x3b947772	0.0045308406
88	0xbc8b20c5	-0.0169834
89	0x3cf2a4d7	0.029619617
90	0x3c68bd38	0.0142052695
91	0xbc10bb13	-0.0088336645
92	0xbc155e8f	-0.009116783
93	0xbbe1012e	-0.0068665957
94	0xbcddb53d	-0.02706396
95	0x3bfb1ac2	0.007663102
96	0x3c0cc192	0.008591073
97	0x3bc72b57	0.0060781646
98	0xbc2f02ed	-0.01068185
99	0xbbe156ee	-0.006876818
100	0x3bdbc3be	0.006706684
101	0xbc85bcd8	-0.0163254
102	0xb9dd5be1	-0.0004222086
103	0xbc31e7c4	-0.01085848
104	0x3c51e05e	0.012809841
105	0x3bfdae7e	0.0077417484
106	0xbbe8057a	-0.007080731
107	0x3bba6ca6	0.0056892214
108	0xbbb52b2a	-0.005528827
109	0xbb66db6b	-0.0035225998
110	0xbc3a8962	-0.011385294
111	0xbc2583a1	-0.010102184
112	0x3c0d5a76	0.008627525
113	0x3bdf08cf	0.00680647
114	0xbbdabef5	-0.006675596
115	0x3c0d00b2	0.008606123
116	0xbaf6c539	-0.0018827087
117	0xbc169bc3	-0.00919241
118	0xbc85255e	-0.01625317
119	0xbc3f5400	-0.011677742
120	0x3b13c621	0.0022548514
121	0xbbd328fb	-0.0064440942
122	0xbb5fc4ae	-0.003414433
123	0x3be07820	0.0068502575
124	0xbbb32987	-0.005467597
125	0xbbf7c4c2	-0.007561297
126	0xba5f0201	-0.00085070735
127	0xbca990dc	-0.020698957
128	0xbc955d36	-0.018232923
129	0xbbb4acb4	-0.005513752
130	0xbca4150f	-0.020029573
131	0xbb3d3988	-0.0028873403
132	0x3a453c82	0.000752397
133	0xbb05ccc6	-0.0020416244
134	0xbaffeb5e	-0.0019525101
135	0x3b5da261	0.003381871
136	0x3cc76ece	0.024344828
137	0xbbea422a	-0.0071490007
138	0xbaf43bc1	-0.0018633531
139	0xbbe49cff	-0.006976723
140	0xbc31a845	-0.010843341
141	0xbc3a6ba9	-0.011378207
142	0x3c97b349	0.018518107
143	0x3b4751ba	0.0030413703
144	0xbd039b86	-0.03213074
145	0xbc7c5335	-0.0154006975
146	0x3ca4f322	0.020135466
147	0x3b1f907f	0.00243476
148	0x3ca4eb4a	0.020131726
149	0x3c4e7bdc	0.012602773
150	0x3bd11ef9	0.006381866
151	0x3c71e989	0.014765152
152	0xbb02e4ff	-0.0019972918
153	0x3c03f855	0.008054812
154	0x3d10014f	0.035157498
155	0x3bad3e79	0.0052869883
156	0xbc4c218a	-0.012459168
157	0x39ca996f	0.0003864276
158	0xbd0ba5f4	-0.034093812
159	0x3bc80148	0.0061036684
160	0xbc29a512	-0.010354297
161	0x3bc21bc5	0.0059237205
162	0x3c484c97	0.012225292
163	0xbc515b08	-0.012778051
164	0xbc93f228	-0.018059805
165	0xbc3498cb	-0.011022757
166	0xbafcdc22	-0.0019291679
167	0x3cd7bc0c	0.026334785
168	0x3b855541	0.004069001
169	0xbc08b4ab	-0.008343856
170	0x3c261629	0.010137119
171	0xbc12ff62	-0.008972021
172	0xbc815d9a	-0.015791703
173	0x3cca7114	0.024712123
174	0x3c12c4ba	0.008958036
175	0xbc334ca3	-0.010943565
176	0xbbede671	-0.007260137
177	0xbbb33be2	-0.005469785
178	0x3c5fdfc3	0.013664189
179	0x392865d5	0.00016059664
180	0x3c3b2492	0.011422293
181	0x3cb63cd4	0.022245802
182	0x3bada351	0.00529901
183	0x3be658d2	0.007029631
184	0xbc138ae5	-0.009005283
185	0x3bcd360b	0.006262546
186	0x3cefb661	0.02926177
187	0xbb698795	-0.0035633792
188	0xbb3d092c	-0.0028844578
189	0x3bae736e	0.005323819
190	0x3b4fb07a	0.0031690882
191	0xbcf56151	-0.02995363
192	0x3cab4230	0.020905584
193	0x3b99020e	0.0046694344
194	0x3c8cd2d4	0.017190374
195	0xbbd587de	-0.006516441
196	0x3c25ba28	0.010115184
197	0xbc02ccc6	-0.007983392
198	0xbbc3fff4	-0.0059814397
199	0xb95d6cbc	-0.00021116709
200	0xbc8461f1	-0.016159983
201	0x3c4b8be4	0.012423489
202	0x3c90e7c0	0.017688632
203	0xbb49916e	-0.003075685
204	0x3cdf0c6a	0.0272276
205	0x3c18d4c2	0.009328069
206	0xbc4b48e1	-0.012407512
207	0x3b2205e2	0.0024722745
208	0x3bdde99e	0.006772234
209	0xbc6cb354	-0.014447052
210	0xbafb289f	-0.0019161886
211	0x3c3b8335	0.011444856
212	0xbc1fa5ad	-0.00974409
213	0xbba69519	-0.005083692
214	0xbca525bc	-0.020159595
215	0xbb39f4a6	-0.0028374582
216	0xbc2c6623	-0.010522398
217	0xbd27e0dc	-0.040985927
218	0xbc1c29e5	-0.009531473
219	0xbc6fe022	-0.01464084
220	0xbc1a32f7	-0.009411565
221	0xbc04bc60	-0.008101553
222	0xbaf08959	-0.001835148
223	0x3c41f8a1	0.011839063
224	0xbbcf6959	-0.006329697
225	0xbc3b315a	-0.011425341
226	0xbc41bffa	-0.011825556
227	0x3c23b914	0.0099928565
228	0x398fd6b2	0.00027435046
229	0x3c1df508	0.0096409395
230	0xbc50b083	-0.012737396
231	0xbc92debe	-0.017928477
232	0xbc5c5f26	-0.0134504195
233	0x3bac65ec	0.0052611735
234	0x3c3869b7	0.011255673
235	0xbc4e88a5	-0.012605821
236	0x3b6f574d	0.0036520541
237	0x39ef777c	0.00045674655
238	0x3bc8cdc6	0.0061280457
239	0xb9537109	-0.00020164637
240	0xbcafe95a	-0.021473575
241	0xbc1eded8	-0.009696685
242	0x3b50c0b8	0.003185315
243	0x3afebe87	0.0019435444
244	0xbbb5c2d2	-0.005546906
245	0x3ca91df0	0.020644158
246	0x3b13f95c	0.002257905
247	0x3bf9fdc0	0.0076291263
248	0xbcb9c014	-0.022674598
249	0x3c2568f9	0.010095828
250	0x3c461c9b	0.012091781
251	0xbc55096c	-0.013002735
252	0xbbdea6e8	-0.006794799
253	0x3c1b15f0	0.0094656795
254	0x3bbb2a9a	0.0057118656
255	0xbc0eded5	-0.0087201195

action_model._discrete_distribution.branches.0.bias f4 [9]
0	0x3b0646a8	0.0020488892
1	0xba9eb698	-0.001210886
2	0x3c1f13f2	0.009709345
3	0x3a95f573	0.0011440947
4	0xbab265d5	-0.001361067
5	0xbb04d567	-0.00202688
6	0xbb0cf9e4	-0.002151125
7	0x39c5be7b	0.00037716687
8	0xbbc37f4c	-0.0059661027
