Assets/defender_2.onnx (onnx, 96621 bytes, 6 tensors)

network_body._body_endoder.seq_layers.0.weight f4 [128, 40]
000000 af 73 65 3e 96 dd 32 bd a8 1e 86 bd 0f b1 c6 bd
       0.22407411 -0.043668352 -0.06548816 -0.0970174
000010 43 a7 22 3e 05 eb 28 bd 2b 06 d1 bc 98 06 1e be
       0.15884118 -0.041239757 -0.025515636 -0.15432203
000020 be a3 28 3e 66 51 16 3e c4 04 0f 3d 8a 3a a5 3c
       0.16468713 0.14679489 0.034916654 0.020169515
000030 77 f4 23 3e fe 84 3f be 54 17 b5 3d cb 16 9f bd
       0.16011225 -0.18703076 0.0884234 -0.07768019
000040 c7 86 82 3d 7c a6 d9 bc 05 b6 91 3d a9 cd 04 be
       0.06373363 -0.026568644 0.071147956 -0.12969078
000050 24 17 26 bd 25 6e 45 3e 5a 0f 36 3e 4e 24 1e 3e
       -0.040549412 0.19280298 0.17779294 0.15443537
000060 2b bb 0e 3c 03 f1 28 be 59 bc a5 3e 08 3d fe b9
       0.0087116165 -0.16498189 0.3237026 -0.00048492127
000070 dd 31 38 3e 1a 8c c3 bd ae b6 3d 3e 04 38 11 3e
       0.17987771 -0.095482066 0.18526718 0.14181525
000080 24 d2 23 3d 84 ad 9c bd d9 cb a5 3c c4 07 54 3d
       0.039995328 -0.07650283 0.020238804 0.05176522
000090 a3 11 26 bd f9 c3 37 3e 08 c2 f5 bd 94 d2 78 3e
       -0.040544163 0.17945851 -0.11999899 0.24299079
0000a0 b8 df 7f be a2 9a bd 3d 5f 13 a6 bd 86 63 a1 3e
       -0.24987686 0.092580095 -0.081091635 0.31521243
0000b0 59 94 2a 3e b1 17 7b be 50 b3 9c be 2f ff be bd
       0.16658153 -0.24520756 -0.30605555 -0.09326016
0000c0 67 c5 71 bd 53 01 14 3e 7a 07 5d 3e 8f 03 c9 3d
       -0.05902615 0.1445363 0.21584883 0.09815132
0000d0 a6 e4 e7 bd 71 12 bf bd 5e e7 81 be aa 8a 47 be
       -0.11322908 -0.09329689 -0.25371832 -0.1948649
0000e0 c4 13 a4 3c e3 bb 1f 3e 64 5f d0 bd c5 91 95 3d
       0.020028956 0.15599017 -0.10174444 0.07303194
0000f0 ca 57 0b 3e ab 0b 31 3e ab 0c e6 3d 16 a7 0e be
       0.13607708 0.17289607 0.11232885 -0.13930926
000100 b6 0d 25 3e 45 07 4b bd a6 9f 83 bc cb ab 3d 3e
       0.16118512 -0.04956748 -0.016067337 0.18522565
000110 0c 67 99 3d 54 e7 62 3d e4 94 c3 3d 5b 86 19 3e
       0.07490358 0.055396393 0.09549883 0.14992659
000120 30 28 ae be 0c 6b 1d 3d 01 5e 6b be a0 d3 23 3e
       -0.34015036 0.038432166 -0.22985078 0.15998697
000130 fd 9b de 3d 1e 6b 89 3d 1b 81 5a 3d ff 50 5e 3e
       0.10869596 0.06709884 0.05334578 0.21710585
000140 22 17 ff bd 92 c1 2d ba e9 d4 0e be 9d e5 af be
       -0.12455584 -0.00066282705 -0.13948406 -0.3435487
000150 70 36 bb bd d3 13 25 3e cf 95 7f bd 59 16 62 3d
       -0.091412425 0.16120844 -0.062398728 0.055197094
000160 de 7b 65 be 8d 6f 83 3d ec ce a8 be e0 98 5c 3d
       -0.22410533 0.06417761 -0.3297037 0.05385673
000170 83 9e 14 be 51 c0 1d be 9e b8 28 be ab 93 89 bd
       -0.14513592 -0.15405394 -0.16476676 -0.067176186
000180 8d a9 01 be 98 e4 4a 3c d2 93 74 3e 75 72 0a be
       -0.12662335 0.012383603 0.23884514 -0.13520224
000190 39 50 7f be 07 6d 82 be 0f 29 41 3c bc a1 dc bc
       -0.24932946 -0.25473806 0.011789574 -0.02693259
0001a0 4c 89 b4 3c f3 44 ac 3c bb a5 27 be df 4d 5a be
       0.022038125 0.021028971 -0.16371815 -0.21318768
0001b0 dd 1f dc bd 9d 11 e7 3d a8 a7 a2 bd cd 42 59 be
       -0.10748265 0.11282656 -0.07942134 -0.21216889
0001c0 e7 54 12 3e be a5 80 bd 0e 0a cd bd f2 12 b3 3d
       0.142902 -0.06281613 -0.100116834 0.08743848
0001d0 17 17 62 be 2e 5e 65 3e 0e a3 e6 3d 4c 85 e6 3e
       -0.2207912 0.22399208 0.11261569 0.45023572
0001e0 77 e9 33 be 25 1e b5 3d 4a 3d 5c 3e 58 3c 7f 3b
       -0.17569529 0.0884364 0.21507755 0.003894588
0001f0 27 d5 f2 bd a6 f4 9e 3e 9f 68 b8 be 88 05 05 be
       -0.11857062 0.31046027 -0.3601732 -0.12990391
000200 d2 32 aa be 70 d3 2e be 4b a3 9c bd 37 f1 5f be
       -0.33241898 -0.17072845 -0.07648333 -0.2186936
000210 50 31 8d 3b 2e 3e 63 3e 34 41 f3 3c d1 b7 58 bd
       0.004308857 0.22191688 0.029694177 -0.052909676
000220 40 c8 67 bd 38 d8 21 be 78 1e 8e be eb 63 96 3e
       -0.056587458 -0.15805137 -0.2775762 0.29373106
000230 fb 32 7b be 70 71 a8 3d 39 89 e4 bd 3b c1 09 3e
       -0.24531166 0.082247615 -0.11158986 0.13452618
000240 14 15 9f 3e 69 05 5d 3d 72 d3 43 3e 2c 8a 62 3d
       0.3107077 0.053960238 0.19123629 0.055307552
000250 75 55 94 bd 05 9f 46 3d 83 95 bd bc a6 ff c8 3b
       -0.07242862 0.048491497 -0.023142582 0.0061339913
000260 dd 38 85 3d d3 ff b1 3d f1 64 6a be 08 5d 6c 3e
       0.065049864 0.08691373 -0.22890069 0.23082364
000270 43 98 6e 3e 6e bd 40 3d 5e 74 94 3e 02 16 70 3e
       0.2330027 0.047055654 0.2899503 0.23445895
000280 e1 3b a1 bd d5 f0 73 bd dd 7f cb 3d d7 7e a5 bd
       -0.07872749 -0.059555847 0.09936497 -0.080808334
000290 e3 3b 34 3e f7 c7 84 be 69 78 98 bd ce 9e 18 3e
       0.1760097 -0.2593381 -0.074448414 0.14904329
0002a0 81 c8 b9 bd 91 a1 80 3d a5 0d bf 3d 4e d5 6e 3d
       -0.09071446 0.06280816 0.09328774 0.058308892
0002b0 a6 8c 94 3d 2d 5c 05 bd 29 ac 17 3e 9d 66 7e 3c
       0.07253389 -0.03255861 0.14811768 0.015527395
0002c0 26 bd 47 3e 6d ce 36 be 96 d9 ec 3b d2 ac 22 3a
       0.19505748 -0.17852183 0.0072280867 0.0006205562
0002d0 80 30 6a 3d 74 88 5c bd 56 65 44 bd ca b7 4a 3e
       0.05717516 -0.05384107 -0.047948204 0.19796672
0002e0 4f b8 12 be 53 96 2c be b5 e8 80 bd e2 d8 fd 3d
       -0.1432812 -0.16854219 -0.06294385 0.12394883
0002f0 6f c7 d8 3d b2 22 97 3e 2c 26 87 bd 88 8e 19 3e
       0.10584914 0.29518658 -0.065990776 0.14995778
000300 39 1b 19 3e 53 e6 b7 bd 5c 55 89 3e 03 b5 36 3d
       0.14951791 -0.08979478 0.26822937 0.04460622
000310 a7 89 d9 3c 47 99 5b 3e 40 ff 8b 3c e1 a5 3d be
       0.026554896 0.2144519 0.017089486 -0.18520309
000320 b6 d5 e0 3d c4 b9 84 3d 12 05 a5 3e 4f bc 38 3c
       0.10978262 0.064807445 0.3223043 0.011275365
000330 4e 68 d0 bd e4 a9 1a 3e c1 7b 65 3e 5d 54 e9 bc
       -0.101761445 0.1510387 0.2241049 -0.02848261
000340 40 60 41 bc 96 9d ee 3b c4 44 64 3e 47 f6 74 3e
       -0.011802733 0.0072819693 0.22291857 0.23922072
000350 ed 82 53 bd 3e c5 4d 3e de 09 81 3d fc 46 11 3e
       -0.051638532 0.20094773 0.0630071 0.14187235
000360 0b ae 05 3e e5 f7 b5 3d 3a 37 29 be a7 00 35 3d
       0.13054673 0.08885173 -0.16524974 0.044190075
000370 2d a6 c8 bd d7 42 ad bd 97 da 15 be 02 fb 3c 3e
       -0.097973205 -0.08460014 -0.14634167 0.18455127
000380 b9 2d b3 bd 65 67 e8 3d 5c ad 87 bc 24 b7 a8 3d
       -0.08748955 0.11347846 -0.016562156 0.08238056
000390 c3 51 71 bd 41 52 5b 3e 1e a3 7b bd 87 7c 14 be
       -0.058915865 0.21418096 -0.061434858 -0.14500628
0003a0 d5 78 f9 3d 07 26 e8 bd 54 4d c1 be 50 79 ec 3d
       0.1218125 -0.11335378 -0.3775431 0.11546576
0003b0 87 27 d5 bd 21 ef df 3c e6 c6 27 be 80 9e a2 3d
       -0.1040793 0.027335705 -0.16384467 0.07940388
0003c0 3c 8e b3 3d 26 42 62 3c f8 87 c3 3c df 7b 12 be
       0.087673634 0.013809716 0.023868546 -0.14305066
0003d0 bb 45 3e be af 57 5c 3e 3d ec c8 be 83 b6 53 bd
       -0.18581288 0.21517824 -0.39242736 -0.05168773
0003e0 ad 0a a2 3d 10 de ab be 07 e6 f1 bd 0b 82 9e bd
       0.079121925 -0.33567858 -0.11811452 -0.077396475
0003f0 da 03 57 3e d9 1a c7 3d 1f c4 21 3e 93 88 1c 3d
       0.20997563 0.09721918 0.1579747 0.038216185

network_body._body_endoder.seq_layers.0.bias f4 [128]
000000 ef 2b ab bb e4 c7 2c 3c d8 e4 86 bb 05 33 6b 3c
       -0.005223743 0.0105457045 -0.004116636 0.014355426
000010 28 09 51 bc 1c 32 f5 bb c8 43 23 bb 68 2a 8f 3a
       -0.012758531 -0.00748278 -0.0024912227 0.0010922672
000020 f7 a3 0c bc 90 50 12 bc 9d e1 ca 3a ea e4 ec 3b
       -0.008584014 -0.00893034 0.0015478615 0.007229437
000030 7b c2 1e bc a0 45 13 bc 80 68 14 3b 98 7d 3e 3b
       -0.009689922 -0.008988768 0.0022645295 0.002906656
000040 96 97 24 3c 43 0c 65 3b 6b 3c 50 bb 71 f8 eb bb
       0.0100459065 0.0034949936 -0.0031774293 -0.0072012474
000050 08 64 62 3c 50 2a a9 3b 36 4f 1c 3b 5f a9 c4 3a
       0.013817795 0.0051625147 0.0023850924 0.001500409
000060 c0 2b 8e 3a c5 fe fb bb 4a 91 13 bc e7 8e a3 3a
       0.0010846779 -0.007690283 -0.009006808 0.0012478501
000070 90 34 24 bc b7 7b 09 bc 16 08 20 bb 91 e0 07 bc
       -0.0100222975 -0.008391312 -0.0024418882 -0.008293287
000080 00 1d 32 3c 85 ce 67 ba 14 db 12 3c 87 d4 6c bc
       0.010871172 -0.00088427245 0.008963365 -0.014454967
000090 81 6a 27 3b ad fd 02 3b 47 d2 96 bb 7d 44 6b bb
       0.002554566 0.0019987628 -0.0046027037 -0.0035898976
0000a0 fa 11 e4 3b 65 69 03 bc 97 07 18 bc 82 9a 31 ba
       0.006960151 -0.0080207335 -0.009279153 -0.00067750376
0000b0 14 6d 0e 3c 32 c2 8c bb 76 92 89 3a 07 5c 91 bb
       0.008692998 -0.004295611 0.0010495919 -0.0044360193
0000c0 6d c7 7f bc a9 f3 5b 3c 7d c9 c6 3b 7e 62 f0 ba
       -0.015611512 0.013424792 0.0060664997 -0.00183399
0000d0 4d 7b ae ba 14 f6 03 bb d4 90 c2 bb 47 0c 2a bc
       -0.0013311893 -0.0020135688 -0.005937675 -0.010378904
0000e0 2d 8b 5c 3b 16 ae 48 3c a5 2b 97 bc 3d ba 08 bc
       0.0033652291 0.012248537 -0.018453429 -0.008345184
0000f0 1b c9 8f bb 00 f0 80 3c 2a b7 bd bb b7 4a b4 bb
       -0.0043879873 0.01573944 -0.005789657 -0.0055020708
000100 d3 60 a4 bb 8f b9 35 bb 6d 05 01 3b 67 5c 65 b9
       -0.005016425 -0.002772901 0.0019687072 -0.00021873564
000110 1f 1c 16 bc 17 e4 22 3c 7a cc 87 b9 e6 30 21 ba
       -0.009161978 0.009942076 -0.00025901553 -0.0006148949
000120 39 14 40 3b c9 d6 6e bc 80 f7 c0 bb 21 3b 2f bc
       0.0029308929 -0.014577576 -0.0058888793 -0.01069525
000130 b3 70 60 bb a6 a6 2d 3b 8a ca b7 3b b0 f3 b1 ba
       -0.0034246861 0.0026497035 0.0056088613 -0.0013576653
000140 86 e1 9f b9 cf a4 2c bc 1c 47 72 3b 3a 07 a6 3c
       -0.0003049487 -0.01053734 0.0036968654 0.020267118
000150 66 38 71 3c 3d 3d 0b ba ab f7 83 3c f7 b1 be 3b
       0.014722919 -0.00053115544 0.016109308 0.005819555
000160 2e 7a 5a 3c 94 bb aa bb fc 02 cc 3b 04 9e f2 3b
       0.013334794 -0.0052103493 0.0062259417 0.007404091
000170 68 21 58 3a 0d 68 1b ba ee 74 31 3b dd 62 1f 3b
       0.0008244724 -0.00059282855 0.0027077752 0.0024320402
000180 9d 4c 8a 3b 31 73 b7 ba 9f c4 75 3a 97 40 2b bc
       0.004220559 -0.0013996122 0.0009375307 -0.010452411
000190 ff cc 5e 3b b8 29 59 3a 93 7c b9 bc 2b 6a cf 3b
       0.00339967 0.00082841096 -0.02264241 0.006329795
0001a0 0b e0 32 ba 3d 10 44 3c ed 02 1a 3b 9e d3 92 3a
       -0.0006823546 0.011966762 0.002350028 0.0011201983
0001b0 8d a7 22 3c 72 2e 1d 3c 34 83 26 bb 19 06 1c 3c
       0.0099276425 0.009593593 -0.0025407793 0.009522938
0001c0 1a 32 57 3c f8 ca a2 3a 2b 30 3a bb c3 39 8c bb
       0.013134504 0.0012420109 -0.0028410058 -0.0042793467
0001d0 e6 2c ca ba d0 af 61 3b 5e 1c 85 bb 54 ed 37 3c
       -0.0015424758 0.0034437068 -0.0040622195 0.011226017
0001e0 aa 4b 33 3c 8e 6d c5 3b b8 1d e3 3a 76 40 2f ba
       0.010943333 0.006025023 0.0017327582 -0.00066853256
0001f0 20 44 4d 3a 17 51 82 bc 5c 4c ae 3c 2f 5e 7d bb
       0.0007830281 -0.015907807 0.021276645 -0.0038660874

network_body._body_endoder.seq_layers.2.weight f4 [128, 128]
000000 69 a3 ad bb 29 d1 d0 bd 7d 19 d1 bc 22 93 07 be
       -0.005299021 -0.10196144 -0.02552485 -0.1323972
000010 93 0d ed bc d9 40 a7 3d a6 19 b5 3d c7 7b b6 3c
       -0.028937137 0.081666656 0.08842783 0.022275819
000020 9a 03 4d 3d 08 48 1b bd 63 97 33 3e ac ee 88 3c
       0.050052263 -0.03791049 0.17538218 0.01671537
000030 3e b4 f3 bd 06 da 69 3e 96 be 9a 3d 51 ca bd bd
       -0.11899613 0.22837076 0.07555883 -0.092671044
000040 95 32 04 3d 30 af 89 bd fc a5 bc 3c 22 81 d9 bc
       0.0322748 -0.067228675 0.023028366 -0.026550833
000050 87 84 b4 bc 3b a4 0a 3e ec b7 50 bd a5 a4 00 be
       -0.02203585 0.13539211 -0.05095665 -0.12562807
000060 95 a2 fd bd 15 36 75 3d 65 ef 11 bd 97 0f 1d be
       -0.12384526 0.05986603 -0.035628695 -0.15337978
000070 94 87 f5 3b 90 9f 4f 3e b1 7c ee 3c 0b 92 c2 3c
       0.007492969 0.20275712 0.029112192 0.02375128
000080 57 53 47 bd bc 7f d5 bc 74 4c d2 bd 40 8e 2c 3d
       -0.048663463 -0.026061885 -0.102684885 0.042127848
000090 b1 31 17 3e 4a 1b 74 bd 0a f1 8f bd 26 10 e7 bd
       0.1476505 -0.059596337 -0.070283964 -0.11282377
0000a0 41 fb 66 bb 47 68 a7 3c 00 b8 0b be 4d c9 32 3e
       -0.0035244974 0.020435465 -0.13644409 0.17459603
0000b0 4a f2 06 bc 30 de 4f bd 85 e0 ef 3d 5e 7e 3e be
       -0.008236477 -0.050749004 0.117127456 -0.18602893
0000c0 14 aa 0e be 24 29 f1 bd 33 ca 20 be 5a 53 c3 bd
       -0.13932067 -0.11775425 -0.15702133 -0.095373824
0000d0 76 d6 18 bd 07 02 ae 3d 9a 0f c1 3d b2 fe b6 3d
       -0.0373139 0.084964804 0.09426804 0.08935298
0000e0 58 14 23 3d 3a cd 24 3e 61 d4 ce bd 89 f1 e3 bd
       0.039814323 0.16093913 -0.10099102 -0.111300536
0000f0 45 9a 4a 3c 94 c0 c1 bd e3 70 ac 3d 80 8d 8f bd
       0.012365882 -0.094605595 0.08419969 -0.07009411
000100 15 44 f2 bd 5a f0 ce 3d fc e3 68 3d ec e0 8c 3d
       -0.11829392 0.10104437 0.056858048 0.06878838
000110 26 84 32 3d 5e a3 f5 bd 83 6e 63 bb 11 0f 6e bb
       0.043583058 -0.119940504 -0.0034703321 -0.0036324898
000120 d2 f4 50 bd d4 32 14 bd a2 b9 18 3d 4a 9b 22 bd
       -0.05101473 -0.036181286 0.03728641 -0.039698876
000130 f5 3d 62 bd 00 c4 8c bd d6 41 8b bd f0 e6 2d 3d
       -0.055234868 -0.068733215 -0.067996666 0.042456567
000140 e6 49 ef 3d a7 41 99 bc ed 87 27 3d 3a d8 4e 3d
       0.11684017 -0.018708063 0.040901113 0.05049918
000150 8c 78 3d 3e 67 bd d1 bd 81 e7 b4 bd 62 e3 af 3c
       0.18503016 -0.10241204 -0.08833218 0.02147073
000160 53 aa 37 bd e2 a8 07 3e 29 6a 0d 3e 83 dd 04 3d
       -0.04484017 0.13248017 0.13810028 0.032437813
000170 9b d2 59 bd be eb ab bd 1f 0b 73 3b ff 9e 9c bc
       -0.053179365 -0.08394574 0.0037085486 -0.019118784
000180 29 a4 19 be e6 bb 5c 3d 4f 0a 8e bb 64 a3 07 bd
       -0.15004028 0.05389013 -0.004334725 -0.033114806
000190 31 fa f0 bd 42 9e 4b 3d f0 08 3b ba 47 a3 09 3e
       -0.1176647 0.049711473 -0.00071348157 0.13441192
0001a0 75 82 66 3d 8b 59 56 be 75 21 78 bc 09 30 26 be
       0.056276757 -0.20932595 -0.0151446955 -0.16229261
0001b0 da 40 0c 3e 76 22 28 bd 29 86 93 bb f6 16 79 be
       0.13696614 -0.04104849 -0.004502077 -0.24325165
0001c0 f2 f7 20 bb f7 f4 83 3d e5 57 4c 3c ad 69 80 bd
       -0.002456185 0.06443208 0.012472128 -0.06270156
0001d0 9c 5e c2 bd 39 a2 bd bc ce 72 ba bc 8b 86 cc bd
       -0.094907016 -0.023148643 -0.022759821 -0.099865995
0001e0 72 e9 8a bd 3e e6 03 3d 94 06 97 3d a9 2d ad 3c
       -0.067828074 0.032201998 0.073743016 0.021139937
0001f0 f4 51 96 bd 15 a8 4d bc ea 72 14 3e fe be 1f bc
       -0.0733985 -0.012552281 0.14496961 -0.009750126
000200 df e9 80 bd 54 9b 23 3b 52 98 1b be 31 cd bd bc
       -0.06294607 0.002496441 -0.15194824 -0.023169132
000210 93 86 8a 3d 75 40 ba 3c d2 52 5b 3d 2b 6c 07 bd
       0.06763949 0.022735814 0.05354578 -0.03306214
000220 df c5 c3 3d e9 ae 04 3d 5e a0 f8 3b 8c 67 55 3d
       0.09559225 0.03239337 0.0075874766 0.052100703
000230 ae f1 8b 3d 88 d3 3c bc ce a4 a3 3c a2 a7 26 3e
       0.06833206 -0.011525042 0.019976046 0.16274884
000240 81 3c ff bd a4 32 d8 3b cc a8 51 be 4f e5 ed 3a
       -0.12462712 0.0065978337 -0.20474547 0.0018150004
000250 7b 38 ee bd 4b 2e ad bc 77 9c db 3d 00 c8 93 3d
       -0.116318665 -0.021140238 0.10723203 0.07215881
000260 ad c3 b3 3c 1d 63 8b 3c 84 d3 b7 bd 30 04 4a bd
       0.021943891 0.017015034 -0.0897589 -0.0493204
000270 2c c5 f1 bd 54 b6 3a 3e fa ac a6 3d a0 d2 93 3e
       -0.11805186 0.18233615 0.081384614 0.28871632
000280 44 11 70 3d 59 cc 03 3e 93 a5 18 be 7a bb d9 3b
       0.058610216 0.12870921 -0.14906912 0.0066446634
000290 d7 30 6b 3c f1 4f de bc 1f 95 8b 3d f8 ea 5a bd
       0.014354906 -0.027137728 0.06815552 -0.05344674
0002a0 ac 12 f1 3c a8 bc b3 3c 34 63 11 bd 9e 28 14 be
       0.029427849 0.021940544 -0.035494998 -0.14468619
0002b0 86 f3 49 3d 6f 0d 0a bd a4 bd 1f bd e2 bf 86 3c
       0.049304508 -0.033704218 -0.038999215 0.016448919
0002c0 28 6b 3a be 74 4d d6 bd 7a 7a 10 3d 28 d8 41 bc
       -0.1820494 -0.10463992 0.035273053 -0.011831321
0002d0 a4 34 9d bb 65 7e b5 bd 32 c1 84 3c dd d9 36 bd
       -0.004797535 -0.088619985 0.016205404 -0.044641364
0002e0 09 44 33 3c ac 80 80 bd e3 06 10 3e 25 d7 91 3b
       0.010941514 -0.06274542 0.14065127 0.004450696
0002f0 08 2e 04 bd 13 81 23 bd 1f 79 df bd 5f 2d 45 3d
       -0.03227046 -0.039918017 -0.10911774 0.048138972
000300 bc ec 8a 3d a0 a2 c3 3d af 10 3a be 9e ca 82 bd
       0.06783435 0.09552503 -0.18170427 -0.063863024
000310 a6 6f 4b bb e5 80 20 bc af dd df bd 77 3d 06 be
       -0.003104189 -0.009796356 -0.10930955 -0.13109384
000320 16 34 60 3d c6 67 a2 3b 6e b3 1d bd 18 40 0a be
       0.054737173 0.0049562184 -0.038501196 -0.13501012
000330 b6 3c 90 3d cd 7b 3b 3c b3 53 e0 3c b3 aa e5 bd
       0.0704283 0.011443091 0.02738366 -0.11214199
000340 67 3e a8 bd 3a 0d 88 3e f2 b0 94 3c 02 5e b5 bd
       -0.08215027 0.2657259 0.01815078 -0.08855821
000350 94 f8 12 bd 4f 45 de 3c 77 65 16 3b 64 72 5e 3d
       -0.035881594 0.027132658 0.0022948661 0.05430831
000360 07 e7 78 bc 34 29 c7 bd 9c 5a e8 3c 08 9d 05 bb
       -0.0151918 -0.09724656 0.028363518 -0.0020387787
000370 a7 48 16 3e 12 2a 0f 3e 8b fb cd 3d af 13 2b 3e
       0.14676152 0.13980892 0.10057744 0.16706727
000380 15 61 40 3c 6f 0b 1c 3d 4e 6f 4c bd 46 54 1b 3d
       0.011741896 0.03809684 -0.049910836 0.037922166
000390 a7 72 62 3d c9 e6 d8 3c 88 f0 3b bd 39 74 00 be
       0.055285122 0.026477234 -0.045883685 -0.12544335
0003a0 be 07 46 3c e6 db 93 3d 4f 94 03 3e bd 19 80 3c
       0.012086807 0.07219677 0.12849544 0.015637273
0003b0 93 5e 33 3d 4e 79 02 3c 3c b4 41 3d 0f ac a4 bc
       0.043791365 0.007963492 0.047291026 -0.020101575
0003c0 a4 29 94 bd 6d fa 4b 3d d6 f6 b5 3d 8b d9 1a be
       -0.07234505 0.04979937 0.08884971 -0.15122049
0003d0 09 ff 70 bd 76 b3 8c 3c a8 32 a8 bc 70 0d 4a 3e
       -0.05883697 0.017175417 -0.020531967 0.19731688
0003e0 95 75 d7 bd 14 5b 5f bd 01 18 b4 3c 82 5d 3d bc
       -0.10520474 -0.05453022 0.021984102 -0.0115579385
0003f0 de f4 14 3d 24 5d b4 3d 92 b6 b9 bd be 60 1d 3e
       0.036366336 0.08806828 -0.09068026 0.15368935

network_body._body_endoder.seq_layers.2.bias f4 [128]
000000 49 a3 2f bc a6 88 1e bb 92 ea 21 bc d6 79 0d 3c
       -0.010720083 -0.0024190336 -0.009882586 0.008635005
000010 0a 5f 1e bb 49 15 62 ba ff 51 62 3b 7e a6 43 bc
       -0.0024165534 -0.00086243876 0.0034533737 -0.01194155
000020 72 eb b3 3b 7d 2e 09 3b 4d c1 fb 3b 88 63 7e 3b
       0.0054907138 0.002093225 0.0076829554 0.003881665
000030 2d 8d a0 bb 37 9a 11 bc 8a 49 1c bc 7a 7d 0d bb
       -0.004899642 -0.008886865 -0.009539017 -0.0021589682
000040 d0 dd 8a 39 08 64 b5 3b 3d 10 2e bc 17 96 b6 bb
       0.00026486674 0.0055356063 -0.010623989 -0.0055720913
000050 cb 04 b6 ba 82 b3 10 ba 54 7e 57 ba 9f 16 81 bb
       -0.0013886926 -0.0005519913 -0.00082204235 -0.003939464
000060 8c 90 3d 3c 77 63 0f bc 66 b4 ac bb 3e 38 54 3c
       0.011570107 -0.008751742 -0.0052705286 0.012952862
000070 f7 00 a4 bb f5 c7 5e ba 43 5a a0 bb b3 4f d6 3b
       -0.005004998 -0.0008498424 -0.0048935725 0.0065402626
000080 da 3e 4c bb 3f b9 7a 3b 07 1e a7 3c f6 a1 4a bc
       -0.0031165392 0.0038257388 0.02040006 -0.012367716
000090 42 02 15 bb a4 48 11 3b 22 d8 99 ba ef 63 29 3c
       -0.0022736941 0.0022168541 -0.0011737386 0.010338767
0000a0 df 86 62 39 82 8f ec bb ea ef 74 3a 6e 36 9f 3a
       0.00021603283 -0.007219256 0.00093436113 0.0012146959
0000b0 68 1a a6 bb df bf e2 bb 99 c7 e4 ba dd 9c bd 3b
       -0.005069066 -0.0069198455 -0.0017454504 0.005786522
0000c0 bb 5e 36 3c 64 18 75 bc cf c8 79 bc de fb ba 3a
       0.011130984 -0.014959428 -0.01524563 0.0014265736
0000d0 32 b9 14 3c a0 64 6b 3c 4c d6 8f 3c 35 0e e4 bb
       0.009077357 0.014367253 0.01755824 -0.0069597014
0000e0 45 9b 94 3a 76 02 31 3b 98 fb be bb 82 d1 9d 3a
       0.0011337778 0.0027009523 -0.005828332 0.0012040588
0000f0 10 b1 ab ba 54 c9 8c 3a 25 05 63 3c 6d 2e 2f ba
       -0.0013099033 0.0010741153 0.013856207 -0.0006682638
000100 a3 eb c2 ba fc ba fb 3b a8 75 5e 3b 0a b0 92 3c
       -0.0014871251 0.0076822024 0.003394464 0.017906208
000110 dd 2a 50 3c 63 74 ad 3a 95 cc 8f 3b d7 43 b2 3b
       0.012705532 0.0013233538 0.0043884018 0.005440216
000120 13 3a 47 3b a5 fa 69 3a 60 03 7f bb 5d 8a 8f bb
       0.0030399605 0.00089255936 -0.0038911924 -0.004380508
000130 f3 31 4d bb 43 81 a1 3a e8 b9 80 bb de 30 61 bc
       -0.003131029 0.0012321848 -0.0039284118 -0.013744561
000140 f5 c2 4c 3c c1 fa 53 ba 72 e3 62 3b e8 7c 1f bb
       0.012497653 -0.00080863765 0.0034620431 -0.0024335925
000150 2a 84 56 3c 8b 08 21 bc 6a c0 5b 3c 66 aa 88 bc
       0.013093034 -0.009828697 0.013412574 -0.016682815
000160 2d 5f 94 bc 19 b7 31 3c 89 c9 55 bb dd a2 22 3a
       -0.01811179 0.010846877 -0.0032621345 0.0006204078
000170 68 81 e7 3b f1 a8 c5 ba 2c c2 09 3c 68 1f 93 ba
       0.007064987 -0.0015080256 0.008408111 -0.001122457
000180 92 d1 24 bb a2 84 23 bc e6 9f 11 bc 6e 8c a0 ba
       -0.0025149328 -0.009980353 -0.00888822 -0.0012248883
000190 fc 36 03 bc 76 04 3f bb 5a be f8 bb 8c a5 80 ba
       -0.008008715 -0.0029146946 -0.007591051 -0.0009814962
0001a0 93 1e a8 39 71 f5 14 3c 8b 0b 9a bb d3 c4 d3 bb
       0.00032066237 0.009091721 -0.004701083 -0.0064626723
0001b0 69 72 49 3c 0f b7 83 bb 86 b5 7b 3c a8 74 38 bc
       0.012295344 -0.004019625 0.015363103 -0.011258282
0001c0 6b 4c 0f 3c fc b8 94 ba 7f cb 1d 3c 99 57 6f 3b
       0.008746247 -0.0011346634 0.009631037 0.0036520718
0001d0 0c 46 26 3b 9c be 54 ba 30 8d 8c 3b 92 7f f7 3b
       0.002537134 -0.0008115561 0.004289292 0.0075530494
0001e0 b7 cb 98 3b 60 cd 56 3c 66 b6 81 3c fa 07 82 ba
       0.0046629566 0.013110489 0.015834045 -0.000992059
0001f0 8e fc 5c bc 4b ee 0a bb bb 8b 53 3b b9 77 37 3c
       -0.013487948 -0.0021199163 0.003227933 0.011197978

action_model._discrete_distribution.branches.0.weight f4 [9, 128]
000000 82 9e cb b9 2e 56 a4 ba b7 98 0b 3c c7 3f 4d 3c
       -0.00038837275 -0.001253789 0.008520297 0.012527413
000010 62 6b 92 3c 22 95 d3 bc ea 14 5a bc c4 a4 91 bb
       0.01787347 -0.025827948 -0.01331065 -0.0044446904
000020 bc a1 c3 3c c7 f2 09 bc 91 c2 10 bc b0 63 b6 3a
       0.023880832 -0.008419699 -0.008835451 0.0013915207
000030 d1 7a 36 3c e1 ca 3f bc 7a 34 92 3a 7f 75 20 bc
       0.01113768 -0.011706085 0.0011154555 -0.009793638
000040 40 b0 a4 3c 6a 31 c1 3b 2b 8e 29 bc ad 39 cf ba
       0.020103574 0.005895783 -0.010348837 -0.0015810035
000050 e2 82 bb bc df 39 e2 ba 15 6a 5c 3b 97 f6 c7 3b
       -0.022889558 -0.0017259679 0.0033632566 0.006102394
000060 53 be 6a 3b b7 d6 94 3c 91 7a dc b9 d5 23 58 bc
       0.0035819008 0.01816879 -0.0004205299 -0.013192137
000070 5e 8a a0 3c 79 f1 ed b9 a7 83 4b ba 1f 2e 2d bc
       0.019597229 -0.00045384074 -0.0007763453 -0.010570078
000080 aa b1 7d 3a 4d 14 6a 3a 71 13 bf bb 19 65 0e bc
       0.0009677658 0.00089294167 -0.005831175 -0.008691096
000090 84 eb e4 3b 2c 6c e6 ba 8f 82 e4 bb 0f c2 64 3b
       0.0069860835 -0.0017579845 -0.0069735716 0.0034905707
0000a0 e9 37 af bb 94 f8 b5 38 c7 a7 41 bb 57 d4 1a bc
       -0.005347241 8.677054e-05 -0.0029549466 -0.00945004
0000b0 74 69 ce ba d2 63 b4 ba a6 25 ea 3a a2 e9 22 3b
       -0.001574798 -0.0013762659 0.0017864003 0.0024858494
0000c0 b0 3f 9a 3c 46 85 f0 bb 0e 95 60 3b d9 8b 8c bc
       0.018829197 -0.007340106 0.003426853 -0.017156528
0000d0 63 f9 86 39 0d e3 31 3b 12 22 dc 3b d9 67 80 bc
       0.0002574428 0.002714339 0.0067179287 -0.015674518
0000e0 ed 83 35 3c 33 75 01 bc f4 85 29 bc 32 df 33 bc
       0.011078817 -0.007901478 -0.010346878 -0.010978507
0000f0 8c 64 66 3c b1 bf 78 bb 98 77 0f bb b6 a9 00 3c
       0.014062058 -0.0037956054 -0.0021891352 0.007852962
000100 c7 8b 9c bb 4d 41 c7 bb 0d 7c d4 3b 73 4a d2 bc
       -0.004777405 -0.0060807825 0.0064845146 -0.025670266
000110 28 d7 f5 3b 18 11 7c 3b cd 52 c8 3b b3 3d 3a bc
       0.0075024553 0.0038462337 0.0061133862 -0.011367249
000120 a8 2f ce ba 68 09 f5 3b 19 1a 58 bc cf b0 46 3c
       -0.0015730755 0.007477928 -0.013189816 0.012127115
000130 a1 a5 91 bc 61 b0 b6 3b 1f 23 62 3b 40 e9 cb bb
       -0.017779173 0.005575225 0.0034505797 -0.006222874
000140 8b 98 f7 3b 83 74 20 3b be ab 97 3a 3b 7d 5b bb
       0.0075560263 0.002448351 0.0011571569 -0.0033491391
000150 05 cc e4 bb 18 27 95 bb 9a 5d f3 3b 2f 8c 16 3c
       -0.006982329 -0.0045517795 0.0074269297 0.009188696
000160 9d df 87 bb 8d e6 c1 3c 1b 2c 38 bc 9b 12 14 3c
       -0.00414653 0.023669505 -0.011240984 0.009037639
000170 de a1 33 bc 75 20 37 bc fc 60 06 bd 23 6b 97 3c
       -0.010963885 -0.011177172 -0.032807335 0.018483704
000180 ed 10 2e bc e1 f0 71 ba c0 8d bd 3a 6c 03 eb 3b
       -0.010624153 -0.0009229314 0.00144618 0.007172039
000190 25 7a 43 bc ab 16 7e 3a 77 45 6e 3c 82 e7 e0 bc
       -0.011930977 0.0009692709 0.014542929 -0.027454142
0001a0 2c 64 0a bc de 76 89 3c a3 4b 91 3b 82 dc 8e bb
       -0.008446734 0.016780313 0.0044340654 -0.0043597827
0001b0 42 49 eb 3b d5 be 06 3c 69 dc 58 bb 0f e4 5e bc
       0.007180364 0.008224209 -0.003309036 -0.013604178
0001c0 29 f4 57 bc 94 1a fb ba 92 37 95 3a b6 d7 95 bb
       -0.013180771 -0.0019157701 0.0011384359 -0.004572834
0001d0 45 83 4f bc 10 a3 36 3c d7 48 80 bb d9 aa 41 bc
       -0.012665574 0.011147276 -0.003914933 -0.011820518
0001e0 a3 d3 df 3a 4c 46 77 bc 30 08 92 bc b8 9f 0a bc
       0.0017076622 -0.015092444 -0.01782617 -0.0084609315
0001f0 bd 22 1e bc 28 01 ae bb 21 59 a3 3b 17 c5 c3 bb
       -0.009651837 -0.0053101964 0.00498499 -0.0059744227
000200 60 c5 3e bb c3 00 f7 bb 56 2b d2 bb bf 73 8b 3b
       -0.0029109344 -0.0075379326 -0.0064138575 0.0042557414
000210 bb 7c 8f 3b e0 01 4c 3a d9 b8 97 bb 46 2e a1 3b
       0.0043788827 0.0007782262 -0.00463019 0.0049188463
000220 40 4f b7 bb 6d 45 c3 ba aa 48 85 bb 4a b2 96 3b
       -0.005594164 -0.001489801 -0.0040675 0.0045988904
000230 d2 28 81 bb e5 15 ad 3b f6 89 a1 bb 2f 6f 63 ba
       -0.0039416337 0.005282151 -0.0049297763 -0.00086759304
000240 04 76 9e 39 23 82 70 bc 78 fd 55 3c 91 55 e8 bb
       0.00030224037 -0.0146794645 0.01306092 -0.0070902784
000250 17 e3 1e 3c e8 f0 8e 3a dd 25 6c bc bd e3 93 bb
       0.009697697 0.0010905536 -0.014413324 -0.0045132325
000260 94 84 0b bb 19 bb 78 bb cd 11 02 bb 51 c4 80 3c
       -0.002128874 -0.0037953316 -0.0019847036 0.015718611
000270 d8 1a 0b 3b db a4 4b 3b d6 37 9f bb 4d 61 84 3c
       0.0021225717 0.0031073603 -0.004858951 0.016159678
000280 40 cd 3e bc 7d bf 2c 3a a1 20 d3 3b e9 fd f7 3b
       -0.011645615 0.0006589813 0.0064430987 0.0075681102
000290 b1 e9 4e 3c 9d 7c 82 bb 12 87 43 3a 36 71 be 3b
       0.012628959 -0.00398214 0.0007458787 0.0058118356
0002a0 9c cf 0b bc 67 c9 d6 bb 60 37 2e bb 35 8a a2 bc
       -0.008533385 -0.0065547707 -0.00265833 -0.019841293
0002b0 f9 dd fe 38 31 83 15 bb 77 a8 a3 3a f6 88 ef bb
       0.000121530094 -0.0022813792 0.001248612 -0.007310028
0002c0 cb f8 50 3b 99 8e 95 bc db 40 71 bb 21 a7 83 3a
       0.0031886573 -0.018256472 -0.0036812339 0.0010044315
0002d0 2c 03 c8 bb 9d 9a 26 3c a5 74 47 37 6f 58 53 39
       -0.0061038937 0.010168699 1.1888483e-05 0.00020155472
0002e0 12 17 02 3c 94 05 9e bb c5 16 4b bc f8 4a 3e 3c
       0.007940071 -0.0048224423 -0.012395565 0.011614554
0002f0 74 e8 0a bb 1b 4e 23 3b 83 9a 80 bb 23 0f 07 3c
       -0.0021195682 0.002491838 -0.003924669 0.008243355
000300 09 32 1f 3c e5 f6 87 bc 8b 06 2f 3c 2a 1f 92 bb
       0.009716519 -0.01659722 0.010682712 -0.0044592815
000310 54 52 88 bc 7b 14 6d b6 23 f1 d0 bb c7 8d 13 3c
       -0.01664082 -3.5327673e-06 -0.006376402 0.00900597
000320 19 e5 4a bc 02 de 01 3c ae 12 6b bc a4 6c 6e 3c
       -0.012383723 0.007926466 -0.014347715 0.014552269
000330 ab dc 81 39 25 18 1c bc 22 25 29 bc 73 42 a0 ba
       0.00024769208 -0.009527241 -0.010323795 -0.0012226835
000340 1d 5b 52 3b ea 08 15 bb 2f 9d 89 3c 8f a3 61 bb
       0.0032097765 -0.002274091 0.016798584 -0.0034429764
000350 29 41 06 3c 93 5b 88 bc 53 6a 45 3c e6 3c d7 bb
       0.008194246 -0.016645228 0.012049275 -0.006568539
000360 c0 ba 4d bc 7e db 10 3c 50 95 d6 bc 6b a0 3f bb
       -0.012556732 0.0088413935 -0.026194245 -0.0029239904
000370 85 a8 73 3c 52 fc 18 ba 2e 64 3a 3c aa 8e c3 bc
       0.014871721 -0.00058359385 0.011376424 -0.023871738
000380 a9 e0 31 bb 37 5f 5f bc a3 8b 1c bd 04 59 3d 3c
       -0.0027141965 -0.013633541 -0.038219105 0.0115568675
000390 02 7b 37 ba b4 b5 84 bb 50 1b 02 bc 2c 1b 5e bc
       -0.00069992256 -0.004049981 -0.007941082 -0.013556283
0003a0 bb 9c 6a ba b3 33 f4 bb a0 f3 84 39 90 27 44 3c
       -0.0008949746 -0.007452452 0.00025358517 0.011972323
0003b0 30 cb 44 bc c0 0a d1 ba 3b 23 4f bc 3d d0 53 bc
       -0.012011334 -0.0015948638 -0.012642677 -0.012928066
0003c0 8f 94 de 3b a4 9c 49 bc d5 55 25 bc e9 31 1b bc
       0.006792612 -0.012305412 -0.010091265 -0.009472349
0003d0 55 3a 3a bc a7 0a 60 3a 28 88 16 3c b2 36 95 bb
       -0.0113664465 0.0008546509 0.009187736 -0.0045536393
0003e0 9e 09 d7 3b 33 98 17 bb c9 51 33 3c 64 92 af bb
       0.0065624258 -0.002313149 0.010944792 -0.0053580273
0003f0 41 b0 3d bc a0 e5 ce 3b 91 38 29 bc 1c c1 88 39
       -0.011577667 0.0063139945 -0.010328428 0.0002608382

action_model._discrete_distribution.branches.0.bias f4 [9]
000000 44 26 6b 3a fc c6 ee 3b 0b 19 04 3c e0 2b 2b 3c
       0.00089702406 0.0072869044 0.008062611 0.010447472
000010 12 d6 c0 bb 0c eb 18 3a 68 49 38 bc cc 3a 5f bc
       -0.005884894 0.00058333646 -0.01124797 -0.013624858
000020 74 d2 c5 39
       0.00037731568
