Assets/defender_tower-7.onnx (onnx, 96621 bytes, 6 tensors)

network_body._body_endoder.seq_layers.0.weight f4 [128, 40]
0	0xbda00fe7	-0.07815533
1	0xbe39bcac	-0.18138379
2	0xbd569de9	-0.05239669
3	0xbc21da37	-0.009878687
4	0xbd22a2d9	-0.039706085
5	0x3bb5c988	0.005547706
6	0xbdd137c9	-0.10215718
7	0x3e2fa83b	0.17154019
8	0x3b119d87	0.0022219138
9	0xbc8f5f85	-0.017501602
10	0x3c594d34	0.013263036
11	0xbe7c1135	-0.24615939
12	0x3d90a445	0.07062582
13	0xbe4baeb1	-0.19890858
14	0x3c6b421a	0.014359022
15	0xbc82dfdb	-0.015975883
16	0xbe91f86f	-0.28509852
17	0xbe7746f9	-0.24148168
18	0xbdd57042	-0.10421802
19	0x3d93ab97	0.072104625
20	0xbcebcc7c	-0.02878403
21	0xbd49973f	-0.049216505
22	0x3e79517e	0.24347493
23	0xbeb12f33	-0.34606323
24	0xbecc5d1c	-0.39914787
25	0xbd26f9b8	-0.040765494
26	0x3cc33227	0.023827625
27	0xbd97307f	-0.07382297
28	0x3e6e7e48	0.2329036
29	0x3e88c69f	0.26714036
30	0x3e228742	0.1587191
31	0xbbd4ee25	-0.0064981156
32	0xbea38b4d	-0.31942216
33	0xbe15484e	-0.14578363
34	0xbe49d1fa	-0.19709006
35	0xbb938fcd	-0.0045032264
36	0x3dfeb7f3	0.12437429
37	0x3cee31e8	0.029076532
38	0x3cf8bc43	0.030363208
39	0x3d927f6a	0.071532086
40	0x3cd722d3	0.026261723
41	0x3ea6e952	0.32599884
42	0xbe8afcdd	-0.27146044
43	0x3e4525f0	0.19252753
44	0xbe8e0d9d	-0.2774476
45	0xbc75b56a	-0.014996866
46	0x3d5feef9	0.05467126
47	0xbc008a46	-0.007845467
48	0xbe801ff9	-0.25024393
49	0x3d076227	0.03305259
50	0x3e36d16c	0.17853326
51	0xbe6a5f6c	-0.22887963
52	0x3cb6a61f	0.02229601
53	0x3cdf2970	0.027241439
54	0x3e77b478	0.24189937
55	0xbe4488df	-0.19192837
56	0xbe79e7e1	-0.24404861
57	0x3e785576	0.24251351
58	0xbecb2d0f	-0.39682814
59	0x3df00656	0.117199585
60	0x3db09c44	0.08623555
61	0x3e2a55b6	0.16634259
62	0x3c4e97d3	0.01260944
63	0x3d8f3e66	0.069943234
64	0x3db38eb9	0.087674566
65	0xbe6ccf5b	-0.23125975
66	0xbd462813	-0.04837806
67	0x3e15ae9a	0.14617386
68	0x3d2a9d81	0.041654114
69	0x3ddc6878	0.10762113
70	0x3e1065f9	0.141014
71	0x3daee136	0.08539049
72	0xbc381b3b	-0.011236961
73	0xbd780912	-0.060555525
74	0x3de9a676	0.11408703
75	0xbe7c1b87	-0.24619876
76	0xbe8aef57	-0.27135727
77	0x3e719414	0.23591644
78	0xbdfe2d04	-0.1241093
79	0x3bfe4f2d	0.0077609033
80	0xbe0063f7	-0.12538134
81	0x3de479dc	0.11156055
82	0xbde9f0bb	-0.11422869
83	0xbdb4710d	-0.08810625
84	0xbe689808	-0.22714245
85	0xbe5112b0	-0.20417285
86	0xbdb7c98b	-0.08973988
87	0x3db98ef0	0.09060466
88	0xbd42d49e	-0.04756605
89	0x3d918388	0.07105166
90	0x3e2167fd	0.15762325
91	0x3ee182b0	0.4404502
92	0x3dceb885	0.10093788
93	0x3e67dbad	0.22642393
94	0xbd492b61	-0.049113635
95	0xbdd15f03	-0.102232
96	0x3d1c0f55	0.03810056
97	0xbdae01bd	-0.08496425
98	0x3c4cd19f	0.012501149
99	0xbb2c6a8b	-0.0026308622
100	0xbe7a7d8b	-0.24461953
101	0xbe47ccce	-0.1951172
102	0xbe0eb44e	-0.13935968
103	0xbcf8fb59	-0.03039329
104	0xbd9f8f50	-0.077910066
105	0x3d8966b5	0.06709043
106	0xbc032c1d	-0.008006123
107	0xbe140b34	-0.14457399
108	0xbdbe4073	-0.092896365
109	0xbe6269bd	-0.22110648
110	0x3e02752a	0.12740007
111	0x3e1e78a6	0.15475711
112	0x3e45953f	0.19295214
113	0xbe2a64e0	-0.16640043
114	0x3e550326	0.20801982
115	0x3e379798	0.17928922
116	0xbda5c9ad	-0.08095107
117	0x3ddae736	0.10688631
118	0x3d063bc7	0.032771852
119	0x3e9bacd8	0.30405307
120	0xbe1637cf	-0.14669727
121	0xbdf9eb05	-0.122030295
122	0x3e0e3e91	0.13891055
123	0xbcc332d8	-0.023827955
124	0xbe92c41f	-0.28665254
125	0xbe801cae	-0.2502188
126	0x3d779f30	0.060454547
127	0x3e9fb502	0.31192786
128	0x3c741c7f	0.014899372
129	0xbe2ef310	-0.17084908
130	0x3d871ab4	0.0659689
131	0xbdb6afe6	-0.08920269
132	0xbdf80f65	-0.12112311
133	0xbe0ced54	-0.13762408
134	0x3dbb6caf	0.09151589
135	0xbead4f9d	-0.33849803
136	0x3d175a55	0.03695138
137	0xbda84039	-0.082153745
138	0x3dbd14ec	0.09232506
139	0x3e6e9ccd	0.23302002
140	0x3c40e9f5	0.01177453
141	0xbcb2f323	-0.021844452
142	0x3d7150c6	0.058914922
143	0xbe3745dc	-0.17897743
144	0x3dc6ed12	0.09713186
145	0xbcb1bc39	-0.021696197
146	0xbece3132	-0.40271908
147	0xbe2bfc00	-0.16795349
148	0xbe7405a7	-0.23830281
149	0xbc227799	-0.00991621
150	0xbc649050	-0.013950422
151	0xbe4948b4	-0.1965664
152	0xbdf9035f	-0.12158846
153	0xbc0a29ce	-0.008432819
154	0x3dec1410	0.11527264
155	0x3e371b0a	0.17881408
156	0xbdd7831c	-0.10523054
157	0xbdbc92cd	-0.092076875
158	0x3cfcf97b	0.03088068
159	0x3de20e32	0.11037864
160	0x3e7f4f07	0.2493249
161	0x3d9842f9	0.07434649
162	0xbeae2599	-0.3401306
163	0xbd416910	-0.047219336
164	0xbdd39534	-0.103311926
165	0xbe5d254f	-0.21596263
166	0xbe1fa896	-0.15591654
167	0x3e1cf30d	0.15327092
168	0x3d156e4c	0.03648214
169	0xbdc14574	-0.09437075
170	0xbdb61189	-0.08890063
171	0x3d1c8c4c	0.038219735
172	0xbe94c5ce	-0.29057163
173	0xbd8489d1	-0.06471599
174	0xbe86f083	-0.2635537
175	0x3d859c84	0.065239936
176	0x3eb03b5a	0.34420282
177	0xbd10640b	-0.03525166
178	0x3aadfc7f	0.0013274102
179	0x3e675380	0.22590446
180	0xbdd7db86	-0.10539918
181	0xbdc674b6	-0.096902296
182	0x3d2deed6	0.0424641
183	0xbe32ad72	-0.17448977
184	0xbe145b01	-0.1448784
185	0xbe81cbb2	-0.2535072
186	0x3d9970e2	0.07492234
187	0xbe523712	-0.2052882
188	0x3e47b6b4	0.1950329
189	0x3c0a7af0	0.008452162
190	0x3e865b11	0.26241353
191	0x3d8a7bef	0.0676192
192	0xbca81bf9	-0.02052115
193	0x3e16c411	0.14723231
194	0xbd8c0120	-0.06836152
195	0x3cf41dca	0.02979936
196	0xbe8b67d8	-0.27227664
197	0x3e6284b7	0.22120939
198	0x3d4152e0	0.047198176
199	0xbce183c3	-0.02752865
200	0xbd014a93	-0.03156526
201	0xbc71ffcd	-0.01477046
202	0xbe04f962	-0.12985757
203	0xbc2f443d	-0.010697422
204	0x3e3d2e24	0.18474633
205	0x3e552457	0.20814644
206	0xbe34b7f3	-0.17648296
207	0xbdb27f92	-0.08715738
208	0x3e399c08	0.18125927
209	0x3edab20a	0.42713958
210	0xbdcc346b	-0.099709354
211	0x3e052d08	0.1300546
212	0xbe2a5385	-0.16633423
213	0xbd3453db	-0.044025283
214	0xbea5b215	-0.32362428
215	0xbd59d9d5	-0.053186256
216	0xbe163e76	-0.14672264
217	0x3e1a0766	0.15041885
218	0x3e0af7a8	0.13571036
219	0x3e4bbaa1	0.19895412
220	0x3d9c5bbb	0.07634684
221	0x3de9896d	0.11403165
222	0x3de5dd02	0.112237945
223	0x3d1cb26b	0.03825609
224	0x3e5bb6e8	0.21456492
225	0xbb835c4b	-0.004008805
226	0xbe97a1be	-0.29615587
227	0xbdc52296	-0.09625737
228	0xbd710bda	-0.058849193
229	0xbbc377a8	-0.005965192
230	0xbe2b5e46	-0.16735181
231	0x3e6ce3ce	0.23133776
232	0x3e116f0e	0.1420252
233	0xbe874620	-0.2642069
234	0xbe32493e	-0.17410752
235	0x3d4202e5	0.04736604
236	0x3bd493c3	0.006487341
237	0x3e06f7a9	0.13180412
238	0xbdb0d569	-0.08634455
239	0xbde81a75	-0.11333171
240	0x3d95009f	0.07275509
241	0x3e71aed3	0.23601846
242	0x3de43d40	0.11144495
243	0xbdebc71a	-0.11512585
244	0xbe7d63be	-0.2474508
245	0x3db86b79	0.09004874
246	0xbe35a8ae	-0.17740127
247	0x3e31a013	0.1734622
248	0x3db2acf4	0.087243944
249	0x3e35a7f7	0.17739855
250	0x3e144ded	0.14482851
251	0xbd540a42	-0.051767595
252	0xbda9e94a	-0.082964495
253	0x3d8a4bdd	0.06752751
254	0x3e120cd0	0.142627
255	0xbe6aa8b6	-0.2291592

network_body._body_endoder.seq_layers.0.bias f4 [128]
0	0x3c92c23d	0.017914886
1	0xbb8d5d0f	-0.004314072
2	0xb9aa3e20	-0.00032471213
3	0x3c0ed559	0.008717858
4	0xb99677b6	-0.0002869942
5	0x3c42d51f	0.011891632
6	0xbb2962c5	-0.0025846225
7	0xba8776a8	-0.0010335045
8	0xbb9b749b	-0.004744125
9	0xbbbd2a52	-0.0057728672
10	0x39f3882d	0.0004645003
11	0x3c043a81	0.008070589
12	0x3a5a9f51	0.000833978
13	0x39992297	0.00029208206
14	0x3ac23c82	0.0014819058
15	0xbad8d819	-0.0016543894
16	0x3b822957	0.0039722132
17	0xbbaeb25c	-0.0053313207
18	0xbbcb2f00	-0.006200671
19	0xbb5f1b65	-0.0034043428
20	0xba809f1d	-0.0009813044
21	0x3b97a0f3	0.004627341
22	0xbbcf2ee9	-0.006322731
23	0xbbd1fe3f	-0.0064084823
24	0x39e370c8	0.00043380843
25	0xbbcdfcde	-0.0062862476
26	0xbb6a1ca1	-0.003572263
27	0x3b0b3018	0.0021238383
28	0x3be08c1d	0.0068526403
29	0xbba8157d	-0.0051295147
30	0xbbe0c5f7	-0.0068595367
31	0x3bef26d5	0.0072983303
32	0xb9d57a81	-0.00040717798
33	0x3b9f4237	0.0048601883
34	0xbad27112	-0.0016055426
35	0x3b2b7fc7	0.002616869
36	0xbaf5a863	-0.00187422
37	0xbba57275	-0.0050490447
38	0x3b92cb00	0.004479766
39	0xbbaa7b7b	-0.0052027083
40	0xbc05dd2a	-0.008170405
41	0xbb978305	-0.004623773
42	0x3b62ad68	0.0034588221
43	0xba10d7d2	-0.0005525324
44	0x3a8e40e2	0.0010853077
45	0x3bd07cdb	0.00636254
46	0xbc002f6a	-0.007823804
47	0x3be315c3	0.0069300844
48	0x3b41935e	0.00295373
49	0xbb5efdea	-0.0034025856
50	0x3bfdfb3f	0.007750898
51	0x3c7cda06	0.01543284
52	0xb6b7bfd3	-5.4761563e-06
53	0xbb8ff9c6	-0.004393789
54	0xbc02812a	-0.007965365
55	0xbb515643	-0.0031942285
56	0xbb37779a	-0.0027994872
57	0xba0806b6	-0.0005188988
58	0x3ba94283	0.0051653995
59	0xbc8d0cc0	-0.017217994
60	0x3be6a8f0	0.007039182
61	0xbacf55bf	-0.0015818401
62	0xbb6d73d5	-0.0036232371
63	0xbb2acbbf	-0.0026061384
64	0x3c480af7	0.0122096455
65	0xbb5969e7	-0.0033174695
66	0xbc3201dc	-0.010864701
67	0xbb6abda3	-0.0035818599
68	0xbb38ef36	-0.0028218753
69	0xbbf8d177	-0.0075933295
70	0xbba69bb4	-0.005084479
71	0x3b219992	0.0024658185
72	0x3ac0a01b	0.0014696153
73	0xbbb2cd52	-0.005456605
74	0xbbaeccf1	-0.0053344895
75	0xba7256ad	-0.0009244483
76	0x3974d2d0	0.00023348187
77	0xbc0ea947	-0.008707351
78	0xbbbbef4d	-0.005735314
79	0xbb43e402	-0.0029890542
80	0x3a279760	0.0006393101
81	0x3c1a6c5b	0.009425248
82	0x3bd64d0b	0.006539946
83	0x3b2b93cf	0.002618063
84	0x3b7b1d20	0.003831692
85	0xb8c03870	-9.165786e-05
86	0x3c4d4df9	0.012530797
87	0x3c087195	0.008327861
88	0xbc9e1c7f	-0.019300697
89	0xbc0773cb	-0.008267353
90	0xbbd3b09d	-0.006460263
91	0xbc2f3ab9	-0.010695153
92	0xbc2b8f3a	-0.01047116
93	0xbbd13936	-0.006384994
94	0xbb8a98ce	-0.0042296415
95	0xbb6f665e	-0.0036529521
96	0xbc399c62	-0.0113287885
97	0x3b656a5e	0.0035006027
98	0xbc17f5da	-0.009274924
99	0xbc68b348	-0.0142029
100	0xbbea87c0	-0.007157296
101	0xbc70020d	-0.014648926
102	0xbbab2dc2	-0.0052239606
103	0xbc429fe8	-0.011878945
104	0xbc10d52b	-0.008839886
105	0x3a88f32a	0.0010448445
106	0x3be1a2fc	0.0068858843
107	0xba9d9ce3	-0.0012024905
108	0xbadfe658	-0.0017082198
109	0xba60d425	-0.0008576534
110	0x3c2b7044	0.010463778
111	0xb9d47567	-0.00040523263
112	0xbbfc7264	-0.007704066
113	0xbbf05f92	-0.0073356116
114	0xbbe177c2	-0.0068807313
115	0x3c9a781d	0.018856103
116	0xbb68fc52	-0.0035550785
117	0xb95e417f	-0.00021195969
118	0x3c37a16d	0.0112079205
119	0xbb4abafd	-0.0030934208
120	0x3b7e99b8	0.0038848948
121	0xbc0f0c01	-0.008730889
122	0x3b9d2c59	0.0047965464
123	0x3bf9755b	0.007612867
124	0x3bca5e17	0.006175767
125	0xbbe75834	-0.007060075
126	0x3c17e57c	0.009271022
127	0x3c962b38	0.018331155

network_body._body_endoder.seq_layers.2.weight f4 [128, 128]
0	0xbd7f571e	-0.06233894
1	0x3aeaac9e	0.0017904227
2	0xbe564933	-0.20926361
3	0x3ccb50a0	0.024818718
4	0xbba88042	-0.0051422426
5	0x3bb2e959	0.005459946
6	0xbdf6f5ab	-0.12058576
7	0xbc400f10	-0.011722341
8	0x3dc28ef8	0.094999254
9	0x3dc35d52	0.09539284
10	0x3d890d0a	0.0669194
11	0xbd9f2179	-0.07770056
12	0xbd9750c9	-0.073884554
13	0x3d3e44e3	0.046452414
14	0x3de92f20	0.113859415
15	0x3d8fbd06	0.07018475
16	0xbd0310ee	-0.031998567
17	0x3d43a2ac	0.047762558
18	0xbdaa1274	-0.08304301
19	0xbe658aa9	-0.22416176
20	0x3e0f5a68	0.13999331
21	0xbe47cf37	-0.1951264
22	0x3d4c4d60	0.049878478
23	0x3e07ad93	0.13249807
24	0x3df6ad05	0.120447196
25	0x3c8094d8	0.015695974
26	0xbc95f9af	-0.018307535
27	0xbd05d2c2	-0.032671697
28	0x3d65e9ac	0.05613105
29	0xbe827faf	-0.2548804
30	0x3d07ad16	0.033124052
31	0x3e0be8d6	0.13663039
32	0xbce3c758	-0.027805015
33	0x3d088809	0.03333286
34	0xbc2f83a9	-0.010712543
35	0xbe38bc9a	-0.18040696
36	0xbd3e03cd	-0.046390343
37	0x3d719119	0.058976267
38	0x3e1b7876	0.15182671
39	0x3b34d80c	0.0027594594
40	0x3d0bd326	0.034136914
41	0xbcc11382	-0.023568872
42	0xbc9099c3	-0.017651444
43	0x3e8358e5	0.2565376
44	0xbcd21eb4	-0.025649406
45	0xbe5388d4	-0.20657665
46	0x3dd2bec6	0.102902934
47	0xbd718dac	-0.058973
48	0xbd76b335	-0.0602295
49	0x3b71c008	0.0036888141
50	0xbb7de443	-0.003874079
51	0x3d71d6c2	0.0590427
52	0xbe22b270	-0.15888381
53	0x3ba6bd47	0.0050884816
54	0x3dac20f4	0.08404723
55	0x3e12460e	0.14284536
56	0xbd8b3ef5	-0.067991175
57	0xbdc01424	-0.093788415
58	0xbcf5c0dd	-0.029999191
59	0x3c538904	0.012911085
60	0x3d30c7cf	0.043159302
61	0x3e3dbeb8	0.18529785
62	0xbc92fb4c	-0.017942093
63	0x3ca33da5	0.019926855
64	0xbd98d243	-0.07461979
65	0xbdc61a38	-0.096729696
66	0x3d30899e	0.043099992
67	0xbe2dcb17	-0.16972004
68	0x3e2ac448	0.16676438
69	0xbc7dfa62	-0.01550159
70	0x3d7b60b2	0.061371513
71	0x3db2023d	0.08691833
72	0xbdd25c52	-0.10271515
73	0xbdfbbec8	-0.12292248
74	0x3d5c049f	0.053715345
75	0xbda966dd	-0.08271573
76	0xbe493201	-0.19647981
77	0x3e42edac	0.19035977
78	0x3e6964c6	0.22792348
79	0x3d4e804f	0.050415333
80	0x3d1b2573	0.03787751
81	0xbcaa988a	-0.02082469
82	0x3cd0fb73	0.025510525
83	0x3a2e4b17	0.00066487625
84	0x3bd1a302	0.006397606
85	0x3deba245	0.1150556
86	0x3dc558cc	0.09636077
87	0x3dbc708f	0.09201156
88	0x3d71773d	0.058951605
89	0x3e0d441a	0.1379551
90	0x3e0781e2	0.1323314
91	0xba89e1bb	-0.0010519543
92	0x3d12ffad	0.035888363
93	0x3e135bc8	0.1439048
94	0x3d1aea24	0.03782095
95	0x3d552cbd	0.05204462
96	0xbda87585	-0.0822554
97	0xbd48891f	-0.048958894
98	0xbd04058e	-0.03223186
99	0xbdeee174	-0.116640955
100	0xbc422578	-0.011849754
101	0x3a8e4628	0.0010854648
102	0x3db05d30	0.08611524
103	0x3d231ac8	0.039820462
104	0xbd07aacc	-0.03312187
105	0x3e268901	0.162632
106	0x3ce98468	0.028505519
107	0xbe0548a3	-0.1301599
108	0x3d9a7bae	0.07543121
109	0x3cd47b3b	0.025937667
110	0x3db330d6	0.08749549
111	0xbb26ad3a	-0.002543284
112	0x3e2d06da	0.16897145
113	0xbe101a55	-0.14072545
114	0x3c807380	0.015680075
115	0xbd96ca40	-0.07362795
116	0xbd965027	-0.073395066
117	0xbd66a887	-0.056313064
118	0xbc02fba3	-0.007994565
119	0xbe17ecbc	-0.14836401
120	0xbdc6892d	-0.09694133
121	0x3e01f1cc	0.12689894
122	0x3da304ba	0.07959886
123	0x3de10f2f	0.10989224
124	0x3d39c300	0.045351982
125	0x3ab84f0d	0.0014061645
126	0x3e3cc55d	0.18434663
127	0x3d70cbef	0.058788236
128	0x3e7c4e7e	0.24639317
129	0xbe37ae93	-0.17937689
130	0x3d04bc76	0.032406293
131	0xbdfe1d82	-0.12407972
132	0xbe610040	-0.21972752
133	0x3b4a2827	0.0030846687
134	0xbc338c3e	-0.010958729
135	0xbd83c99b	-0.064349376
136	0x3d02ef18	0.0319663
137	0x3c8c30ee	0.017113175
138	0x3cb0b745	0.021571765
139	0x3cb9366e	0.022608962
140	0x3e443aa2	0.19162992
141	0x3e321329	0.17390122
142	0xbce9dbe7	-0.02854724
143	0xbd97bbd0	-0.07408869
144	0x3d91634b	0.07099017
145	0xbde7d1bd	-0.11319301
146	0xbdb17632	-0.08665122
147	0x3ce0c574	0.027437903
148	0xbdafc5b0	-0.08582628
149	0x3c842109	0.016129034
150	0x3cd6176d	0.026134217
151	0x3b441cbf	0.002992436
152	0xbd48ffe0	-0.049072146
153	0xbd8413b1	-0.06449068
154	0x3d967238	0.07346004
155	0xbb953289	-0.0045531434
156	0x3d90482f	0.07045018
157	0x3d9c984a	0.07646234
158	0xbc266f87	-0.010158426
159	0x3cc26e9f	0.023734389
160	0xbdedaec6	-0.11605601
161	0x3db10b1e	0.086446986
162	0xbe3fafc8	-0.18719399
163	0x3e079383	0.13239865
164	0x3e40fb75	0.18845923
165	0xbd208620	-0.03919041
166	0xbe0e4a80	-0.13895607
167	0xbe081641	-0.13289739
168	0xbc92ef89	-0.017936485
169	0x3e748525	0.23878916
170	0x3e285e90	0.16442323
171	0x3da7e791	0.08198465
172	0x3e3d1ff6	0.18469223
173	0x3cef09a4	0.029179402
174	0x3c25e7be	0.010126052
175	0xbe0ff6dd	-0.14059015
176	0x3e21699b	0.15762942
177	0xbd96d06c	-0.07363972
178	0xbd6a31f3	-0.05717654
179	0xbd7e9c63	-0.06216086
180	0x3d156802	0.036476143
181	0xbd080686	-0.033209346
182	0xbe26a6dd	-0.16274591
183	0xbe037f63	-0.12841563
184	0xbbf23f0a	-0.0073927687
185	0x3ddaa0de	0.10675214
186	0x3df76d25	0.120813645
187	0xbc104624	-0.008805785
188	0xbdee2248	-0.116276324
189	0xbdc2ac6c	-0.09505543
190	0x3d6c82cf	0.057741936
191	0x3e02d177	0.12775217
192	0xbd916826	-0.07099943
193	0x3d39389b	0.04522
194	0x3d4b65ea	0.04965774
195	0x3af329d9	0.00185519
196	0xbe052644	-0.13002878
197	0xbcb04825	-0.021518776
198	0x3a169e8a	0.000574567
199	0xbd203f1f	-0.039122697
200	0x37f5dc58	2.9308881e-05
201	0x3c2bba56	0.010481438
202	0x3cfdc830	0.030979246
203	0x3c8df695	0.017329494
204	0xbd5eec2c	-0.05442445
205	0x3e36b797	0.17843471
206	0x3e033e0f	0.12816642
207	0x3e783d14	0.2424205
208	0xbd169ab2	-0.036768623
209	0xbc02e416	-0.00798895
210	0x3d71d155	0.059037525
211	0x3b19e28b	0.0023480977
212	0xbcb9e8c9	-0.022694008
213	0xbc5701f4	-0.013123024
214	0x3d521b24	0.051295415
215	0xbc9aaf22	-0.018882338
216	0x3ddde837	0.10835307
217	0xbcfdf33d	-0.030999774
218	0x39930c95	0.000280474
219	0x3dc4d8b0	0.09611642
220	0x3e317a99	0.17331924
221	0xbdf4cd86	-0.11953263
222	0x3db03ebd	0.086057164
223	0xbd5efc94	-0.054440096
224	0x3dc3420a	0.0953408
225	0xbccfc8a9	-0.025364237
226	0x3e433ed3	0.19066934
227	0x3d823e9a	0.063595966
228	0xbd6f04d9	-0.058354232
229	0xbcb0d8c5	-0.021587739
230	0xbafb5589	-0.0019175272
231	0x3db5c32a	0.08875115
232	0x3c7b836e	0.0153511595
233	0x3c88b83e	0.016689416
234	0x3d1b16d2	0.03786356
235	0x3d2323ae	0.03982895
236	0xbd8a3b2d	-0.06749568
237	0xbe172ea6	-0.14763889
238	0xbc65555c	-0.013997402
239	0xbd917a14	-0.07103363
240	0xbd8f4dfb	-0.069972955
241	0xbd868dfe	-0.065700516
242	0xbdd37fec	-0.103271335
243	0xbcb9f4ed	-0.022699798
244	0xbd0fbcb6	-0.03509208
245	0x3c60d23e	0.013722001
246	0x3e035a48	0.12827408
247	0xbb397e38	-0.0028303992
248	0xbda669f8	-0.08125681
249	0x3db43bd1	0.088004716
250	0x3d163aca	0.03667716
251	0x3d8eacc5	0.06966547
252	0xbe106904	-0.1410256
253	0x3e4738c5	0.1945525
254	0xbd7ad733	-0.061240386
255	0x3dbfadf6	0.09359352

network_body._body_endoder.seq_layers.2.bias f4 [128]
0	0xbb8074b6	-0.003920163
1	0xbb9269ab	-0.004468163
2	0xbc04c6fa	-0.00810408
3	0x3bb3f74e	0.0054921275
4	0x3a9db7ff	0.0012032985
5	0xbba3410a	-0.0049821185
6	0xbb7f8d12	-0.0038993997
7	0x3c3b1742	0.011419119
8	0xbba34fa6	-0.00498386
9	0xbb09651a	-0.0020964802
10	0x3a777d67	0.00094409887
11	0x3c03c265	0.008041953
12	0xbbba60fe	-0.005687832
13	0x3bff91d5	0.007799367
14	0x3a00b9f2	0.00049105205
15	0x3b71e5ae	0.0036910581
16	0xbab23777	-0.0013596852
17	0x3c39d88f	0.0113431355
18	0xb9887c0d	-0.00026032366
19	0xbb5c4406	-0.003360988
20	0x3bb79315	0.0056022503
21	0xbac945c4	-0.0015355875
22	0x3c181ab4	0.00928371
23	0xbb74f67d	-0.0037378364
24	0xbbb67ed3	-0.005569318
25	0xba8b69df	-0.001063641
26	0x3b7773d6	0.0037758253
27	0x3b7ff4d0	0.0039055832
28	0xb9b761a3	-0.00034977225
29	0x3aaca7b3	0.0013172537
30	0xba4feb0f	-0.000793145
31	0x3bd3f6fe	0.0064686527
32	0x3bc8805f	0.0061188187
33	0x3b10c611	0.0022090713
34	0x3a1924b9	0.0005841959
35	0xba9aa309	-0.0011797856
36	0xbbb2975c	-0.0054501723
37	0xbbe284ab	-0.006912788
38	0xbb511be5	-0.0031907496
39	0x3c997153	0.018730795
40	0x3c701e42	0.0146556515
41	0xbaf631c9	-0.0018783148
42	0x3c84aa82	0.016194586
43	0x39d89270	0.00041307835
44	0xbb87a65f	-0.004139706
45	0xbb88bdd0	-0.004173018
46	0xbb4ac46b	-0.0030939828
47	0x3b9eb6d5	0.0048435726
48	0x3b817b4c	0.0039514657
49	0xba20c1fa	-0.00061324204
50	0x3c12b266	0.008953666
51	0xbbb7c0ad	-0.0056076855
52	0xbc60556b	-0.01369224
53	0x3a6b313b	0.00089718745
54	0x3aa6cea3	0.0012726377
55	0x3bc20a3b	0.0059216297
56	0x3b9743d6	0.004616241
57	0x3bd83fee	0.006599418
58	0x3b572231	0.0032826776
59	0x3b18e482	0.002332956
60	0x3b3e8f44	0.0029077092
61	0xbbd9b37c	-0.0066437107
62	0xbc18aa08	-0.009317882
63	0x3c77308a	0.015087256
64	0x3b12b195	0.002238368
65	0xbbae3a44	-0.0053170044
66	0xbb99a559	-0.0046889004
67	0x3b9e8383	0.0048374548
68	0xbc354eca	-0.011066148
69	0x3bf070da	0.0073376717
70	0x3b0f0fd5	0.0021829505
71	0xbbc8bab0	-0.0061257705
72	0xbba9e290	-0.005184479
73	0x3a7e9f44	0.00097130635
74	0x3c8515dc	0.016245775
75	0xbb3b95c3	-0.00286232
76	0xbafa33dc	-0.0019088942
77	0xbb2d48be	-0.0026441063
78	0xbbed2bfd	-0.00723791
79	0xbb80f330	-0.00393524
80	0x3bf17ab6	0.0073693646
81	0xbc0f488d	-0.008745325
82	0x3b33d6c8	0.0027441252
83	0x3c1ee693	0.009698528
84	0xbb86c04d	-0.0041122795
85	0x3ae34674	0.0017339722
86	0xbbc293c3	-0.0059380247
87	0xbb77c193	-0.0037804588
88	0x3aae66d2	0.0013305789
89	0xb9b13520	-0.00033799652
90	0x3c1c7a96	0.009550711
91	0xbc351284	-0.011051778
92	0xbbaa639f	-0.005199864
93	0x3b7cf4d1	0.003859807
94	0xbb2ad035	-0.0026064042
95	0x3ba5434a	0.005043422
96	0x3abb3673	0.0014283195
97	0x3c45b6d4	0.012067515
98	0xbb86b611	-0.0041110595
99	0x3ba98e37	0.005174424
100	0x3ac2e6b5	0.0014869781
101	0xba471878	-0.00075948937
102	0xbb8cbba3	-0.004294829
103	0x39aca5b9	0.0003292987
104	0xbb70cddc	-0.0036743795
105	0x3a0e06b1	0.0005417867
106	0x3b6e6aad	0.0036379502
107	0xbbc6b9c8	-0.0060646273
108	0xbc3672dd	-0.011135784
109	0xbaaa7728	-0.0013005482
110	0xbb47f582	-0.0030511324
111	0xbb81c6e1	-0.003960476
112	0xbb191003	-0.002335549
113	0xbc9c4272	-0.019074652
114	0x3cae4c5e	0.02127665
115	0xbb4ec802	-0.003155232
116	0x3a119a7e	0.0005554332
117	0x3a6fb2cc	0.0009143769
118	0x3c218cd5	0.009860237
119	0xbba7faf4	-0.0051263515
120	0xbba55dca	-0.005046581
121	0xba9c447b	-0.0011922264
122	0x3aaba849	0.0013096418
123	0xbb10d20e	-0.0022097859
124	0xbba77b60	-0.005111143
125	0xba35daf8	-0.0006937231
126	0xbade2e2a	-0.0016951014
127	0xb8390246	-4.4109554e-05

action_model._discrete_distribution.branches.0.weight f4 [9, 128]
0	0x3c112cd5	0.008860786
1	0x3b928c13	0.0044722646
2	0xbc108ce5	-0.008822654
3	0x3c087c04	0.008330349
4	0x3c4b215a	0.012398088
5	0xbb922c6e	-0.004460863
6	0xbbc581e3	-0.0060274466
7	0xbc6ab97c	-0.0143264495
8	0x38414cae	4.60862e-05
9	0xbb8a6b87	-0.004224244
10	0x3c2a7a8c	0.010405194
11	0xbc5b23dc	-0.013375249
12	0xbc089ca2	-0.008338125
13	0xb98ecd37	-0.00027237248
14	0x3c1d5713	0.00960328
15	0x3bfa18fb	0.0076323724
16	0xbb859ffe	-0.0040779104
17	0x3b2a7209	0.0026007912
18	0x3c9d246b	0.019182405
19	0xba32fd18	-0.0006827875
20	0xbc37b7f8	-0.011213295
21	0xbb7a159c	-0.0038159853
22	0xba0da8ca	-0.00054038747
23	0xba9832d6	-0.001161183
24	0xbb4b024c	-0.003097671
25	0x3c4a1ece	0.012336446
26	0x3c92affb	0.01790618
27	0x3b8e0f4b	0.004335319
28	0x3bd13d3a	0.0063854726
29	0xbcbf7077	-0.023369057
30	0xba0a3248	-0.0005271775
31	0xbca41ecd	-0.020034218
32	0x3c84503b	0.016151538
33	0xbbda35ff	-0.006659269
34	0x3c8b1d40	0.01698172
35	0xbc11f62d	-0.008908791
36	0xbbc3f242	-0.005979807
37	0xbb3a5421	-0.0028431492
38	0xbbab9a5b	-0.0052369065
39	0xbd1ec4f9	-0.038762067
40	0xbc383495	-0.011243005
41	0x3b21d03c	0.0024690768
42	0xbcac4066	-0.021026801
43	0xbc8c9d04	-0.017164715
44	0xbc72cbee	-0.014819128
45	0xbc8cc6cf	-0.017184643
46	0xbc3c5f60	-0.011497349
47	0xbb98f876	-0.0046682907
48	0xbcc45864	-0.02396793
49	0xbc91136c	-0.017709456
50	0x3bf65e4e	0.007518566
51	0x3b980d2d	0.0046402426
52	0x3c606046	0.013694828
53	0xbc765724	-0.015035424
54	0xbc2b7087	-0.01046384
55	0xbd07a8eb	-0.033120077
56	0xbab62875	-0.0013897555
57	0x3c1195ae	0.008885784
58	0xbc4ac3ae	-0.012375755
59	0x3c5858c4	0.013204757
60	0xbbe6cbfc	-0.00704336
61	0xbad29c3d	-0.0016068291
62	0x3b8b9a79	0.004260358
63	0xbba83e38	-0.00513437
64	0x3b851644	0.004061492
65	0xbc950feb	-0.018196067
66	0xbb319295	-0.0027095426
67	0xbbaf6f48	-0.005353842
68	0x3c92ffd1	0.017944248
69	0xbc8a94c5	-0.016916642
70	0xbbc73097	-0.0060787904
71	0xbb6dd4b2	-0.0036290106
72	0x3bbc0d58	0.0057388954
73	0xbbc1b7ec	-0.005911818
74	0x3b81738e	0.003950543
75	0x3c0ece10	0.008716121
76	0x3c9a06c1	0.018802049
77	0xbbccbd48	-0.00624815
78	0x3b5f48ba	0.0034070448
79	0xbc1c0e09	-0.009524831
80	0xba3c4bc1	-0.0007182919
81	0x3c6aa6ed	0.014322025
82	0xbb2021bc	-0.002443417
83	0xb8593893	-5.178952e-05
84	0xbb8e868c	-0.0043495353
85	0x3a73beff	0.0009298175
86	0x3ca977a0	0.020686924
87	0xbbbeb3ea	-0.0058197873
88	0xbc946c10	-0.018117934
89	0xbc761fb5	-0.015022208
90	0x3c877443	0.01653493
91	0xbbe9b6b5	-0.007132376
92	0x3bfa0148	0.0076295473
93	0xbbd67c41	-0.006545574
94	0xbc33ae45	-0.010966842
95	0x3c0996d0	0.008397773
96	0xbbb609dc	-0.0055553745
97	0xbc84ea35	-0.01622496
98	0xbc86dfb4	-0.016464092
99	0xbcb2578c	-0.021770261
100	0xbc592bf2	-0.013255106
101	0x3c31ea22	0.010859044
102	0x3b8a19a0	0.0042144805
103	0xbb0b07cc	-0.0021214364
104	0xbbbaa146	-0.005695495
105	0xbcbaece7	-0.022818042
106	0x3bb12212	0.005405673
107	0xbc2f95fd	-0.010716912
108	0x3b85df8c	0.0040854868
109	0xbbb518d8	-0.0055266432
110	0xbbc49acc	-0.0059998985
111	0xbc5622c2	-0.01306981
112	0x3b971cb3	0.0046115755
113	0x3cbff925	0.023434231
114	0xbc470bb0	-0.012148783
115	0x3c1a5a5b	0.0094209565
116	0xbba282cf	-0.0049594413
117	0x3af0eae8	0.0018380554
118	0xbd160026	-0.036621235
119	0x3c0fecd2	0.00878449
120	0x3b705da0	0.0036676899
121	0xbb155c0c	-0.002279046
122	0xbcc1d277	-0.023659928
123	0xbc37e7c5	-0.011224692
124	0xbc032f66	-0.008006906
125	0xbbf28840	-0.007401496
126	0x3c9859b5	0.018597463
127	0x3cf65636	0.030070405
128	0x3c127720	0.008939534
129	0xb930d69e	-0.00016864619
130	0x3c058d46	0.008151358
131	0x3b37e85a	0.0028062076
132	0x3b8081d3	0.0039217263
133	0x3c5cbf34	0.013473321
134	0x3c28dc4d	0.01030643
135	0xbbc50401	-0.00601244
136	0xbb9b6d37	-0.004743244
137	0x3b51ead4	0.0032030838
138	0x3c3945da	0.011308158
139	0x3cc735a2	0.024317566
140	0x3b9b2a22	0.004735247
141	0x3be0a874	0.0068560187
142	0x3c90a541	0.017656924
143	0xbc8609d8	-0.016362116
144	0x3c00d0cd	0.007862282
145	0x3ca3ae0f	0.019980459
146	0xbc166e38	-0.009181552
147	0xbbe305e1	-0.006928191
148	0xbc7627b2	-0.015024113
149	0xbc0361a4	-0.008018885
150	0x3bb019d1	0.0053741713
151	0x3c8bd01c	0.017067008
152	0x3b4f81e0	0.0031663105
153	0xbc46e6fc	-0.012140032
154	0xbc859ea1	-0.016310992
155	0x3bf0114e	0.0073262816
156	0x3c8c9035	0.017158607
157	0x3c7f9682	0.015599849
158	0xbb2491b7	-0.0025111267
159	0x3bbd54eb	0.0057779453
160	0xbc383757	-0.011243663
161	0x3bfac917	0.0076533663
162	0x3a95e792	0.0011436811
163	0xbb5c5c84	-0.003362448
164	0x3c0920cc	0.008369636
165	0x3cb5331c	0.022119097
166	0x3c82d657	0.015971346
167	0x3c31ed38	0.01085978
168	0xbc3317e1	-0.010930986
169	0x3b1ada66	0.002362871
170	0x3c032573	0.008004534
171	0x3b876ab9	0.0041325954
172	0x3c206d48	0.00979168
173	0x3bf9f3b6	0.0076279296
174	0xbb8ac4a7	-0.0042348686
175	0xbc67e226	-0.014153039
176	0x3b9b5f7b	0.004741607
177	0xba466749	-0.0007568491
178	0xbb4c6faa	-0.0031194487
179	0x3ba7b58e	0.0051180786
180	0x3c23166f	0.009954079
181	0xbba8bbad	-0.005149326
182	0xbcc42605	-0.02394391
183	0x3ad9184f	0.0016563031
184	0x3c36835c	0.011139717
185	0x3bfc7101	0.007703901
186	0xbc74bdb4	-0.014937807
187	0x3c429a24	0.01187757
188	0xbaeafda9	-0.001792838
189	0x3c6e7f7d	0.014556763
190	0x3cab3245	0.020897994
191	0xbcd5ec9a	-0.026113797
192	0xbbfc38b4	-0.007697189
193	0x3c1e2934	0.009653378
194	0x3bcdc82f	0.0062799673
195	0xbc6c2aad	-0.014414472
196	0x3ca41ce7	0.020033313
197	0x3bacd3cf	0.005274273
198	0x391ed892	0.00015148733
199	0x3c4f66a5	0.01265875
200	0x3c6ef91f	0.014585762
201	0xbc2b921f	-0.01047185
202	0xbc83bba6	-0.016080689
203	0xbb3cde05	-0.0028818857
204	0xbc4070c7	-0.011745638
205	0xbadb1e33	-0.0016717374
206	0x3b49d5d0	0.0030797608
207	0xba6c4d2e	-0.0009014186
208	0xbc811af3	-0.01575992
209	0x3c39ea47	0.01134736
210	0xba9704e2	-0.0011521841
211	0x3c42e782	0.011896016
212	0xbba39d9e	-0.0049931547
213	0xbc1d8b30	-0.009615704
214	0xbc289aba	-0.010290796
215	0xbb248fde	-0.0025110166
216	0xbb8a5416	-0.0042214496
217	0xbb8b3b67	-0.0042490247
218	0xbc1963aa	-0.009362141
219	0x3ba08edd	0.004899843
220	0xbbc61a11	-0.006045588
221	0xbb761b5e	-0.0037552933
222	0xbb6d0d2b	-0.0036171179
223	0xbacac86c	-0.0015471107
224	0xbc120c4f	-0.008914067
225	0xbc8725c3	-0.016497498
226	0x3bec6706	0.00721443
227	0x3cc9c28b	0.024628898
228	0x3b52dea0	0.0032176152
229	0xbca70d84	-0.020392187
230	0x3a83c874	0.0010054247
231	0x3c718cd7	0.0147430515
232	0x3c11a874	0.00889026
233	0xbc68e5d9	-0.014214956
234	0xbaf58f39	-0.00187347
235	0xba220e84	-0.00061819726
236	0xbc856489	-0.01628329
237	0xbcab63d8	-0.020921633
238	0x3be866e8	0.0070923455
239	0x3cb40fc9	0.021980183
240	0xbbb85ad8	-0.005626064
241	0x3ab80a61	0.0014041179
242	0xbb48d078	-0.0030641835
243	0x3c2973e2	0.01034257
244	0xba1c8907	-0.00059713464
245	0xbc960bfe	-0.018316265
246	0x3c9602fd	0.018311972
247	0xbc420592	-0.011842148
248	0x3c18139d	0.00928202
249	0xbba5f4ee	-0.0050645983
250	0xbaf2d380	-0.0018526167
251	0xba922219	-0.0011149078
252	0x3c8b3e21	0.016997399
253	0x3b74b597	0.0037339681
254	0x3ca00030	0.01953134
255	0xbc9466ad	-0.018115366

action_model._discrete_distribution.branches.0.bias f4 [9]
0	0xbb8d2923	-0.0043078824
1	0xbbe4a87c	-0.0069780927
2	0x3a827a25	0.0009954615
3	0x3a45f16a	0.0007550927
4	0xba47aa0d	-0.0007616587
5	0x3b1f94c2	0.0024350141
6	0x3b501e57	0.0031756365
7	0x3b9cf12b	0.0047894916
8	0xbab38d9f	-0.0013698823
