Assets/defender_3.onnx (onnx, 96621 bytes, 6 tensors)

network_body._body_endoder.seq_layers.0.weight f4 [128, 40]
00000000: ed8c 5dbe e6b6 cbbd 69a3 60bd dafa 313b
00000010: 9a5a d3be 0099 b03d b96a 863e b28c 163e
00000020: d6cc 3abe 7acc 893d 5c2c b73d 0026 8dbd
00000030: 7772 c93e 0ed4 723e a250 cfbd 9f44 5dbe
00000040: fdc6 b8bd 3442 333e fb4d 8bbe 32eb 1b3e
00000050: 8310 be3e 16c6 83bd 0021 84be 334d 253e
00000060: 8e0a a4bd 55ba 4e3e 7531 033e 9b20 06be
00000070: e673 c03d d336 d53d 3797 a9bc d1fd 16be
00000080: 8223 123e 78bd 78bd b562 84be 29cb bb3d
00000090: 8003 173d 3ea4 0f3e 1a84 553d 41c0 1e3e
000000a0: b2c0 babe 98eb e3bd b477 b83c 8a7e de3d
000000b0: 9eb4 dabe cb0a ecbe b35d acbd c4b2 533e
000000c0: a9c3 6ebe fe97 8dbe cd1d 063e ef1c 5abd
000000d0: fe07 31be afde c33e 5090 a63d 1297 70be
000000e0: 5549 fbbd fd03 3b3d 0808 15be e84b 1b3e
000000f0: b2f9 3f3e 9e66 22be c687 9d3c 4916 babe
00000100: 0714 383e 9dfc 123e 29fd 163e 1e9d 32bc
00000110: 3763 e53d 0a2f a2bb 60e4 233e 1d34 a23e
00000120: 296b a0bd 91b4 2c3e cfda eb3d 708d 36bd
00000130: 6d3b aa3d f797 153b 125c 82be bb7e 38bd
00000140: 519f 23be d80a 62be 48ad 06be c919 db39
00000150: 4d78 e23d 5ae9 98bd 5864 853e 8936 53bd
00000160: 2ffe 573e 7477 3f3e 2b61 debc 2967 b4bd
00000170: db7e 16be 76c1 f3ba 4dd4 9cbd 5848 30be
00000180: 3ec1 af3e 2140 2e3e 415e 633d 45aa d53d
00000190: ab6b 163d 7f9f 613c 5c9a 353d 15f6 c3bc
000001a0: f1fc de3d 9dbc 6f3d 86dc 523e 49dc 0bbd
000001b0: 7c85 293e ab70 5a3e 808c 603e 6850 d73d
000001c0: 8f9e d8bc 087d d8bd c69f 5d3c 2836 4bbd
000001d0: 4858 77be be4c 09bd bd02 e03e 2a76 e6bc
000001e0: 4305 7bbd 8d41 5f3d bb8b 97be ec13 823e
000001f0: 400d adbd 03bd 3a3e d1cd a5be d24f c43e
00000200: d67e 24bd 5bca 793e ca92 5e3e 0ea4 8ebe
00000210: 134d 4fba 3781 833e ed20 303e 52ca 133e
00000220: 4b1e fbbd 6b51 7e3e a2f9 9dbd c8aa 2f3e
00000230: 908b a93d 0324 443d 2499 7b3d 192f 1fbd
00000240: 6405 0b3e a89a 31bd c9d0 783d 3e63 263e
00000250: aeca a2bb 7f09 c6bb 6575 ec3d 79de 9bbd
00000260: 028e ed3c edda 84bd f5f8 233e fa21 ddbc
00000270: c071 2bbd bacc 02bc 17f1 d43d dd2d dabc
00000280: 89b5 333e f67d dfbe c743 33be b0fe 70bd
00000290: df75 943d 3153 bfbd 6d34 62bd e77e b83d
000002a0: f904 30be edf5 7b3e 45e6 84bb 32de 1abe
000002b0: 862f 753d 943a 4d3e 854b d73c 5899 d03d
000002c0: c285 5abe 205a d8bd 6a7b babc 7a16 0bbe
000002d0: 1971 513d 36c9 9fbd fd8b f6bc 102f a8bc
000002e0: 5b3c 14be 829b a23e ff64 9b3e fe8b c5bd
000002f0: 53b5 933c 3c1c a93e 803e 08be bb5b 53bd
00000300: 4bce 6d3b d3b4 b53d 5f9b 17be 93fd 1e3e
00000310: 2c12 2fbe 7bb0 133d 1fff b23d ba11 2cbd
00000320: f608 61be 181f a9bc 05e9 59be 7025 303d
00000330: b4e9 943e f6de 8dbc 1db1 82bb c609 20bc
00000340: 5022 873e 6a61 44be 8d44 0bbc 85d5 26bc
00000350: d364 63be 3a91 cb3d 009a af39 8eb6 3fbe
00000360: 90e7 a9be e601 143d 8851 d2bd fd0d b03e
00000370: 3cf1 aabd 9043 103e 97a0 d73d c1fd 9a3c
00000380: a8b5 923d 56ae f0bd e19a 543e b11c 8dbe
00000390: 540b f9bb 1c73 f3bd aeaa f83d fbe0 b5bd
000003a0: 427b 593d 71c9 6abe f1ca e5bd 8128 3e3e
000003b0: 7903 f43d 1ff1 5c3d 6e12 adbd 7db3 513d
000003c0: 38bc 6f3d cdd9 1e3d 4166 093b 585f ea3d
000003d0: ae32 093d 715e 34be bef3 993e 4ea9 3fbd
000003e0: 68ac a2bd c960 e23d 3c8e 01bd d38d 073e
000003f0: 9502 2dbe 71f6 abbd 91e5 673e 34f8 10bd
-0.2163579 -0.099469945 -0.05484334 0.0027157576 -0.4128006 0.086229324 0.26253298 0.14702109
-0.18242201 0.06728454 0.08944008 -0.068920135 0.39345142 0.23713705 -0.10122801 -0.21608208
-0.09022329 0.17505723 -0.27207932 0.15226439 0.37121972 -0.06434266 -0.25806427 0.1614273
-0.08009826 0.20188268 0.12811835 -0.13098375 0.09397106 0.104108475 -0.020701988 -0.14745261
0.14271358 -0.060727566 -0.25856557 0.09169609 0.036868572 0.14027497 0.052127935 0.15503027
-0.3647514 -0.1112892 0.022518016 0.10863979 -0.42715925 -0.46101984 -0.08416309 0.20673662
-0.23316826 -0.27655023 0.13097306 -0.05325025 -0.17288205 0.38255832 0.08132994 -0.23495129
-0.12269846 0.0456581 -0.14553845 0.15165675 0.18747595 -0.15859458 0.01922978 -0.36345127
0.1797639 0.14354177 0.1474501 -0.0109017175 0.11200564 -0.004949455 0.16005087 0.31680384
-0.07832939 0.16865756 0.11516344 -0.04456848 0.08312116 0.0022826174 -0.2546087 -0.045042735
-0.15978743 -0.22074449 -0.13152039 0.00041790146 0.11058102 -0.07466383 0.2605312 -0.05156568
0.21093057 0.18697912 -0.027145943 -0.08808739 -0.14696829 -0.0018597085 -0.07657681 -0.17215097
0.3432712 0.1701665 0.05550981 0.10432867 0.036723774 0.013770937 0.04433666 -0.023921052
0.108880885 0.058529485 0.20591936 -0.034145627 0.16554826 0.21332042 0.21928596 0.10513383
-0.026442794 -0.10570723 0.0135268625 -0.049612194 -0.2415477 -0.033520453 0.4375209 -0.028132517
-0.061284315 0.054505873 -0.29598793 0.25405824 -0.08449793 0.18236165 -0.32383588 0.38342148
-0.040160023 0.24393599 0.21735683 -0.2785954 -0.00079079083 0.2568452 0.1720006 0.14432648
-0.12261637 0.24835746 -0.07713629 0.17154992 0.082785726 0.047885906 0.061425343 -0.038863275
0.13576275 -0.043360382 0.060745988 0.16248795 -0.004968009 -0.0060436125 0.11545829 -0.07610793
0.028998379 -0.06487069 0.16012938 -0.02699374 -0.041856527 -0.007983381 0.10397547 -0.026633197
0.17549719 -0.43650788 -0.17506324 -0.05883664 0.072490446 -0.093420394 -0.05522578 0.0900858
-0.17189397 0.24605532 -0.0040557706 -0.15123823 0.059859775 0.20041877 0.026281128 0.10185498
-0.21340087 -0.10564065 -0.022763927 -0.13582793 0.05113325 -0.0780205 -0.030096048 -0.020530254
-0.14476149 0.31759268 0.3035049 -0.09645842 0.018030798 0.33029354 -0.13305092 -0.051601153
0.003628629 0.0887238 -0.14805363 0.15526418 -0.17096776 0.036056977 0.08740067 -0.042009093
-0.21976075 -0.02064471 -0.21280296 0.043004453 0.2908455 -0.01731823 -0.0039883987 -0.009767955
0.26393366 -0.19177786 -0.0085002305 -0.010182743 -0.2220643 0.09939809 0.0003349334 -0.18721983
-0.3318448 0.036134623 -0.10269457 0.34385672 -0.08346793 0.14088273 0.10528677 0.018919827
0.071635544 -0.11752002 0.20762207 -0.27560952 -0.0076002274 -0.1188719 0.121419296 -0.08880802
0.053096063 -0.22928406 -0.112203486 0.18570139 0.11914725 0.05394089 -0.08450781 0.051196564
0.05852911 0.03878193 0.002096549 0.114439666 0.033495598 -0.17614152 0.30068773 -0.04679232
-0.0794304 0.110536166 -0.031629786 0.13237695 -0.16895516 -0.08396614 0.22646166 -0.035392955

network_body._body_endoder.seq_layers.0.bias f4 [128]
00000000: 0833 323a eccc b6bc eb1a 44bc a9a6 183c
00000010: a5b6 24bc cff9 343c c96d 94bb 1b2d 7cbb
00000020: 45ea 1c3b 2689 6abb 0476 7bbc 7012 903b
00000030: dca2 a33c 41c6 2abb 40fd d23b 351c a6ba
00000040: 1d92 0abc b3c9 f4bb 51c3 1d3c c0f5 093b
00000050: 4aa0 b13c 5d4d 0fbc a560 003c 5f97 70bb
00000060: cb74 613a fc84 9cbc b1d4 1dbb d231 733c
00000070: 4bba eb3b 9d31 03bc f1fb 133b babd 25bb
00000080: 31a9 aabc 7dd6 3fbb e47d 5ebc 36af eb3b
00000090: a066 df3c b8b3 7d3b fe86 073c de59 6e3b
000000a0: 7751 e53b 8bbc b33a 87f9 773a fa74 8cbb
000000b0: 4d9a 2b3c a6a7 35ba f0a4 82bc 14dd 483b
000000c0: 1ade 78bb 1c92 dc3b d2e5 c43b 5d00 3abb
000000d0: b6b6 793c 3e2d 2c3a 6946 97bc 69e4 16bc
000000e0: 8a9a c2ba 9eae 40ba 328b a5bb fd6d 333c
000000f0: dab0 0a3b 1f70 f43b 9b53 b6bc a17f 8f3b
00000100: eb5d ab3b c3bc 933b 55c6 1a3a 4b57 19bb
00000110: d4cd 733b d6c5 f23b 11e2 cd3a d3dd b8bb
00000120: c5d8 19bc f0c4 1a3b d11b 99bc 6851 3ebb
00000130: 7497 15bc 43c1 d637 ab30 b13b 6661 94bc
00000140: 3e3a d839 1085 7b3a c3f4 003b bb14 abb9
00000150: 97e5 b63b 53b9 c53b 809a 5d3b 67d7 08bc
00000160: 3319 303c 2bd8 9dbc 2e6c 623c 0564 96bc
00000170: 993d 1eba 6dbf e93b 5300 e33a 309c b0bb
00000180: f94b 8e3b a8e6 803c 6096 c0b9 225c fdbb
00000190: ca01 78bc 7c3b ebbb f8ef d53b 6d80 f13b
000001a0: 269a f8bb ea85 dd3b b6d1 483c d66c 7d3c
000001b0: 85a4 283c 8ed6 99bc aef3 553b 4f17 803b
000001c0: 6392 e5bb 9dc7 10bc 943e 213a 0020 aebb
000001d0: 17a3 203b 15a3 313b 2515 21bc 26e4 91bb
000001e0: c3fd 0dbb 3820 86bb 0607 b13a b8b0 96ba
000001f0: ae44 32bc d72f 42bc 69a1 a53b 48ae 71bb
0.00067977654 -0.022314511 -0.011969308 0.009317079 -0.0100533115 0.011045887 -0.004529689 -0.0038479033
0.0023943346 -0.0035787313 -0.015347961 0.004396729 0.019975118 -0.002605811 0.006438881 -0.0012673201
-0.008457688 -0.0074703335 0.009629087 0.002105102 0.021682877 -0.008746472 0.007835542 -0.0036711318
0.00086004724 -0.01910638 -0.0024083073 0.014843421 0.0071938387 -0.008007434 0.0022580589 -0.0025290088
-0.02083263 -0.0029272132 -0.013579819 0.0071925176 0.027270615 0.0038711857 0.008271931 0.0036369483
0.0069982368 0.0013712806 0.0009459485 -0.0042864056 0.0104738 -0.00069295836 -0.015947789 0.003064935
-0.003797418 0.006731285 0.006008842 -0.0028381564 0.015241316 0.0006568021 -0.018466191 -0.009209731
-0.0014847082 -0.0007350239 -0.0050519938 0.010951516 0.002116254 0.007459655 -0.022256663 0.004379228
0.0052297018 0.004508586 0.00059041876 -0.0023397978 0.003720154 0.007408838 0.0015707632 -0.005641678
-0.009390061 0.002361592 -0.018690022 -0.002904022 -0.0091303475 2.5600782e-05 0.005407413 -0.01811285
0.00041242124 0.0009594718 0.001967714 -0.00032631107 0.0055815685 0.0060340553 0.0033814013 -0.008352137
0.010748195 -0.019268116 0.013819737 -0.01835824 -0.00060364004 0.0071334154 0.0017318822 -0.0053897128
0.0043425527 0.015734985 -0.00036733132 -0.0077319304 -0.015137145 -0.007178722 0.0065288506 0.007370046
-0.0075867353 0.0067603486 0.01225703 0.015467843 0.010293131 -0.018779065 0.0032646465 0.0039090286
-0.007005976 -0.008836654 0.00061509875 -0.0053138733 0.0024511272 0.002710526 -0.009831701 -0.0044522462
-0.0021666146 -0.0040931962 0.0013506121 -0.0011496758 -0.010880632 -0.011852226 0.005054642 -0.0036877561

network_body._body_endoder.seq_layers.2.weight f4 [128, 128]
00000000: 8230 2dbd c45a 15be 6381 033e d99a 3f3d
00000010: 9632 a1bd 442f 783d 039a 12bb ce60 f9bc
00000020: fef6 253c 062d 25bc 84bb 553d 15fd 3d3c
00000030: d0b9 f03d b06b 1f3e a926 ff3d 0bfd 433d
00000040: 5f6e 59bd 63fb 983d 159c 1f3e e6ff 8c3d
00000050: af62 47bd b5d2 413e eabb c9bc 776b e0bd
00000060: b5f8 233e 17b9 663d 023a 683e 874a 333d
00000070: a7ee ba3c 6975 bd3c ca7c 0abe 8f33 28ba
00000080: ea19 61bd 25be cbbd 2c01 debd 6402 1fbd
00000090: 9b95 4f3d 6095 633e 6a81 e83a ed90 1cbc
000000a0: 7edc 103e f536 1e3e c739 f9bc 20da 58bd
000000b0: 5ef1 af3d d1c7 663c 814f dc3d 04ad fd3d
000000c0: e702 0b3d 7dfa 1c3d aa9f b03d 81b5 e9bd
000000d0: c5e4 ee3a 5069 753d 04f0 dc3d bff0 26be
000000e0: f6a4 c4bd fddf cebc a3dc db3c a254 cc39
000000f0: 459a 103d 8940 843d f445 8cbd 347a 49bd
00000100: a259 9ebd e99f e23d bafe 313c 56fc 5c3e
00000110: dbcd 6ebd b821 c5bc 493f 863c 9abc 713d
00000120: 21f6 8ebd e03f 6ebc 27f2 4cbd cb75 00be
00000130: d9cb 443b 9c90 b4bd 9808 7a3c 0c6f 8ebd
00000140: bbc0 cfbd e732 b43d 9276 88bd 17db 26bd
00000150: b405 9b3c b8d8 be3c 9a08 d1bb 11fa d53c
00000160: 3e01 f5bd ca6d b23c 9195 8c3c aede 073e
00000170: 4860 1abd 6b66 3bbd f3ad 4a3c cf93 2e3c
00000180: 481d ac3d 3989 143d b1ce adbb 37af a2bd
00000190: 34e8 593d 92ee 82bd cac8 213d a4a2 b23d
000001a0: fcbc e8bb 058c 8d3c 606a 3abc 2c0d 833d
000001b0: 2d36 da3c 49d8 133e 855c 90bd ee22 67bd
000001c0: 22fc f7ba f7cf 6cbb 35dc 5e3d 53d7 1a3d
000001d0: 8eeb edbd ca70 293d ecd8 76bd 66ae cfbd
000001e0: 7763 e7bd 38a6 b33d 27c0 86bd 32a5 05be
000001f0: 0c01 7cbc 70b0 323d 60f9 ca3d c34a 4cbe
00000200: aa4d f13d 69bd fdbd 4e0b 893d ce11 163e
00000210: 045b ecbd 77fd 94bd 5bfb fcbd 8484 eebd
00000220: baef bcbd 2e58 863d 1bea 143e f470 033e
00000230: ed91 a03d 22bd 9bbd 82c5 1f3e d9ce a3bc
00000240: 25f6 0d3d a4f9 01be 1a8c 39bb 2222 8bbe
00000250: 9785 55bd 76e6 7e3c 1e2a 5f3d 72e1 f7bc
00000260: bd6d 82bc 5341 923c 575f 40be b79b 8b3d
00000270: 883c 893d 135c e1bc e438 8b3c a91a 9abb
00000280: c522 633e 1625 a7bd defa f0bd 7e0c 9f3d
00000290: 3d2e 1abe eecf dbbd e059 20bc 1a5c 853d
000002a0: 5433 9fbd 57ac 773e 1e76 7cbd 8faa 0b3d
000002b0: bd02 853d c159 2bbb f784 2fbe 13f8 0cbc
000002c0: 6e81 a63d bf43 c53c 2ad8 503d f2f1 113d
000002d0: 7809 6a3d 34db bbbc 9bd2 443d 08d3 1c3d
000002e0: 201e d4bc 698d 06be b3e1 523c 176b ae3d
000002f0: 8c55 68bd 397a acbd 5750 913d 4c81 e73c
00000300: 500c 403d 86fd 0cbe 0e4b a3bd 9e29 1c3d
00000310: 51c0 51bc a496 c4bd e9c6 973d bf71 423d
00000320: 50a1 f23d 8db2 7bbd acfb 5bbd 292c ff3d
00000330: c7df c53c e021 cbbc f381 cbbd ec88 473d
00000340: 8730 a43c 5cf2 ef3d b50a 7a3d e35e b4bd
00000350: b41b 83bd 39dc 403d 049d 4bbd f6fa 94bd
00000360: 525e 89bd 17a2 f4bc 012a 193d 237b 313c
00000370: 41e0 52bd e107 0dbd 82a7 043d 9163 4dbc
00000380: 9034 bebb e82f fd3d 770f d13d f7ea 243e
00000390: 64f2 803d d6e2 223d 276b 82bc 4efa 883d
000003a0: e614 cd3d ee04 303e 4799 243e cd84 e13d
000003b0: c664 02bd 3c3d 0dbe 681e c8bd 0f18 d93d
000003c0: a82c 1e3d 3fa9 533d 01ed 663d bea4 29be
000003d0: 5911 903d 9c61 163e 43de 97bc 72fe 2dbd
000003e0: ca97 5dbe 269f 8fbd a3dc c5bc 25fc 44be
000003f0: 23d2 9abd 4845 05bd 47dc 143e af49 e7bc
-0.04228259 -0.14585406 0.12842326 0.046778534 -0.078709766 0.06059195 -0.002236963 -0.030441668
0.010129688 -0.010081535 0.052180782 0.011595984 0.11754191 0.15568423 0.12458546 0.047848742
-0.053083774 0.07469823 0.15586884 0.06884746 -0.048678096 0.18928035 -0.024625737 -0.10957997
0.16012843 0.05632886 0.22678378 0.043772247 0.022818876 0.023127275 -0.13524166 -0.0006416374
-0.054956354 -0.099483766 -0.10840067 -0.03882064 0.050679784 0.22224951 0.0017738764 -0.009556037
0.14146611 0.15450652 -0.030423058 -0.052942395 0.08590959 0.014085726 0.10757352 0.12386516
0.033938315 0.03832482 0.086242035 -0.11411572 0.0018226138 0.059914887 0.10787967 -0.16302775
-0.09601776 -0.02525329 0.026838606 0.00038972968 0.035303373 0.064576216 -0.0684928 -0.049188808
-0.0773194 0.11065657 0.010863954 0.21580634 -0.058301788 -0.02406393 0.016387599 0.059017755
-0.06980539 -0.014541596 -0.050035622 -0.12544934 0.003002873 -0.088166445 0.015260838 -0.06954774
-0.10144182 0.08798771 -0.066632405 -0.040736284 0.018923618 0.023296699 -0.006379199 0.026120218
-0.119631276 0.021780867 0.017161163 0.1326854 -0.037689477 -0.04575197 0.012370574 0.0106553575
0.084040225 0.03626368 -0.0053041806 -0.07943576 0.05319996 -0.0639316 0.039498128 0.087224275
-0.007102607 0.01727868 -0.011377901 0.06398997 0.026637161 0.14437975 -0.07048897 -0.056429796
-0.0018919746 -0.00361347 0.054409225 0.037803005 -0.11617194 0.04136733 -0.060265467 -0.10140686
-0.11298268 0.08771938 -0.06579619 -0.13051298 -0.015381109 0.043625295 0.09910846 -0.19950394
0.11782391 -0.12389643 0.06691609 0.1465523 -0.11540797 -0.07274907 -0.1235263 -0.11646369
-0.09225412 0.06559788 0.14542429 0.12836057 0.07840333 -0.076044336 0.15602687 -0.019996094
0.03465857 -0.12692887 -0.0028312267 -0.2717448 -0.052129354 0.015557876 0.054483525 -0.030258868
-0.015921468 0.017853415 -0.1878637 0.068168096 0.067009985 -0.027509725 0.016994901 -0.004702885
0.22181232 -0.081613705 -0.11766599 0.077660546 -0.15056701 -0.10733019 -0.009787053 0.065117076
-0.07773462 0.24186836 -0.061636083 0.034098204 0.06494663 -0.0026146027 -0.17140566 -0.008604067
0.081301555 0.024080155 0.0509874 0.035631128 0.057137936 -0.022931673 0.04805241 0.038287193
-0.025893271 -0.13139881 0.012871194 0.085165195 -0.05672221 -0.084217496 0.07095402 0.028259896
0.046886742 -0.13768587 -0.079733 0.038125627 -0.012802199 -0.09599045 0.07410986 0.047471758
0.11847174 -0.061449576 -0.05370681 0.12459595 0.024154557 -0.024796426 -0.09936895 0.048714563
0.02004267 0.11716148 0.061045367 -0.08807161 -0.06401768 0.04708502 -0.04971029 -0.072744295
-0.06707443 -0.029862447 0.037393574 0.010832581 -0.051483396 -0.034431342 0.03238631 -0.0125359455
-0.005804606 0.12362653 0.10208028 0.16105257 0.06296232 0.03976711 -0.015920235 0.06688367
0.10013752 0.1718938 0.16074096 0.11011658 -0.031834386 -0.1379289 -0.097714245 0.10600292
0.038616806 0.051675078 0.05637837 -0.1656675 0.07034559 0.14685673 -0.0185386 -0.042478986
-0.21639934 -0.07012777 -0.02415306 -0.1923681 -0.07559612 -0.032536775 0.14537154 -0.028233377

network_body._body_endoder.seq_layers.2.bias f4 [128]
00000000: 76b1 613b 3436 0fbc cd47 283c 628f 09bc
00000010: e4f0 ac3a 13f1 843c bba9 e3bb fd80 4f3a
00000020: eb6e 083d 54f0 b33b 8d61 26bc b672 04bc
00000030: 5a2f cc3a 4c95 023c 66bc c0bb 291f cc3b
00000040: da39 a13c 1ea1 d9bb 87df d23c 625f e1ba
00000050: 2f3e e7bb 4664 41bb 3d43 e7bb d602 183b
00000060: 1e04 42bc f3cf 75bb 52dd 7b3b 9251 b9bb
00000070: ba71 a83b f9ef 8abb 6340 cc3b 986c c13c
00000080: 5b2c 16b9 6430 063c 6a7c ab3b 9dcf 11bb
00000090: 81c8 03bc ae48 773b 33fc 193c c4af 9bbb
000000a0: 0a8f 813c e008 51bb c4b0 39bc 6a24 0abc
000000b0: 45f0 a9bb 0103 bb3b 09bf 5abc d7cf d9bb
000000c0: 548f 143c 9b15 00ba 280d 86ba 033d 23bb
000000d0: 0e94 b937 2e2f 8d3c 35bd bf3b acaa c5bb
000000e0: 9a00 19bc 7b47 c5bb 9e62 d33b 3648 3d3b
000000f0: 9722 43bc 7eec 79bc 6f89 99bc 01e5 9cbb
00000100: 53ec 24bc 13c8 233a 8b8a aabb eae5 9ebb
00000110: b5ef 8abb c07f f3bb 2757 1cbb e1bf b4ba
00000120: 88df 6bbb 293b 08ba 15b8 bc3b ff6c c1bb
00000130: 40db eb3b 234e 2b3c 619a 8abb 8ca7 99bb
00000140: 820e e93b 4b92 033b 3876 adbb 9a93 f73b
00000150: 4168 353b 43ca 163c 2b43 3bbc 4450 463c
00000160: 05dd 88ba bb80 1b3b 830a d63b 3aa2 c1ba
00000170: bc23 5a3c 2c68 0dbc bb7e 54bc 6957 5b3b
00000180: 28aa 92bb 95ca 2fbc aef4 77bb 5ada 15bb
00000190: a753 66bc 909d d3bb 0b70 ed3b 3bb1 e5bb
000001a0: 18db 00bc a250 73bb 9e3a e93b efbf b93c
000001b0: e93c d3b7 acd0 db3b e353 9db9 3c75 3ebc
000001c0: b4bb 25bb 1863 1fbb 6664 a93c 2d8d d33b
000001d0: 4996 82bc ee0e 5eb9 6754 ec3b ee5b f5ba
000001e0: 2153 2ebb fc20 1ebb fbe9 053c ca6a c43a
000001f0: 1962 4dbc ffb7 743b 1a2b 0dbc 9ba4 0a3c
0.003443805 -0.00874095 0.010271025 -0.0083960015 0.001319435 0.016228234 -0.0069477237 0.0007915644
0.033308905 0.005491296 -0.010155094 -0.00808399 0.0015578077 0.007970165 -0.005881834 0.0062293005
0.019680906 -0.006641521 0.025741352 -0.0017194564 -0.0070569734 -0.002950923 -0.007057576 0.002319505
-0.011841802 -0.003750798 0.0038431478 -0.005655476 0.0051405104 -0.0042400328 0.0062332614 0.023611352
-0.00014321638 0.008190248 0.005233337 -0.0022248991 -0.008043409 0.003773253 0.009398508 -0.0047511775
0.015815277 -0.003189616 -0.011333648 -0.008431533 -0.005186113 0.005707145 -0.01335121 -0.006647091
0.009067375 -0.0004886032 -0.001022731 -0.0024908192 2.2122662e-05 0.017234411 0.0058514127 -0.0060323086
-0.009338522 -0.006020484 0.006450965 0.0028882152 -0.011910102 -0.015254138 -0.018742291 -0.0047880416
-0.01006611 0.000624777 -0.005204504 -0.0048491852 -0.004240001 -0.0074310005 -0.0023855658 -0.0013790095
-0.003599139 -0.0005196804 0.005759249 -0.005902886 0.0071977675 0.010455641 -0.004229829 -0.0046891626
0.007112325 0.002007621 -0.005293634 0.0075554373 0.0027680548 0.009203496 -0.011429588 0.012104098
-0.0010441846 0.0023727852 0.006532015 -0.0014773079 0.013314184 -0.008630794 -0.012969668 0.0033468849
-0.0044758506 -0.010729452 -0.003783505 -0.0022865743 -0.01405803 -0.006457992 0.0072460226 -0.007009653
-0.007864736 -0.0037126918 0.0071175834 0.022674529 -2.5181524e-05 0.0067082252 -0.00030007874 -0.011624631
-0.0025288882 -0.002432054 0.020677757 0.0064560384 -0.015940802 -0.00021177132 0.00721221 -0.0018719414
-0.0026599842 -0.0024128547 0.008173461 0.0014985439 -0.012535595 0.0037341116 -0.008616233 0.008462097

action_model._discrete_distribution.branches.0.weight f4 [9, 128]
00000000: 072c 40bb 946f 29bc bdd0 59bc c9e1 feba
00000010: 4b08 f73a a4eb 753c e15d b03b 7d1b 5cbc
00000020: 0845 8fbc 1e02 ed3b b5bd 913a 1cf6 443c
00000030: 56b9 0d3c 889b 5f3c fda1 dfbb 110c b93c
00000040: a3dd 353c b67b c1ba 4b24 a7bb 64ee 9339
00000050: 8527 31bb 401b dbbb c5e8 2dbb c491 d73b
00000060: 18b7 76ba 940b a93b 711e 1b3c b413 bcbb
00000070: 078b f0bc 5a8a 69bc ce5f 653c 2e1a 3d3c
00000080: 6bd3 d13b 25af 5dbc c3d4 933c adc0 f63b
00000090: b6aa 5c3c 366e b4ba 5355 e53b d40f 37bc
000000a0: db62 453b 4821 47bc 016c fcbb 2a01 593c
000000b0: 7ad9 64bc f6c0 57ba 0abc d33a 4b9c d73b
000000c0: 40ff ebbc 4772 50bb 13a8 59bc 5f70 853b
000000d0: ccc6 81bc 3999 76bc 8eaf 5ebc 4444 f6bb
000000e0: 830d 0c3b 4728 23bb 100b 413b 7731 03bc
000000f0: 9e01 9e3b b0f3 8cba 90ba 7b3b 36ac be3c
00000100: 8d19 883c f8fb 2ebc 2d8d 323c a3f1 af3b
00000110: 8971 bdbb d9fc 8ebc 6676 d13b 5fc0 7bbc
00000120: 31b0 313c c730 103c e147 93bb 93b7 983c
00000130: ba0e 11bc aac4 edbb 65bd ac3b b659 17bc
00000140: 7747 943c 40df 763c 4b76 c7bb 2880 8b3c
00000150: b04b 26bc a5e9 0bbd a7cc 4c3b ab3d f5bb
00000160: aed6 46bc d4df 86bc b230 28bc 2704 2c3c
00000170: cae3 4e3c 1569 0f3c 4f7f 553b 49f8 483c
00000180: e167 9b3a ee65 6a3b c0aa e53a 7ada 54bc
00000190: 85aa cb3c 36df bdb7 d721 4cbb 05f2 abb7
000001a0: 4544 783b e1db 85bb 69b0 78bc 181c 613b
000001b0: fe05 903c 3828 e73b e22d c8bb 7f9e c4ba
000001c0: e11d 6e3a aa58 25bc 115c 9b38 6a45 bcbc
000001d0: 7c9b a2bb 6608 763b cc7d 08bc ddf7 183c
000001e0: 8a83 27bc 1ddb c5bb b6ab b8bc 0e32 87bb
000001f0: 03c0 b13a c1d4 b3bb 86b8 bd3b 11ab b43c
00000200: ba43 9639 d834 c2bb 1aa5 a83b 618a 25ba
00000210: ed49 c9bb b743 5bbc facd 4e3c ff73 063c
00000220: 0a63 f23a 6d4c 2fbc dd6b 983c b0db 11bc
00000230: 41f4 44bc 30f0 233c 0eeb ea3b edc8 e0bc
00000240: c5a4 253b 23e3 bd3c 3424 a9bc e0bd 8c3a
00000250: 820e debb 359e 5abb b453 023c 872b 133b
00000260: 5e45 103b c594 e43c fd40 88bc 390b 77bc
00000270: 05be c93c 6c38 55bc db44 223c bb2c 11bc
00000280: 47fd 763c a67a ef3c e02b 833a c749 7e3b
00000290: 1a93 ea3b 9a7b 143c 16ef 08bb 1108 623c
000002a0: f1c0 933c fb3c 9abb babb 883b c0f6 ba3c
000002b0: 0912 673c 0d93 493c 299c 853b 836d 0a3b
000002c0: 64b9 18ba 5acf f8bb 3a4d eebb 125a f0bb
000002d0: 3607 1cbc 8e0d 45bc c67a b73b 88ab eb3c
000002e0: 2ddc 43bb fb6a e13b a968 15bc 6d21 eb3c
000002f0: 936a 993b c9c3 9a3c 515c 8e3c dea1 14bb
00000300: d089 893b 72c5 613c 362e af3c dc33 dc3b
00000310: f0ec 4bbb 71b4 f6ba 9056 9f3c 1879 b03b
00000320: 8af3 1cbc b152 bebb b3ac 60bb b270 b63b
00000330: a881 bcbc 9270 c139 04f8 22bb 2dd7 253b
00000340: 1f28 53bc 11d5 11bd 2e38 9cba 3b62 25bc
00000350: 3128 ce3c 3143 443c a372 eabb 1497 6ebc
00000360: fb14 703b e69f 80bc 93ea 94bc 792b 1dbc
00000370: f15e f83b 358c 1b3c d19f cb3b b589 f139
00000380: 0450 183c 8427 463b a79c 1b3c 7478 25bc
00000390: 85dd 993c 90e3 abba 8165 48bb 92ce 1f3c
000003a0: f279 0dbb 4f93 023c 2004 aebc 261b 4fbc
000003b0: 78ae 053b 3116 513c c0e8 fdba e17b ac3c
000003c0: 83fa f83b f1ff 873c d68c e0bc 1f9c e63c
000003d0: fc0a 4a3c bca5 b03b 0600 0abc 74c6 84bb
000003e0: 44c7 8bbb 9639 1bbc 1327 b8bb a258 0dbb
000003f0: 9317 813c 1b74 d93b 6899 05bb 6eea 253b
-0.0029323117 -0.010341544 -0.013294396 -0.0019445951 0.0018847076 0.015009794 0.005382285 -0.013434288
-0.017488971 0.0072329184 0.0011119159 0.012021568 0.008650145 0.013647921 -0.0068247304 0.022588762
0.011100206 -0.00147616 -0.005100762 0.0002821564 -0.0027031612 -0.006686598 -0.0026536447 0.006578656
-0.00094114384 0.005158851 0.009467707 -0.0057396535 -0.029363168 -0.014254177 0.013999892 0.011541886
0.006403377 -0.013530527 0.018045789 0.007530293 0.013468435 -0.0013765756 0.006998697 -0.011173207
0.0030118737 -0.012153931 -0.0077033048 0.013244906 -0.013967866 -0.00082303525 0.0016154062 0.006579911
-0.028808236 -0.0031806396 -0.013284701 0.0040722336 -0.015841864 -0.01505118 -0.01359166 -0.007515462
0.0021370358 -0.0024895833 0.0029456057 -0.008007399 0.00482197 -0.0010753777 0.003841076 0.023275476
0.016613746 -0.010680191 0.010897917 0.0053693815 -0.0057813567 -0.017454552 0.006392288 -0.015365689
0.01084523 0.008800692 -0.0044946526 0.018642223 -0.008853609 -0.00725611 0.005271601 -0.009237697
0.018100483 0.015067875 -0.0060870997 0.017028883 -0.010149881 -0.034158368 0.0031249912 -0.007484158
-0.012136145 -0.016464151 -0.010265516 0.010499037 0.012627551 0.008753081 0.0032577103 0.012266227
0.001185652 0.0035766321 0.0017522201 -0.012991542 0.024861583 -2.2634496e-05 -0.00311481 -2.0497488e-05
0.0037882489 -0.0040850495 -0.015178778 0.003434902 0.017580982 0.007054355 -0.0061089853 -0.0015000849
0.0009083432 -0.01009194 7.408125e-05 -0.022982318 -0.004962383 0.0037541627 -0.008330774 0.009336439
-0.010224232 -0.006038083 -0.022542816 -0.00412584 0.0013561252 -0.0054880087 0.005789819 0.022054227
0.0002866069 -0.0059267096 0.0051466348 -0.00063148706 -0.006142846 -0.013382844 0.012622351 0.008206367
0.0018492651 -0.010699374 0.01860612 -0.008902475 -0.012021125 0.010005996 0.007169134 -0.027439559
0.0025275212 0.023179596 -0.020647146 0.001073774 -0.006776632 -0.003335846 0.007954527 0.0022456364
0.0022014002 0.02790297 -0.016632551 -0.015078359 0.024626741 -0.01301394 0.009904112 -0.008860762
0.015075034 0.029233288 0.0010007583 0.00388013 0.007158649 0.009062672 -0.002089446 0.0137958685
0.018036338 -0.0047069765 0.0041727694 0.022822738 0.014103421 0.012303126 0.0040774536 0.0021122403
-0.0005825965 -0.0075930776 -0.0072723897 -0.007334956 -0.009523204 -0.0120271575 0.0055993525 0.028768316
-0.0029885874 0.006879208 -0.009119191 0.028702462 0.004681894 0.018892186 0.017378004 -0.0022679488
0.0041973367 0.013779985 0.02138434 0.0067200493 -0.0031116568 -0.0018822086 0.019450456 0.0053855292
-0.009579549 -0.0058081974 -0.0034282624 0.0055676335 -0.023011044 0.000368957 -0.0024867067 0.0025305257
-0.012887984 -0.035603587 -0.0011918598 -0.010094221 0.02516565 0.01197891 -0.007154779 -0.014562387
0.00366336 -0.015701246 -0.01817826 -0.009592884 0.0075796773 0.009493877 0.00621412 0.00046069702
0.009296421 0.0030235955 0.009497798 -0.010099519 0.018782387 -0.0013114084 -0.003057808 0.00975384
-0.0021587578 0.007969691 -0.021242201 -0.01264075 0.002039818 0.0127616385 -0.0019371733 0.021055164
0.0075982227 0.016601535 -0.027410906 0.028150616 0.01233172 0.005390851 -0.008422857 -0.004051978
-0.0042656977 -0.009474179 -0.0056198924 -0.0021567722 0.015758311 0.0066361553 -0.0020385627 0.0025316733

action_model._discrete_distribution.branches.0.bias f4 [9]
00000000: 7de3 8ebb 6e1e 15bc 3ec0 2f3c 5f70 013c
00000010: dc5c 40bb 0a3f 7fba a63e 1e3b 76fb ae3b
00000020: 8cd0 d6bb
-0.004360615 -0.009101493 0.010726986 0.0079003265 -0.0029352224 -0.00097368716 0.0024146228 0.005340035
-0.0065556224
