Assets/defender_6.onnx (onnx, 96621 bytes, 6 tensors)

network_body._body_endoder.seq_layers.0.weight f4 [128, 40]
00000000: 1cd2 023e c548 383e 1abd aa3c 95ba 2abd
00000010: 8e89 203c 4834 babe fd5b 54be 99d0 88bd
00000020: 0331 82bc f831 233e 42e5 abbd 335e 7d3d
00000030: 5b8f c7bc cb70 82bc a2fa efbd 6b36 8cbc
00000040: d4c6 1cbd 2b28 37be 5e6e fcbd 8efb d03c
00000050: 2453 113d b6af 3ebc 9f5e 503e 6b24 973d
00000060: a1f2 20be e0ac 21be ea76 c93d f66e 453e
00000070: df3e 973d 84cc 803d 60c0 59be 51d3 073e
00000080: ef81 6ebe c214 6cbe f924 d83c 7932 813d
00000090: 98a5 c03d 8011 0f3e 522d 1fbe 58a8 53bd
000000a0: 39ee 983e 79d9 5cbe 7196 633e 9509 8abc
000000b0: f011 71bd 4043 5abe d13f ed3d 4e7a c83b
000000c0: 6581 4dbd b488 623e 5f22 533e 2092 aa3e
000000d0: 94ca 253e 1b9c 3cbd 68bb dfbd 57ba ce3d
000000e0: 1aa8 b5be fd6c b93d 2b02 763d 0e97 9f3d
000000f0: 18d4 18bd 1a7c 5abd 5c08 3d3e afdb 3e3d
00000100: ff91 273e 8a68 843c d07b 613e 5495 073e
00000110: 149e a4bd 75de aabc dff8 5a3e d9c3 d13d
00000120: 61db a93e d8b7 4a3e 6390 c4be 20fd 9dbd
00000130: a80e ed3c 3086 51be ac0a 5abd 6471 7dbe
00000140: d13f a13d 85aa 52be 375c 1e3d 25fe 1ebe
00000150: 90c4 fd3d 1535 f4bd 2824 0fbe 0c88 dc3d
00000160: 2e59 81bd 1bb6 9a3d 1042 c6bd 8734 2a3e
00000170: 6b05 e0bc 6da2 d2bd 11bb c13d 64cc 0a3e
00000180: 2d01 92bd 59da fcbb 5ed8 94bd 0b1c de3b
00000190: 721e ef3d 4e49 c7bd d3eb 943d b7f5 19bd
000001a0: dba6 3a3d 8617 08be 1500 acbc b6ab 8cbd
000001b0: b1ef 023e 8b1c e53d 8b58 923d a44e 613c
000001c0: b2ae 213e fa3e 553e 6d91 2b3e e8cb 9a3d
000001d0: ef12 363d ce1c 303d ca50 44be 777a f9bd
000001e0: c234 ddbd 0ef8 97bd d8d1 70bd 57c7 553e
000001f0: f761 91be 0b32 bb3e ce0a 92be 0b41 573e
00000200: e2e7 08bd 424a bb3d 8f82 13be 826d ecbd
00000210: cda2 acbd ed49 48bd 2bdd 863e affe abbd
00000220: 89aa 76b9 3a55 6dbb 6328 40bd 9d8e b13e
00000230: df2f b43d 199d cb3d 3b11 18bd cdc1 4cbe
00000240: 08eb 51bd aa46 9dbe d863 43be da11 b2bc
00000250: df08 08be f157 2c3d d167 d53d 7514 f33c
00000260: d131 c13e ddae 1dbc b8c4 923d 44ce 543d
00000270: 9952 663d 05ff 3e3e 9f20 0f3e 4b34 f63d
00000280: b809 96bd fe39 f73c 1fa2 9f3c 40e3 0fbe
00000290: d428 1e3e 5b80 b53e 21f2 293d 2584 a7be
000002a0: 36e7 1f3e a68e 3d3e 39cc e43c 1447 c8bd
000002b0: 8bce e7bc b0a0 32be 9f0c a0be 76db 2d3e
000002c0: 6962 9cbd bfc3 983d 4f11 b2bc f203 c83e
000002d0: e23b 6bbd f241 e9bd 4df8 e43d d215 bfbd
000002e0: 1702 53be f8e6 603e 63d9 b03b cc7b c8bd
000002f0: 2b75 ccbd 5e84 cbbd 8690 3abc fd8e 00be
00000300: 1a45 043c f931 243e d1fa d1bd 2522 6a3d
00000310: 286e 05bc c315 5fbd c964 1f3e 77c8 1bbe
00000320: bb0b 43bd 3e0e c23d 2792 2bbd ed79 0f3e
00000330: 0815 20bd ae09 0ebe 8e39 c73b 10ad 1c3e
00000340: 1573 35be 1f19 b33e e066 873c 0306 8dbd
00000350: 3012 b6bd 68d5 b33d a239 4abb 43c9 e03d
00000360: 0584 03be 65d1 d73e ef96 babd 1da2 b33d
00000370: 6c0f 06bc 9e67 9f3e 829d e7bd 0432 b7bc
00000380: b069 e33d d79a 413d e271 32be ea99 3bbe
00000390: 50b8 c6bd 5eab 303d b674 0fbd ef9d 233d
000003a0: 9d41 74be da0c 62bc db22 12be b97d 12be
000003b0: 40c5 79be 3841 4bbd c821 b2bd 52f3 c93d
000003c0: a2e1 75bc 682a b03d 4301 51bd 894a d63d
000003d0: b754 353e 443c 443e ab69 c43b 1c34 953d
000003e0: 3ecf 5b3e 9a12 833d ece6 763e f653 e6ba
000003f0: 286e ee3d e1bf 18be 4384 44be d128 10be
0.12775463 0.1799651 0.020842124 -0.041681845 0.009798421 -0.36368012 -0.20738216 -0.06680412
-0.015892511 0.1593703 -0.08393337 0.061857414 -0.02436035 -0.015922925 -0.11717726 -0.017115792
-0.038275555 -0.17886417 -0.12325738 0.025510576 0.03547968 -0.011638572 0.20348595 0.07379993
-0.15717556 -0.15788603 0.09837134 0.1928061 0.073850386 0.06289008 -0.21264791 0.13264205
-0.23291753 -0.23054793 0.026384817 0.06308455 0.094065845 0.1397152 -0.15544632 -0.051674217
0.2986925 -0.21567334 0.22225358 -0.016850272 -0.058854997 -0.21314716 0.11584438 0.0061180955
-0.05017223 0.2212246 0.2061858 0.3331461 0.16190559 -0.04604731 -0.10924417 0.10094135
-0.35479814 0.09053991 0.06006066 0.07792483 -0.037311643 -0.05334101 0.1846022 0.046596225
0.16364287 0.01616313 0.22019887 0.13240558 -0.080379635 -0.020858029 0.21384 0.10242433
0.33175185 0.19796693 -0.38391408 -0.077142954 0.028937653 -0.20461345 -0.053232834 -0.24750286
0.078735 -0.2057286 0.03866216 -0.15526636 0.12391007 -0.11924187 -0.13978636 0.107681364
-0.06315838 0.07554265 -0.09680569 0.166216 -0.027346333 -0.102848865 0.09459508 0.13554531
-0.071291305 -0.0077164588 -0.07267831 0.0067782453 0.11675729 -0.09730779 0.072715424 -0.037587848
0.045569282 -0.13290223 -0.020996133 -0.06868689 0.12786748 0.11187085 0.071457945 0.01375166
0.15789297 0.20824805 0.16754694 0.07558423 0.04445165 0.04299622 -0.19171444 -0.121815614
-0.108010784 -0.074203596 -0.058793873 0.20876823 -0.28395054 0.36561617 -0.28523868 0.21020906
-0.033424266 0.09145023 -0.14405273 -0.115443245 -0.08429489 -0.048898626 0.26340613 -0.083981864
-0.00023523917 -0.003621413 -0.046913516 0.34679118 0.08798193 0.099420734 -0.037125807 -0.19995804
-0.051249534 -0.30717975 -0.19081056 -0.021737028 -0.13284634 0.042076055 0.10420192 0.02967284
0.3773332 -0.00962421 0.071664274 0.051954523 0.056231115 0.1865197 0.13977288 0.12021693
-0.073260725 0.03017902 0.019486485 -0.14051533 0.15445262 0.3544949 0.041490678 -0.32718006
0.15615544 0.18511447 0.027929412 -0.09779182 -0.02829673 -0.1744411 -0.3125963 0.16978249
-0.07635958 0.074592106 -0.021736769 0.3906551 -0.057430156 -0.11389531 0.11180172 -0.09330334
-0.20606266 0.21963108 0.0053970083 -0.097892374 -0.099832855 -0.099373564 -0.011386996 -0.12554546
0.008073116 0.16034688 -0.102529176 0.05716147 -0.008143939 -0.054464113 0.1556579 -0.1521319
-0.04761861 0.09475373 -0.04188743 0.14011355 -0.039082557 -0.1387088 0.006079859 0.15300393
-0.17719682 0.34980103 0.016528547 -0.06885912 -0.08890188 0.087809384 -0.0030857106 0.109758876
-0.1284333 0.42151943 -0.091108195 0.08771155 -0.008182388 0.3113374 -0.11309339 -0.022362716
0.11104143 0.047266807 -0.17426255 -0.18320432 -0.097031236 0.04313218 -0.035023414 0.03994554
-0.23853154 -0.013797009 -0.14271109 -0.14305772 -0.24391651 -0.049622744 -0.086978495 0.09860863
-0.015007408 0.08601838 -0.051026594 0.10463435 0.17708097 0.19163615 0.005994042 0.0728533
0.21465775 0.06400032 0.24111527 -0.001757263 0.116421044 -0.14916946 -0.19191079 -0.1407807

network_body._body_endoder.seq_layers.0.bias f4 [128]
00000000: d715 55bc fa3b be3a 3ca4 023c 0998 563c
00000010: 4984 4ebb b60b ccbb 5314 523b 1482 67b9
00000020: aab7 89b9 e028 44bc bebe 5abb 5a75 1cbc
00000030: 824d c83b 66f2 3bbb b9c7 883c aaab a2ba
00000040: 4ef7 74bc 8460 ccba 4b77 303c 0d10 81bb
00000050: ccb3 71bc 9dc7 37bc 704f 37b8 abac 31ba
00000060: 89ce b239 60f2 94bc 9373 3bbc b884 adbb
00000070: 4861 363b f377 ddbb d1cb 543c bd44 c1bb
00000080: bd9f 85bb 27a1 36bb f991 9239 fb51 813a
00000090: 3744 043b 52b0 823c 07ba 18bc 23e7 b0bb
000000a0: 432c a0bc cfc3 52bb 255e 93ba 62e6 bebb
000000b0: 748d 85ba 2081 44bb b6cf 593c e7d9 4bbc
000000c0: c69b 3abc f5cf 903b 2e11 c93b af33 5a3c
000000d0: 03f7 b43b e122 953c 0690 563b 249e 2fbc
000000e0: 86f3 34bc 012c 4cbb a099 c33b 04f4 333a
000000f0: 5fa0 1d3c 3da5 253b ff1d 77bc d577 153b
00000100: 477b 0d3c 7b4e a3bb 1f67 b0bb c798 11b9
00000110: bf22 e8ba 710b 91ba 59dc e738 5a8a 953c
00000120: 8e8a 8bbb 64bc 2a3c 7b10 babb c8a7 953b
00000130: 83b2 333c 1ca7 0d3b b65a bd3b 5d51 cd3b
00000140: 96a9 1cbb bbdf fbb9 31cf 953c 91a8 d03b
00000150: 6a68 6f39 fba7 b93b 3980 c1bb e3bf 7b3c
00000160: f34c cf3b b34b b73b 4c2d 593a 84f7 beb7
00000170: 863b adbb 8bd8 8fba 3490 853c 6e7d f5bb
00000180: ccc4 3eba 1c2c f73b 8968 c33b c7f8 963b
00000190: 2e43 6c3b 8c83 0e3c 4cef 273b 3f87 9aba
000001a0: 4718 2d3c e06c 823c df1d bebb 9f39 fe3b
000001b0: 81a5 16bb f148 56bc 2afb 173c bc84 603b
000001c0: 41ca 393b 67d6 893b 91e3 0bbc f792 42bb
000001d0: cf27 ebbb d5c7 c73b 1ace 9d3c 1f05 4dba
000001e0: 7b19 a5ba 061e 3939 b1b3 06ba aca3 363c
000001f0: 772c 00bb 7c41 fd3b 360a bf3a 2b3f f23b
-0.013005695 0.0014513724 0.007973727 0.013097771 -0.0031511954 -0.006226982 0.0032055571 -0.00022078335
-0.00026267517 -0.011972636 -0.0033377851 -0.009549463 0.0061127553 -0.0028678416 0.016696798 -0.0012410779
-0.01495154 -0.0015592729 0.010770629 -0.003938681 -0.01475234 -0.011217025 -4.3704582e-05 -0.00067777437
0.00034104686 -0.01818198 -0.011441129 -0.0052953623 0.002782898 -0.006758684 0.012988047 -0.005898087
-0.00407788 -0.002786705 0.00027956048 0.0009866351 0.002018226 0.015953217 -0.009321696 -0.0053986474
-0.019552356 -0.0032160168 -0.0011243267 -0.0058258036 -0.0010189251 -0.002998419 0.013294151 -0.012442089
-0.011389678 0.0044193217 0.006136081 0.013317986 0.00552261 0.018205108 0.0032739653 -0.010718856
-0.011044389 -0.0031154158 0.0059692413 0.0006864669 0.009620755 0.0025275492 -0.015082835 0.002280702
0.008635349 -0.004983721 -0.0053833867 -0.00013885192 -0.001771055 -0.0011066032 0.00011055981 0.018254448
-0.0042584604 0.010420892 -0.005678234 0.00456712 0.0109678535 0.0021614498 0.005778636 0.006265803
-0.0023904792 -0.00048041143 0.018287273 0.006367751 0.00022831713 0.005665777 -0.005905178 0.015365574
0.0063263117 0.005593741 0.0008284643 -2.2765023e-05 -0.0052866368 -0.0010974569 0.016304113 -0.007491759
-0.000727725 0.0075431 0.0059633893 0.0046072933 0.0036050784 0.008698355 0.002562481 -0.0011789574
0.01056487 0.015921056 -0.0058019008 0.007758334 -0.0022986832 -0.013078914 0.009276191 0.0034258803
0.0028349312 0.004206467 -0.008538143 -0.0029689649 -0.0071763764 0.00609682 0.019263316 -0.00078208925
-0.0012596095 0.0001765416 -0.00051384704 0.011147421 -0.0019557753 0.0077287536 0.0014575187 0.007392784

network_body._body_endoder.seq_layers.2.weight f4 [128, 128]
00000000: ea7d 493e 652a b9bd b893 b43d 9004 06be
00000010: 22e8 833c 33c4 6c3d cff9 003c 32b4 92bc
00000020: 497f f63c f925 1abd 464d 47bd 2b03 813d
00000030: 48c7 513d 722f 77bc 4e3b 193e 0f76 2abd
00000040: 3295 d23d a8ca b93c 78eb 9b3c fb3e 5d3d
00000050: 6a4b ecbc c056 213e 7f09 62bd da8e 26bd
00000060: 63d1 ac3c 3701 17bc d2a2 50bd 7a41 743e
00000070: a9bb 873d 98c5 233d 2325 9bbc 988b 823d
00000080: 3db4 383e cfc2 1dbd 3f51 eb3d 53f6 64bd
00000090: bb92 7b3d 0e0a 443d b37d 873a bfaa 01bc
000000a0: f2fc 52bd 4ab3 56bd ad0e 4f38 1032 653d
000000b0: a2bf 6d3d a54b f6bd db21 283d 2ab4 9ebd
000000c0: 7ad8 11bd 743e 09bd 5796 93bd 32ae 08be
000000d0: d6c3 c8bd 54d5 41bd 43b0 a5bd 016e 453d
000000e0: aa0c 74bd a83b a1bd 68dd f7bd 9d53 b73c
000000f0: 7fe9 2cbd f6eb 0fbe 0c03 a8bd 8a5a e1bc
00000100: 6fdb a03c b40e e93c 372b 853c e211 0d3d
00000110: 30e2 e4bd 3df5 92bb 4697 db3d 667b 383d
00000120: c6d9 4e3d d961 a5bd 3546 323e 0700 75bc
00000130: b607 f53c 991a c5bd 1d21 02be 0ad9 e93d
00000140: b607 7bbd 84d5 003e 0e53 87bd 80c4 0c3e
00000150: d111 1e3d 3ae0 7b3d 6062 243d 4de6 10bc
00000160: 3f45 99bd 4f09 4eb9 c4e8 00bd 75f7 063c
00000170: 5a98 ea3d 0a78 dc3d 1bc5 c93d e7e6 d1bd
00000180: e61e 6d3d 5d17 a83c 215c c83d fda9 cc3d
00000190: 34c3 ddbc 0c19 553d fac3 dc3d 6f49 88bc
000001a0: e56a 343d f262 87bd 74d2 803c 7690 08bd
000001b0: 10ea 37bc 23cb f53c 4dca 933c 5a65 a5bd
000001c0: 9be3 f73d 9322 be3c 608a 983a 03cb 573d
000001d0: 504c ad3d 4b27 873d f8fe 943d 0da0 97bd
000001e0: 2b5c 423c 4d5c 923b 0f50 033d ffa7 abbd
000001f0: d06e 7d3d a43b 17bd 84d3 04bb f733 2cbd
00000200: 2403 63be f7b8 33bd 38cb b7bd f6aa 8d3b
00000210: f751 483d bf09 9b3d c719 7dbd 08cc 15be
00000220: b2ca dabc 9bf2 113d 8b6e 90bd aa82 d1bb
00000230: ccff 203e 55d3 c4bd d735 183b 3e3c 113e
00000240: c3fa f33c 2aef 043d e5f9 883c 3005 0abe
00000250: 43d2 a4bd ec0a 18bc 5493 26be f77d b7bd
00000260: bff0 91bc d88c 533d 891d d639 46fa c5bd
00000270: a4b5 e03b 0829 803d df37 8bbd 48ab 0fbd
00000280: 6299 9dbd 8176 4a3d a291 30bc 1ce6 a93c
00000290: 2d8f 18bd e23b 313e 929a ae3d 8931 68bd
000002a0: 2992 133e a746 053e 59c3 6dbd 5bb4 ef3c
000002b0: 007f a33d 79c4 19bd a864 15bd 9a9a 5b3c
000002c0: 6d06 34be b7a9 363d b724 f23c 84a6 943d
000002d0: 812e 0abc ea80 983d cdd3 833d 872c a8bd
000002e0: c149 523c 60d7 90bd 67f3 2a3e d645 4c3b
000002f0: 9c64 69ba f25f ef3c b932 a5b9 e935 353d
00000300: d6fb ae3d 9672 94bc 23af 27bd 54ae c6bc
00000310: 45cf fc3d 29bc b8bc 2e08 e7bd a827 4cbe
00000320: d10e a4bd bb4e e9bb f7ea 933c 91a8 0f3d
00000330: f465 fcbc 12bf bbbd bb17 b93d 85a9 c6bd
00000340: e555 203c 5717 cc3d 9011 3a3d 2854 c0bd
00000350: 4f45 cebb ce3a 89bd 5113 dfbd 38b3 303c
00000360: 9b1d cbbd c01a 613d 7636 f13d 64e4 883d
00000370: d646 dd3c 776b 4abd c588 093e 4e75 04be
00000380: 4581 cfbd aaf9 24bd c89e db3d 89bc 21bc
00000390: da1b fb3d 2d6a 433c c303 c5bd 378a 66bd
000003a0: 320a c23d e48c 7a3d 416b 113e 7e83 07bd
000003b0: 5411 aa3d 42af 90bd dd1f 8f3e 7e14 6c3d
000003c0: c90b 423c bea6 373d 0fa9 06be 9275 743d
000003d0: 00f9 2fbe a2ce 213c 664b 233e 2edf 533b
000003e0: e774 cdbd a579 063e 9129 063e 0ec7 7f3c
000003f0: e7e0 553c e879 923c a22d b03c 0c2c 47be
0.19676939 -0.09041289 0.088172376 -0.13087678 0.0161019 0.057804298 0.007872059 -0.01790819
0.030089991 -0.03763387 -0.048657678 0.06299432 0.05121544 -0.015086995 0.14964029 -0.041616496
0.10282363 0.022679642 0.019033179 0.05401514 -0.028844554 0.15755749 -0.055184837 -0.040663578
0.021095937 -0.009216598 -0.050936528 0.23853102 0.0662759 0.039983362 -0.018938607 0.06374282
0.18037505 -0.038515862 0.11490106 -0.055898976 0.06141923 0.04786115 0.0010337144 -0.007914244
-0.05151076 -0.052417077 4.9366314e-05 0.055955946 0.058044083 -0.12026147 0.041047912 -0.07749207
-0.03560684 -0.033506826 -0.072064094 -0.133477 -0.09802978 -0.047322586 -0.0809026 0.04820061
-0.05958239 -0.07872707 -0.12102777 0.022378737 -0.042214867 -0.14054856 -0.08203706 -0.027508993
0.019635884 0.028449394 0.016255958 0.034440883 -0.11175954 -0.004484801 0.107222125 0.045039557
0.050500654 -0.080753036 0.17409594 -0.01495362 0.029910903 -0.09624214 -0.12707944 0.1141835
-0.06128665 0.1258145 -0.06607638 0.13746834 0.03859121 0.061493136 0.04013288 -0.0088439705
-0.07483911 -0.00019649159 -0.031471983 0.008237709 0.1145484 0.10765083 0.09852048 -0.10249119
0.057890795 0.020518953 0.09783197 0.0999336 -0.02707062 0.05202584 0.10779567 -0.016636578
0.044047255 -0.06610669 0.015725352 -0.033340894 -0.011225238 0.03000409 0.0180408 -0.08075972
0.12103959 0.023209846 0.0011637919 0.05268384 0.08461821 0.065992914 0.07275194 -0.07403574
0.011862795 0.0044665695 0.03205877 -0.08381652 0.061873257 -0.036922112 -0.0020267675 -0.042041745
-0.22169167 -0.043877568 -0.08974308 0.0043233586 0.048906293 0.07570218 -0.06179216 -0.14628613
-0.02670798 0.035631757 -0.070523344 -0.00639375 0.15722579 -0.09610621 0.002322545 0.14183137
0.029782658 0.032454647 0.016720721 -0.13478541 -0.08047917 -0.009279948 -0.16267139 -0.08959573
-0.017814992 0.05164799 0.00040839266 -0.096668765 0.0068575907 0.06257826 -0.06797766 -0.035075456
-0.07695271 0.04942942 -0.010776909 0.020739608 -0.037245918 0.17308 0.08525576 -0.056687865
0.14411224 0.13015233 -0.058047626 0.029260805 0.07983208 -0.037540887 -0.036472946 0.013403559
-0.17580576 0.044595446 0.029558523 0.07258323 -0.008433939 0.074464634 0.06436882 -0.08211618
0.012834967 -0.070723295 0.16694413 0.0031169555 -0.00089032366 0.029220555 -0.00031509044 0.044240866
0.08544128 -0.018121045 -0.040938508 -0.024253048 0.12344221 -0.02255066 -0.11280857 -0.19937003
-0.080106385 -0.007119981 0.018056376 0.035072867 -0.030810334 -0.09167303 0.09037729 -0.09700302
0.009786104 0.09965389 0.045426905 -0.093910515 -0.0062948833 -0.06700669 -0.10892356 0.010784917
-0.09917756 0.05495715 0.11777966 0.06684187 0.027011316 -0.049418893 0.1343108 -0.12935373
-0.10132078 -0.04027716 0.107236445 -0.00987161 0.12261172 0.01192717 -0.09619858 -0.056284156
0.09474601 0.06116952 0.1420107 -0.033084385 0.08304086 -0.07064678 0.27953997 0.05763673
0.01184363 0.044836752 -0.13150428 0.059682436 -0.1718483 0.009875925 0.15946731 0.003232907
-0.10032063 0.13132341 0.13101794 0.015611423 0.013054109 0.017880395 0.021506134 -0.19450396

network_body._body_endoder.seq_layers.2.bias f4 [128]
00000000: 9a83 cb39 06ca 9c3c 5b8f 2fbb 1705 23bc
00000010: 8375 733b e996 efb9 fb5b 473b 8376 82bb
00000020: ae0d 20bb 6ab7 f2bb 7125 9d3b aa11 e1bb
00000030: 1c3e 7839 8854 203c 8397 c1bb 7c57 70bc
00000040: 29af de3b e4d2 423c ac89 61bb 6fac 2c3b
00000050: b9b6 af3b a4ed 93ba 7477 b63b e303 caba
00000060: 91e1 40bb 7df0 5ebb ce7d b73a 33c6 803c
00000070: 9712 afbb c4a9 14bb b2f0 073c 41c9 6cbb
00000080: a41d 403c 158c 913a 43fe 5c3a 6873 87ba
00000090: 2b1d 05ba 157a cfbb d2b0 00bb 066a e1bb
000000a0: a7b0 ecba 2787 10bc 3b35 8aba 085b 8cba
000000b0: f6f9 feba 08ea bcbb e5ef a43a 8677 01ba
000000c0: 7bd7 2bbb 397e 12bc 25ab 213b f471 c03b
000000d0: bb04 9a3c 8ee7 8b3a a24b 603c 9c51 a73b
000000e0: ca4b 13bc d3db 6a3c 4e5a 38bc 2490 2bbb
000000f0: 07e1 5fbb fd1d adb9 551d 1ebc 4afb 58bb
00000100: d2db 163c 4235 633c afda 9bbb c96c 9abb
00000110: f932 a2bb 2898 2f3c 8b9b 85bc ca28 783b
00000120: 34b9 28ba ed75 d1ba d2c8 13b7 3501 663b
00000130: 17a0 c23b 7898 bbbb 348e c7bb b3bb 833a
00000140: a8f0 86bb 49ca 263b 78ae 78bc 40b7 56bc
00000150: 2a7a df3c 07ba e4ba da8b 3f3a 2c32 6b3c
00000160: 638e 8bbb 3dc1 4c3b cb5b 9cba e957 853c
00000170: dfec b53b 3f6e 223b 2290 b63c 3884 963b
00000180: d42a 5d3c 6025 ef3a a5b0 edbb 52ef a93b
00000190: b0ce 0f3c e3b7 9abb 9ba5 ddbb dd8f c73a
000001a0: 730c 803c fa65 85ba ac60 d13b 3baa b63a
000001b0: 8a68 37bb 11ca 4bbb c29d 913b 04c8 b93b
000001c0: 2226 9dba 1846 c23c 13fd 1f3b 50d6 db3a
000001d0: 02e2 e73c 1f74 883a d7b3 593a ba25 29bb
000001e0: d87b 70ba 9a7d 303b 61da 17bc 5e48 8539
000001f0: ee40 b53b e051 5bbb 6e93 ddba ff0d 05ba
0.00038817228 0.019139301 -0.0026788327 -0.009949944 0.00371489 -0.0004569807 0.0030419815 -0.003981413
-0.0024422216 -0.0074071186 0.004795723 -0.006868561 0.0002367426 0.009785779 -0.005907954 -0.014669295
0.006795783 0.011891101 -0.0034414334 0.0026347896 0.0053623584 -0.0011286032 0.005568439 -0.0015412535
-0.0029431323 -0.0034017854 0.0013999285 0.015719509 -0.0053427923 -0.0022684196 0.008297132 -0.00361307
0.011725817 0.001110437 0.0008430222 -0.0010334076 -0.0005077894 -0.006331692 -0.0019636643 -0.006879094
-0.0018058018 -0.008821285 -0.0010544428 -0.0010708282 -0.0019453156 -0.0057652034 0.0012583701 -0.000493877
-0.0026220966 -0.008941227 0.002466866 0.0058729593 0.018801084 0.0010673867 0.013689907 0.005106164
-0.0089902375 0.014334637 -0.011251999 -0.0026178444 -0.0034161226 -0.00033019474 -0.009650548 -0.0033108764
0.009207683 0.013867678 -0.0047562937 -0.004712675 -0.004949924 0.010717429 -0.01630952 0.003786611
-0.0006436289 -0.0015980579 -8.80864e-06 0.0035095934 0.0059394944 -0.005724963 -0.00608995 0.0010050446
-0.004118044 0.0025450161 -0.015178315 -0.013105214 0.027279932 -0.001745046 0.0007306911 0.014355224
-0.004258917 0.0031243109 -0.0011929212 0.01627727 0.005551919 0.002478495 0.022285525 0.0045933984
0.013498981 0.0018245392 -0.0072537237 0.005186 0.0087773055 -0.004721628 -0.0067641265 0.001522537
0.015630936 -0.0010177486 0.006389698 0.0013936231 -0.0027985894 -0.0031095783 0.004443855 0.0056695957
-0.0011989514 0.023715064 0.0024412319 0.0016772244 0.028306011 0.0010410583 0.00083046913 -0.002580984
-0.00091737276 0.0026930333 -0.009268374 0.00025421655 0.005531422 -0.003346555 -0.0016904899 -0.0005075633

action_model._discrete_distribution.branches.0.weight f4 [9, 128]
00000000: 81c9 54bb 3f47 84bc 529c bc3b c119 c3bc
00000010: 7eca 803b 5ac2 64bc 41e6 3abb 6902 043b
00000020: 7c58 b23b 3512 343c d3d2 393c e85c f6bb
00000030: 3442 2bbb 70d2 fc3c 3fdf 443c 9934 7ebb
00000040: 2ad4 983c 66a9 3bbc 1efa 25ba 179c a8bc
00000050: 19e5 c0bb e94f a93b b975 b03c 2f95 ceb7
00000060: 8220 c43b 2d48 ac3b df59 8fbb f848 bcbc
00000070: 0d82 9bbb 5d42 54bc 5566 973c 49e8 a43a
00000080: 3310 54bc a13a 883c df5c 243c 4d4f dcbc
00000090: 80a2 683c e782 02bc 4d22 e43b 81b4 92bc
000000a0: c8e0 61bb 2472 c13b 00a4 083b 6791 d6bc
000000b0: dad2 47bc 27ae 82ba 7880 91bb 925e 043c
000000c0: 0e52 d6bb 50ef 883b 9f35 9f3c 9bb7 863b
000000d0: 8983 a4bc 759a 81bc ebcd 033c 617c 38bc
000000e0: cdd2 efbb 897b 063d 5b6d b33b 6d66 31bc
000000f0: 7b5a e43a 4697 49bb efda f9b9 3df5 9fbc
00000100: 785b a43b 40a1 d4bc 4d41 97bb 901d 17bc
00000110: cbf9 3dbc ff2c 0cbc eac8 e0bc cd84 013c
00000120: 8fe1 a13b 2fc2 dabb 9d82 0fbb a335 05bc
00000130: 4bd3 a53c b2d8 1639 dc43 383b 76f6 8b3c
00000140: 45c8 76bc 07aa dfbb 740b aebc c075 6b3b
00000150: e31b b83c 83d4 633c 0857 c93c 5d41 3a3c
00000160: ba59 35bb 9530 19bd 1a83 eebb e7a1 bc3c
00000170: 0e23 21bc 7a61 ea39 9250 85bd 2d9d 53bc
00000180: a526 303b 0a3e ab3b 1fdf 98bc 865f a33a
00000190: 3aeb 863b da1a dbbb 0137 833c 5390 b3b9
000001a0: b635 df3a 5e41 78bc 0343 a0bc f2a3 58bc
000001b0: 9723 2a3c 588c 793b c29d b93a 0b3c b4bb
000001c0: a7e6 99bc 2f86 f13b f176 4d3c 8080 75bc
000001d0: da1b a53c 3efd 98ba 55a7 66ba 39f1 9bbc
000001e0: 7e8d 80bc 2359 b93a f965 373c 3d2b 49bc
000001f0: 53c5 e9bc d2c9 dc3b 23ae 183b 92dc 64bc
00000200: 50f3 df3b 3314 0c3d f226 793c 27c7 40bc
00000210: ca01 09bc 80ef a63b 1eea 843c 8d03 023c
00000220: 8c11 56bc 2107 b4bb c8ab 8ebc cfc2 273b
00000230: f5f7 fb37 0ea5 44ba 2263 fcbb 8893 c43b
00000240: 080c b6bc 9be8 35bc 4853 703c 0846 7a3c
00000250: 594b cb3b 28de 90bc 4f81 7bb9 fbda b3bc
00000260: b2a4 93bb baf2 80bb 4714 eebb 4e39 133c
00000270: 4cb3 513b b923 1f3a cf33 ccbb c080 7d37
00000280: b7b0 82bc 2a15 b6bc 3873 f3bb d2d4 bb3b
00000290: 0b1f 98bc 6ab7 2e3a cb83 69ba 8b4f 6f3c
000002a0: 91d8 cabb d065 5a3c eb55 00bc d789 453b
000002b0: 618c 16b9 2131 f4ba e11d ea3b 0fed 0e3b
000002c0: 90f2 743b ac7b 603c b893 e63a 76c2 fbbb
000002d0: 6d78 47bb fa2f 563b 5202 77bc 4974 67bc
000002e0: a632 90bc 2329 afbc 5a18 9fbb 07b7 093c
000002f0: ef6f 283c f62a 9d3b d024 3ebb 579f 083b
00000300: 996b 83bc 39b1 823c deec c13b 49ff 083c
00000310: a99e 1abc 9e27 44bc 9d3b 033c 80e0 75bc
00000320: 0f34 1ebc cf72 993b 8260 573b 9756 43bc
00000330: 00d7 68bc 424c 19bc bd0f a73c 8d60 15bc
00000340: c2f5 233c ddf8 c83b b09e 7c3c 08c3 203c
00000350: 03bc cebb 7fed 9abb 6a9e 19bd 6595 c5bc
00000360: 00d7 6fbc 25fc 453c b4ca 52ba c5e4 b1bc
00000370: 2deb 59bc 3628 ccbb fa58 ce3c 9854 9b3c
00000380: 9983 7ebc 794c 4eba c890 ac3b a3db e4bb
00000390: bb7e b13a 564e 853c 484d 6d3c 2bf1 ea3a
000003a0: 5d87 9cba f6d0 b13b 44c4 343c 8063 e23b
000003b0: 4d44 b5bb ec3a 60bb b2b8 f7bc 7d33 553b
000003c0: 63e1 8a3c 1c9d 4bbc ffb3 fcbc f7c4 183c
000003d0: d7dd 2dbd 3fa3 803c 373a a93c 9b5c 173c
000003e0: 81f5 2a3c f9d4 99bb 72ac 3a3c 5968 d1bc
000003f0: da68 68bb 6da2 693c c745 69bc 34b6 f63c
-0.0032468739 -0.016147254 0.0057559395 -0.023815991 0.003930389 -0.013962353 -0.002851859 0.0020143038
0.005442677 0.010990669 0.011341768 -0.0075183995 -0.002613199 0.030862063 0.012016117 -0.0038788675
0.018655855 -0.011453962 -0.0006331521 -0.020582242 -0.0058866856 0.0051669967 0.02154051 -2.4626583e-05
0.0059853205 0.0052576275 -0.004374727 -0.022984013 -0.004745728 -0.012955275 0.018481413 0.0012581433
-0.012943315 0.016629519 0.010031908 -0.026893282 0.014198899 -0.00796578 0.006962097 -0.017908337
-0.0034466255 0.005903499 0.0020849705 -0.02619238 -0.012196267 -0.0009970114 -0.0044403635 0.008079188
-0.0065405434 0.004178919 0.019434748 0.004111243 -0.020082252 -0.015820721 0.0080447 -0.011260123
-0.0073188306 0.032832656 0.0054756827 -0.010827643 0.0017421985 -0.0030760332 -0.000476561 -0.019526118
0.0050157867 -0.025955796 -0.0046159388 -0.009223357 -0.0115952 -0.00855565 -0.027439553 0.007905197
0.0049402188 -0.0066759805 -0.002189792 -0.008130464 0.020242354 0.0001438584 0.002811662 0.017085295
-0.015062396 -0.0068256888 -0.021245696 0.0035928339 0.022474235 0.013905647 0.024577633 0.011368123
-0.002767189 -0.037399847 -0.007278812 0.02302642 -0.009835018 0.00044704584 -0.06509508 -0.012915892
0.0026878503 0.0052259015 -0.01866108 0.0012464381 0.0041173967 -0.0066865506 0.016017439 -0.0003424907
0.0017029557 -0.0151523035 -0.019563204 -0.013222681 0.010384462 0.0038078036 0.0014161395 -0.0055003217
-0.018786741 0.0073707323 0.012540565 -0.01498425 0.020154882 -0.0011672152 -0.0008798738 -0.019035922
-0.015692469 0.0014140945 0.011193746 -0.012278375 -0.028536474 0.006737926 0.0023297153 -0.013968604
0.006834425 0.03419895 0.015207039 -0.011766232 -0.008362243 0.0050944686 0.016224917 0.007935417
-0.013065707 -0.005494014 -0.017415896 0.0025598293 3.0036996e-05 -0.00075014017 -0.0077022472 0.0059990324
-0.022222534 -0.011102821 0.014668293 0.015275486 0.0062040505 -0.017684057 -0.00023985397 -0.021955004
-0.004505717 -0.0039351853 -0.007265601 0.0089858305 0.0031997738 0.0006070692 -0.006231762 1.5109952e-05
-0.015953405 -0.022226889 -0.0074295066 0.0057321573 -0.01856949 0.0006664904 -0.00089078833 0.014606367
-0.0061903675 0.013329938 -0.007832984 0.0030141973 -0.0001435741 -0.0018630364 0.007144675 0.0021808778
0.0037376024 0.013701361 0.0017591631 -0.0076830937 -0.003043677 0.0032682405 -0.015076237 -0.014126846
-0.017602276 -0.02138192 -0.004855198 0.0084054535 0.010280593 0.004796381 -0.0029013641 0.0020846927
-0.016042517 0.015953647 0.0059181293 0.008361646 -0.009437242 -0.011972336 0.008009818 -0.015007138
-0.009655966 0.0046828757 0.003286392 -0.0119225 -0.014211416 -0.00935656 0.020393247 -0.009117258
0.010007324 0.0061331824 0.015418693 0.009812124 -0.006309034 -0.004728019 -0.03750459 -0.024119088
-0.014638662 0.012084042 -0.00080410694 -0.021715531 -0.013300699 -0.0062303795 0.025188912 0.018961236
-0.015534305 -0.00078696717 0.0052662827 -0.0069841905 0.0013541797 0.016272705 0.014483757 0.0017924657
-0.0011942197 0.0054265214 0.0110331215 0.006908834 -0.0055318237 -0.0034214808 -0.030239437 0.003253191
0.016953176 -0.0124275945 -0.030847548 0.009324304 -0.04244789 0.015702842 0.020657642 0.009238387
0.010434509 -0.004694578 0.011393653 -0.025562452 -0.0035462887 0.014259917 -0.014237828 0.030116178

action_model._discrete_distribution.branches.0.bias f4 [9]
00000000: 5d6a 8d3b 497c 9bbb e69d cebb 237d f6ba
00000010: 9ccf 0c3c d1a9 ca3a 848c b6ba 748d 3f38
00000020: 0921 193b
0.004315658 -0.0047450406 -0.006305444 -0.0018805604 0.00859442 0.0015461986 -0.0013927375 4.5669687e-05
0.0023365638
