Assets/defender_5.onnx (onnx, 96621 bytes, 6 tensors)

network_body._body_endoder.seq_layers.0.weight f4 [128, 40]
00000000: 2517 d4bd 41f6 7ebd 867c 123e 3ca3 bbbc
00000010: 2147 a5bd 5dca a2bd e4d1 43be 9c60 c63d
00000020: 849e 8f3d 824d c4bd a77d 113e 5c0c 833d
00000030: dbe9 9ebe c9b2 a3be 8b5f 82bd 03ec 45bd
00000040: 9097 42be 9ef0 3d3e deae 77bd 3547 fabb
00000050: d4cc 3a3c 1f1a a5be b64f 7b3d 71e2 94be
00000060: 63af 06bd 70e6 a73c f588 84bd 78f2 433d
00000070: b21b 353d 638d e6bd 60fc 023e fbbd 533e
00000080: f4b9 3e3d 35e9 b33e 4f17 9a3c 4077 93bd
00000090: 3e86 5fbd e3fd 833d ee5b 4cbe 528a 93be
000000a0: 3cb5 233e 79f4 43be 8fc4 143e dbc2 c9bb
000000b0: 37ff 73bd bc7c 33bd 38fe d4bc dd87 0bbd
000000c0: 8d04 4bbc fd30 82bd 4831 86be da77 153d
000000d0: 5dd4 48be 1ce6 b2bd 1892 cb3d a3b4 22be
000000e0: 6a22 9b3e c39f 0f3e 8e71 0b3e 4877 813d
000000f0: 203d c03d c622 193d a608 29be db47 4a3e
00000100: 7044 583c c6d3 07be def6 053d 682b 94bd
00000110: 8464 8cbd baa1 d33c 8af7 553d 84d4 5fbd
00000120: 81ba ac3e 88b3 543e 4f13 91bd 8d0f 953d
00000130: 9c08 fcbc cd3e b83d faf9 3ebe 2189 f4bd
00000140: 0d3a 233e fd74 0ebe e14c f73d 141a f83d
00000150: 3916 703e 8cd8 09be ba26 ac3c b207 b7bd
00000160: f0e7 94bc 14cd 663e cf58 f3bd d41f a1bc
00000170: 0518 0d3e 9961 7cbc 5678 87be cc61 c93d
00000180: 001e ba3c 0d51 c33d a45a bb3d b0ed 3e3e
00000190: 45db 893e 4502 ad3d 8969 cdbd ed89 90bd
000001a0: 4702 27bd 34ca 1e3d 0515 f8bd 75b2 b13c
000001b0: 6d7c b2bd 690a 0f3e 0508 22be 8c3b 6cbd
000001c0: d8a8 8dbd 3c6c 963d f518 35be 1ec9 be3e
000001d0: 0a42 4d3c 6383 c9ba 203b 4dbe af36 ba3c
000001e0: aec6 74bd 040e 183d d58a 17bd c9ef dfbd
000001f0: adf2 b4be 8592 4d3e 5a7d 8b3e f317 e73d
00000200: b00a 5fbd 0221 3ebe 9084 f83d 932f 943d
00000210: a3af 0b3e c922 153e 2d53 033e 0817 b13d
00000220: 5f14 ba3c 4568 5ebe 3d96 d73c 478b 1bbd
00000230: 99f6 b43d 5a34 16bd 1d37 3e3d 39f5 a13e
00000240: 5c33 5e3e fb91 fc3d eafc adbd c958 51be
00000250: bcc1 503e 5254 ab3e 6cc2 ec3d 1faf 96bd
00000260: 6fb1 0ebe 5181 4fbe 38f5 3ebe 2ec5 063e
00000270: 97b7 78be 6309 0c3e 5d82 c03d d679 ecbb
00000280: 2880 f7b9 9020 9e3e 3f32 06bd d8aa c23d
00000290: ccbf e83d a3dd 22be f9b6 ae3d de3c 6ebe
000002a0: a4e5 153c dcfd 1bbe beab b93d dfcc e23c
000002b0: e958 063e 2224 25bd bd9a c63c 94d4 a7be
000002c0: 91e9 95bc 182b 1f3d 3df9 acbd 0211 31be
000002d0: b53c be3c 08b6 82be a5a6 06be dfd3 eabd
000002e0: 4267 d7bd b263 42bd 86a5 c93c a0ea d1bd
000002f0: ef13 4e3d 8731 e5be 5ed5 b6bd 8c73 5abe
00000300: 1f2c 173d 13d4 503d e30e 9b3e 0817 bebc
00000310: 6989 eabc 3afd cdbd 56e1 febc 0a86 793d
00000320: 8efc c73d 912a a9bd b63f a93e 8e58 9e3e
00000330: ed8c c83c d4ab b33e 07f8 6c3d 142c 893d
00000340: db6d f13d c510 a4be d37b c03c 8b08 96bd
00000350: 8bb1 61bd 6e41 4ebc 8dd6 d9bd 0527 e0bc
00000360: 4a61 eb3d 65ed 993d ab06 c23c d089 023e
00000370: 9a14 77be d6bc fc3d 8702 663e b2da 4cbe
00000380: 6e2f f53d b0a2 3bbe 9aeb 34be 6f90 44be
00000390: ce97 08be 63c0 99bc 7960 b7bd 0d04 1bbe
000003a0: b5da 403e c004 b4be 39e8 2fbe a64c 963d
000003b0: 06d8 543e 4dc0 103e c211 21be dea9 a9bc
000003c0: e852 e03b db1a 9bbe f373 93bc 8400 153e
000003d0: 0d9d 0dbe b772 703e 5f7d 7f3e 8f99 dc3d
000003e0: e00e 8a3e 3ba9 413e ef8e 3e3d b16e 03be
000003f0: bb4c 21be bb79 5fbd efbc 703e 8b05 063e
-0.10355977 -0.062246565 0.14305314 -0.022904985 -0.080702074 -0.07948754 -0.19123036 0.096863955
0.07012656 -0.09585096 0.14208089 0.06398842 -0.31037793 -0.3197234 -0.063658796 -0.04832078
-0.19003129 0.1854882 -0.0604695 -0.007637883 0.011401374 -0.3224649 0.061355315 -0.2907901
-0.032882106 0.020495623 -0.06471435 0.047838658 0.044215865 -0.11257436 0.12791586 0.2067794
0.046564057 0.3513886 0.018809943 -0.072004795 -0.054571383 0.064449094 -0.19956943 -0.28816468
0.15987104 -0.19136228 0.14528106 -0.006157262 -0.059569564 -0.043820128 -0.026000127 -0.034065116
-0.012391222 -0.06357 -0.26209474 0.036491252 -0.1961226 -0.08735296 0.099399745 -0.1588922
0.30299693 0.14025788 0.13617536 0.06321579 0.09386659 0.03738668 -0.16507205 0.19753973
0.0131999105 -0.13264379 0.032706134 -0.072348416 -0.06855109 0.025833953 0.052238025 -0.05464603
0.3373604 0.2077161 -0.07083761 0.07278357 -0.030765824 0.08996353 -0.18650046 -0.11940218
0.15940113 -0.13911815 0.1207521 0.12114349 0.23445977 -0.13461512 0.02101456 -0.08937015
-0.018177003 0.22539169 -0.11882173 -0.019668497 0.13778694 -0.0154041285 -0.26458997 0.098331064
0.022719383 0.095369436 0.09148148 0.18645358 0.26925102 0.084476985 -0.10029895 -0.07057557
-0.040773656 0.038767055 -0.12113384 0.02169154 -0.087151386 0.13968815 -0.15823372 -0.057673976
-0.0691697 0.07344863 -0.17685302 0.37262815 0.012527952 -0.0015374239 -0.20042086 0.022731153
-0.05975979 0.03712274 -0.036997635 -0.10934407 -0.35341397 0.20075424 0.27244073 0.11283865
-0.05445355 -0.18567279 0.12134659 0.072356366 0.13641219 0.1456405 0.12824698 0.08646971
0.022714792 -0.21719463 0.026316756 -0.037974622 0.08836097 -0.03667102 0.04643928 0.31632403
0.2169928 0.12332531 -0.08495505 -0.20444025 0.20386404 0.3346277 0.115605205 -0.073576204
-0.13934873 -0.20264174 -0.18648231 0.13161156 -0.24288784 0.13675456 0.09399865 -0.0072166724
-0.00047206995 0.30884218 -0.032762762 0.09505242 0.11364707 -0.1590486 0.08530993 -0.23265406
0.009148989 -0.15233558 0.0906596 0.02768558 0.13119854 -0.040317662 0.024243707 -0.32779372
-0.01829985 0.038859457 -0.08445976 -0.17291644 0.023222307 -0.25529504 -0.13149507 -0.114661925
-0.10517742 -0.047458358 0.02461506 -0.10249829 0.05031198 -0.4476435 -0.08927415 -0.2133314
0.03690731 0.0509835 0.30284795 -0.023204342 -0.028629975 -0.10058065 -0.031113308 0.060918845
0.09764968 -0.08260072 0.3305642 0.30926937 0.024481261 0.35092032 0.057853725 0.0669786
0.117885314 -0.32044044 0.023496544 -0.07325848 -0.05510096 -0.012588842 -0.106366254 -0.027362356
0.11493166 0.075159825 0.02368482 0.12747884 -0.24128953 0.12340705 0.22461902 -0.200053
0.11971937 -0.18323779 -0.17668 -0.19195722 -0.13339159 -0.018768495 -0.089539476 -0.15138264
0.1883343 -0.35159874 -0.1717843 0.07338838 0.20785531 0.14135857 -0.1572943 -0.020710882
0.0068458207 -0.30293927 -0.017999625 0.14550978 -0.13829441 0.2348126 0.24950169 0.107714765
0.26964474 0.18912213 0.04652303 -0.12835194 -0.15751927 -0.05455945 0.23509572 0.13088052

network_body._body_endoder.seq_layers.0.bias f4 [128]
00000000: e6b1 b03b 0aa5 39bc a633 613b a1ac 8b3b
00000010: df0c 8f3c 6343 973b b665 673b 0fd4 163b
00000020: 6356 dcba dda7 3e3b 4586 41bb 7d2c 553b
00000030: 45c0 f6bb ba14 b3bc 1875 7739 5df4 803a
00000040: 5399 04b8 5755 fbbb d34b 9c3a dc1d 9c3a
00000050: d7f9 51bb 8f0a c13b 2dd0 6f3b 787c e0bb
00000060: 210e f03a 7279 70bb 6adc 9eba 65bd 11bc
00000070: 160d 08bb 7095 bd3b 523b dbba 2cb5 0c3c
00000080: 5c76 5c3c 6ab6 10bc c3c8 84ba 1be1 0ebb
00000090: 17ef ab3b 1c7d d23c 3273 71bb 93fe d3bb
000000a0: 6494 97bb db23 ea3b c435 0d3c d536 c6ba
000000b0: 3a7c 15bc f0da 1f3c 4512 063b 55a9 1c3c
000000c0: 9bf7 e1bb 7f03 063c fe1f 3dbc d17a 073c
000000d0: d21e e4bb 008a 36bc e125 c9bb 6321 91bb
000000e0: 452b d2b9 466a abb8 42e2 96ba 562a e0ba
000000f0: 00b5 66bb f983 64bb 08ff 81bc af4c 003c
00000100: b172 663c 16bc 923a 5755 783b d739 3cbc
00000110: b09d 1dbc b4a2 f13b 62f4 b53b 32d9 daba
00000120: ade0 74bb 3d43 e3bb 3d0f 8e3c b576 8f3b
00000130: 9a84 83b6 f9eb c43c 1297 4a3b 7163 f4bb
00000140: ed18 213c 7113 073c b9f5 f73b 8569 e1ba
00000150: bc75 22ba 3846 303c 82f9 453b 8b3c b4bb
00000160: 5333 d9bb cb25 373a aa1d 313c 884a 3bbc
00000170: 3d2c 8db9 9144 b4bb 809a a13b 3651 97ba
00000180: 3739 973c be7a a03c 7c71 9fb9 1769 b53b
00000190: 846f 6dba 5901 20bc aae2 92ba b437 d8b9
000001a0: 6d8b 50bb 7a92 2b3c df5f 96bb d8c0 253b
000001b0: ef83 7abb c15a a9bb 8aa5 dbbb bb5b 843b
000001c0: 43b2 993c be5e 773c d15b b63c f9a5 94ba
000001d0: 3c81 2fbb fc76 b4bb 6bb0 4f39 9b10 93bb
000001e0: 98c5 8abb 0d55 2bbc ebf8 f03b 2085 dc3b
000001f0: aec2 8f3b ac5b 16bc 04a5 ce3a 9285 9abb
0.005392301 -0.011330852 0.003436306 0.0042625223 0.017462192 0.0046161874 0.0035308427 0.002301458
-0.0016810413 0.0029091754 -0.0029529494 0.0032527738 -0.0075302445 -0.02186047 0.00023599376 0.0009838451
-3.1614047e-05 -0.0076700854 0.0011924453 0.0011910754 -0.0032039785 0.0058911513 0.0036592588 -0.0068507753
0.0018314758 -0.003669348 -0.0012120132 -0.008895253 -0.0020759753 0.0057856366 -0.0016726053 0.008588117
0.013455953 -0.008832553 -0.0010130632 -0.0021801654 0.0052470076 0.025694422 -0.0036842343 -0.0064695566
-0.004625844 0.0071453876 0.008618776 -0.0015122542 -0.009123856 0.009756789 0.0020457667 0.009561856
-0.006895972 0.0081795445 -0.011543272 0.008269028 -0.006961682 -0.0111413 -0.0061385487 -0.004429029
-0.0004008656 -8.1737104e-05 -0.0011511522 -0.0017102461 -0.00352031 -0.00348687 -0.015868679 0.007830783
0.0140654305 0.001119497 0.0037892663 -0.0114883995 -0.009620115 0.007374132 0.0055528143 -0.0016696809
-0.0037365363 -0.0069355057 0.01734125 0.0043781647 -3.919541e-06 0.024038302 0.0030912799 -0.0074581434
0.009832603 0.008244381 0.007567134 -0.0017197585 -0.00061973534 0.010758929 0.0030208533 -0.0055003813
-0.006628433 0.00069865276 0.010810295 -0.011431344 -0.00026926576 -0.005501338 0.004931748 -0.0011544588
0.0184599 0.019589778 -0.00030411396 0.0055362093 -0.00090574496 -0.009765946 -0.0011206467 -0.00041240233
-0.0031821385 0.010471934 -0.0045890654 0.0025291946 -0.0038225611 -0.0051682894 -0.0067030834 0.0040392554
0.01876176 0.015098272 0.022260578 -0.0011340968 -0.002677991 -0.005507348 0.00019806779 -0.0044880635
-0.004234981 -0.010457289 0.007353892 0.006729737 0.0043872213 -0.00917713 0.0015765731 -0.00471563

network_body._body_endoder.seq_layers.2.weight f4 [128, 128]
00000000: 227b 43bc d9bd b4bc 137e 133e e995 f6bd
00000010: da1c f7bd fed8 29be 3e0a 1e3e bd80 c33d
00000020: 87c9 e03c ef29 023d f297 f73b 62eb ffbd
00000030: 4aa1 24bc 9314 d6bc c593 9ebd 5ad1 05be
00000040: affe a73c da39 c9bd 1fdc 853d 400d 74be
00000050: 63bf a5bd f7d9 45be 9b6f b8bb 64f2 403d
00000060: 3f55 37bd 9588 0f3e 3f60 1d3d 4cd4 02bd
00000070: 8726 483e 4d83 973d 09c1 bb3c ef1f 08bd
00000080: ed23 03be 84e0 b8bd 21e3 bcbc 29b4 c3bc
00000090: c865 99bd 7fb3 be3d 0bbe 313d 3b80 bd3d
000000a0: 7333 7b3d eb4b 0dbc b859 df3b 4ded e8bc
000000b0: 8923 a03d 7825 7aba 3b95 bebd 589a 3c3c
000000c0: 8f24 0e3e 57a9 12bd 3cba 6c3e 6034 efbd
000000d0: 5904 303e 93c7 c0bc 7186 a8b8 e23a 153e
000000e0: af4e c13b 5cbc 6ebd 2b63 bfbc 8216 8b3c
000000f0: b7bd b73d 2155 7b3d da4e 923d 0b7a 3e3d
00000100: 4ddf 9cbd 15de 913c 1990 b33d c399 3cbd
00000110: a65e 6f3d 0dc2 893d 344d b03b 7299 123c
00000120: 7a9d 27bb 26cd 8b3d 796f b5bb a2d5 59bd
00000130: 355c 563d 6e4c 113a 646c 88bc a0ae 6d3e
00000140: a646 253d 37a0 c3bd 7425 74bd a270 4b3d
00000150: a466 0cbd b66f 5ebe 87ce 82bd d15b 4cbd
00000160: 6f3a ae3b c361 df3c 1e74 3a3e f883 d3bd
00000170: 79e5 77bd e5a8 9ebd e8b1 273d 95b6 20be
00000180: a583 cdbc 73a6 823d 0af0 cd3d c9c8 21bd
00000190: e67f 753d 05c5 c43d d633 5cbd 259f 3f3e
000001a0: ddd6 8d3d 9ec6 443d 14f5 8abd c391 d5bd
000001b0: 2e91 4dbd a41c 3dbd a763 9d3c 7368 363e
000001c0: b9e3 8dbd a53c ca3b 2298 ffbb 1691 893d
000001d0: 32e4 8e3b 4e88 b6bc 0ea3 dcbb 774d de3b
000001e0: bd72 bebc 3a5c 86bc a5df b9bb 3aad a0bd
000001f0: 2b2f f13c f7d2 a93d e19f a83b c844 c0bd
00000200: 0e25 e53d b19f d0bd 5deb 1dbd ad31 88bd
00000210: 7390 2ebd 2427 853d 18ff f6bd 5f3a 92bd
00000220: 33cd ff3c 180d 8cbc 807f b13c 5a7c 133d
00000230: 35ea 01be 8eac f7ba 7b54 5bbd 7ed6 6cbd
00000240: bdb2 f43c 07c3 203e b561 493d 31dd 103d
00000250: 8441 19be ec3a 3cbe 8bd2 8b3c e257 d2bd
00000260: cb0d ea3d 8178 593d b615 01be 6a31 8ebd
00000270: 09f6 06bd ecba 8cbd b37e a2b9 926a 9f3c
00000280: 1ff8 4cbe 382e e03c 6f29 b2bc cb5f 8b3d
00000290: 0561 323e b814 4ebd da2e bfbc 4b2c 003d
000002a0: 2d0c d83d 8246 39be 7434 29bc 15f2 54bc
000002b0: 4d33 a0bc ff48 ac3d b3d2 423d ef9f 05be
000002c0: 6d30 53bd f33c c0bd 242f 973d f27e 683c
000002d0: 1f98 163b 2ac0 313d a406 353e ab4d be3e
000002e0: b0fc 8d3d eb1a abbc 9e8d 78be 60a1 85be
000002f0: a6e1 24bd 7bad b4bd abeb 543d 714c 82bd
00000300: 849a 9cbc 1e59 913d b44b a63d e620 0c3e
00000310: a9af 393d 375b 5ebd 4b93 463c 0247 36bd
00000320: c0f1 90bd b34c d73b 6880 733d 6060 38bd
00000330: 4c39 e03d 4eef 133e f7c8 843d 2c91 74bd
00000340: eb89 203d 23bc 7cbd e159 3cbd abaf b4bd
00000350: 50a6 37be 8071 19bd 8075 1fbd 3faf 243e
00000360: 859d 043c 19ea 07bd cb0c f7bc 1820 febc
00000370: a11a 3b3d 4e20 743c 6cbd 9f3d ac2e 173e
00000380: 62d5 d33d 57f7 b9bb f730 49bb 3578 b6bd
00000390: dd73 85bd 10ea 22bd b00e e6bc 4c6f 21be
000003a0: 73f8 b5bd 452e 31be 0c17 9e3d f360 343d
000003b0: dbbc d9b9 a679 38bc 1f07 c4bc 6d83 96bd
000003c0: 34d2 a73c 8470 1b3c 95db 69bd fdf2 1d3d
000003d0: ca7d 60bd d130 043e 0bb2 debd 8bc1 1abe
000003e0: 9c7e 1d3d a5d2 663c 8896 11be 0f0c e33b
000003f0: d7c2 32bd 46f7 24be c8cd aa3d 8622 ab3d
-0.011931213 -0.022063183 0.14403562 -0.12040312 -0.1206605 -0.16586682 0.15433595 0.09546039
0.027439846 0.031778272 0.007555955 -0.124960676 -0.01004822 -0.026132857 -0.077430286 -0.13068143
0.020507185 -0.098254874 0.065361254 -0.2383318 -0.08093145 -0.19321428 -0.005628539 0.04710616
-0.04475903 0.14016946 0.038421866 -0.031940743 0.19545947 0.073980905 0.022919195 -0.03323358
-0.12806673 -0.09027198 -0.023057522 -0.023889618 -0.07490116 0.0931158 0.04339413 0.09252974
0.061328363 -0.008624057 0.006816115 -0.028433466 0.07819278 -0.00095423264 -0.09305807 0.011511408
0.13881133 -0.035806026 0.23117918 -0.116799116 0.17189158 -0.023532664 -8.035906e-05 0.14573243
0.0058992724 -0.058285102 -0.023362717 0.016978506 0.08971732 0.061360482 0.07143946 0.046503108
-0.07659779 0.017806092 0.08767719 -0.046045076 0.058439873 0.067264654 0.005380297 0.008947717
-0.002557604 0.06826238 -0.00553697 -0.05318225 0.05233403 0.00055427 -0.016653247 0.23211145
0.04035058 -0.09552043 -0.05960603 0.049667962 -0.034277573 -0.21722302 -0.06387048 -0.04989225
0.0053170244 0.027268296 0.18208358 -0.103279054 -0.060521577 -0.07747058 0.04094115 -0.1569465
-0.025087187 0.06379404 0.100555494 -0.039498124 0.059936427 0.09607891 -0.053760372 0.18713053
0.069257475 0.04804098 -0.06785026 -0.104281925 -0.050187282 -0.046169892 0.019212557 0.17813282
-0.069282 0.00617178 -0.007800118 0.06717126 0.004360699 -0.022281792 -0.006733305 0.006784137
-0.02324807 -0.016401399 -0.0056724125 -0.0784554 0.029441437 0.082921915 0.005146012 -0.09388119
0.11188708 -0.10186709 -0.038554538 -0.066501 -0.042618226 0.06501606 -0.12060374 -0.0714004
0.031225776 -0.017096087 0.021667242 0.036007263 -0.12686999 -0.001889603 -0.053547364 -0.057821743
0.029870385 0.15699397 0.049165446 0.035367195 -0.14966398 -0.18381852 0.017068168 -0.102706686
0.11428412 0.053093437 -0.12605938 -0.06943019 -0.03294948 -0.0687159 -0.00030993446 0.019459996
-0.20016526 0.027365789 -0.021748273 0.068053804 0.17419823 -0.050312728 -0.02333777 0.03129224
0.10549197 -0.18093303 -0.010327447 -0.01299717 -0.019555712 0.084123604 0.04756422 -0.13049291
-0.051559854 -0.09386625 0.07382038 0.014190422 0.0022978855 0.043396153 0.17678314 0.3716863
0.06932962 -0.020886859 -0.24272773 -0.26099682 -0.040254258 -0.08822151 0.051982563 -0.06362236
-0.019116648 0.07097076 0.08119908 0.13684425 0.04533354 -0.054286208 0.012120078 -0.044501312
-0.0707736 0.0065704226 0.05944863 -0.045013785 0.109484285 0.14446756 0.064836435 -0.05970876
0.03919403 -0.06170286 -0.045984153 -0.088225685 -0.17934537 -0.037461758 -0.038930416 0.16082476
0.008094196 -0.033182237 -0.030157467 -0.031021163 0.045679692 0.01490028 0.07799801 0.14763898
0.10343434 -0.005675237 -0.0030699351 -0.089096464 -0.0651624 -0.039774 -0.028083175 -0.15765113
-0.088852786 -0.17302807 0.077192396 0.04403777 -0.00041530174 -0.011259472 -0.023929177 -0.07349286
0.020485975 0.009487275 -0.057094175 0.03856181 -0.05480746 0.12909247 -0.10873803 -0.15112893
0.038450822 0.0140883075 -0.1421758 0.0069289277 -0.043642845 -0.16109952 0.08340031 0.08356194

network_body._body_endoder.seq_layers.2.bias f4 [128]
00000000: 432c 46bc 14e2 a7bc c963 053c aa13 2b3a
00000010: 9f70 673b d99f 5c3c a082 b6ba 7588 b03c
00000020: 4702 663c 1150 c4ba 73e6 f9bb e8cf 1cbb
00000030: 0b7a 033c d50b 3d3c da7e 3ebb 2957 a03b
00000040: 7405 dbbb d3ee c43a 7db0 26ba a95b 0d3b
00000050: d42c d83a 7f51 66bb 5020 d93c a476 01bb
00000060: ae77 6e3b 9630 bfbb 0068 1bbc f70e d33b
00000070: 4339 e23b f115 cd3a 990a ea3b 7250 11ba
00000080: 3f4f 4b3a 8253 60ba 9680 e4ba b1c9 83bb
00000090: 79d1 cb3a 6606 9b3b 77c5 f83a c5d1 0f3a
000000a0: 3d52 3e3b c1b6 a73b 88e1 1e3b 70f6 b239
000000b0: 0a2b b4bb 3105 5ebb 78b7 a73b 6847 053b
000000c0: 39ca 4b3b 9223 933b 21ac f2bb ca69 debb
000000d0: 697d 683b 6dcb 1d38 d10d cc3b 0a6c d53b
000000e0: 3072 233c 957d cd3c 1555 f03a 724f 9b3b
000000f0: e8ec cdbb 385f 14bb 4e99 273c f09c dbbb
00000100: d6ea 7f3c 2c52 78bb 3429 90bb 93cf 9e3b
00000110: 59dc 943b aa67 343c c8b4 a6bb 88eb dabb
00000120: 4a82 3e3b 1f19 373c f9a2 07bc 5648 2e3c
00000130: 533a 1e3b b9b8 91b9 5157 92ba 7642 9abb
00000140: fd7f 28bb 1dc5 833c 91fc fb39 eb74 4a39
00000150: 3797 cc3a 25d0 3b3b 0213 a53c b165 cdbb
00000160: fa7b 00bb 1602 49bb 5cfa 6c3b ca30 12bc
00000170: 111f f53a 8c30 d93a ac4e 16bc c36e 9fba
00000180: 3e25 0b3b 4f90 10bc 6f33 99b9 f407 313c
00000190: 032c a13b cba4 113a 6265 c7bb 44b0 e53b
000001a0: 9b9a 9b3b 3f64 62ba a666 1f3c 0053 863a
000001b0: 8b79 9cbb 975e 8bba ef42 163b 9328 03bb
000001c0: ec27 423c e793 203b b873 dbba 92cd 5cbc
000001d0: d85e 013b bb80 07bb 0ddf 5d3c 50f5 9e3b
000001e0: 36f3 a23b 79ef 10bb db48 d8bb 04c0 5cbb
000001f0: 3a79 12bb 3003 aa38 9635 ebba e9cd 28bc
-0.012095514 -0.020493545 0.008141466 0.00065260625 0.003531493 0.013465845 -0.0013924427 0.021549443
0.014038629 -0.0014977475 -0.0076263486 -0.0023927633 0.008024703 0.0115384655 -0.0029067309 0.004893203
-0.0066839997 0.0015024788 -0.0006358696 0.0021569526 0.0016492852 -0.003514379 0.026504666 -0.0019754553
0.0036387253 -0.0058346493 -0.009485245 0.006440993 0.006903799 0.0015646798 0.0071423766 -0.00055432983
0.0007755644 -0.00085573655 -0.0017433341 -0.004021846 0.0015550099 0.0047309874 0.0018979748 0.0005486275
0.0029040717 0.0051182215 0.0024243314 0.00034134416 -0.0054982947 -0.0033877606 0.0051183067 0.002033675
0.0031095876 0.0044903243 -0.0074057733 -0.0067875134 0.003547514 3.7621172e-05 0.006227233 0.0065131234
0.009975955 0.025084296 0.0018335903 0.004739695 -0.006284345 -0.0022639763 0.010229422 -0.006702058
0.015619954 -0.0037890775 -0.004399443 0.004846522 0.004542869 0.011011044 -0.005087469 -0.0066809095
0.0029069358 0.011175423 -0.008278602 0.010637363 0.002414365 -0.00027794184 -0.0011164938 -0.00470763
-0.0025711053 0.016085202 0.00048062627 0.00019307777 0.001560903 0.0028658 0.020150665 -0.006268226
-0.0019605146 -0.003067141 0.0036159968 -0.008922765 0.0018701275 0.0016570254 -0.00917403 -0.0012163747
0.0021231915 -0.008823468 -0.00029220755 0.010805119 0.0049185767 0.0005555867 -0.006085084 0.007009538
0.004748655 -0.00086361537 0.009729063 0.0010248125 -0.0047752312 -0.0010633048 0.002292808 -0.0020013198
0.011850338 0.002450222 -0.0016742861 -0.013476746 0.001974037 -0.0020676095 0.013541949 0.004851021
0.0049728407 -0.0022115393 -0.006600482 -0.0033683786 -0.0022350089 8.1068254e-05 -0.0017945047 -0.010302999

action_model._discrete_distribution.branches.0.weight f4 [9, 128]
00000000: edbd fd3b 697b b23c 8cb6 1ebc 97ca 9c3c
00000010: 7331 593b 9007 9d3b 1213 a9bc e2b2 c9bc
00000020: 0033 99bc 773a a237 2cd8 213b fbeb 93bb
00000030: 6b7d 06bb d9bf 9dbc 106d 3dbc 967f 09bc
00000040: b76e 2b3b 532e 0d3d 7cf7 acbb 724f 2f3c
00000050: b511 b23b bda5 85bc c7f3 d13b a1a0 303c
00000060: 6ede e0b9 5bfa 773c ca6b 00bc 149d 453b
00000070: 2d5e 32bc 8514 39bb e612 45bc 76a2 acbb
00000080: 3072 493b 27ee 2d3c cfc7 89bc f5db 0abc
00000090: ff53 993b 71ec 8e3b 45f3 4b3c 7501 613c
000000a0: 46c5 2abb 8f5d a03c 964d 7e3c 8efb aabc
000000b0: d97d 4cb8 e602 a33b 60df c6bb 7094 5abc
000000c0: a3b5 4cbc 20ad 813b 2013 9bbb cbb5 00bc
000000d0: c66d 0e3c 10c4 7bbc 236f 2ebb 1e9d b63b
000000e0: 49fc 04bb e77a 153a 12c8 293c a863 783c
000000f0: 0c79 803c 0f2b 73ba ee94 2e3c 8623 b73c
00000100: 89d7 853b 4137 55bb 26a5 81bb 97a6 163b
00000110: ebc8 18bc 6363 af3c 3feb b8bb 5886 133b
00000120: 5b12 37bc 7930 723c 8d79 e7bb 55ff 29bc
00000130: f343 97bb 0e65 29bb ccf3 1bbc 3517 0cbc
00000140: 246c b23c ccff a5bb 8b86 933a d4c2 13bc
00000150: 9a33 83bc f35b 323c d099 ca3c 9539 9c3b
00000160: 7134 0abb 1cf7 4f3c cb68 453b 64fe 003c
00000170: ca78 2bbb b633 3ebc 36eb 443c 2c23 a3ba
00000180: c7d6 c63c 51d7 293c a742 a4bc 83e7 aebc
00000190: 67d7 41bc 00ae 03bc eef1 51bc 7fd8 3abc
000001a0: 9f2d e3bb d981 b13c 7070 753c 9241 9cbb
000001b0: fdf2 6fba 1a24 7d3b 4618 1abc ce11 d53c
000001c0: cbc5 be3b 2ef6 b0bb a321 ed3b ce65 a13b
000001d0: b003 ccbc f528 b1bc 819e a5bc 7ca1 343c
000001e0: 06fe d8bb c504 50bc 1189 513b 7e90 9fbc
000001f0: 63c8 a0bc c0d7 3bbc 40ce f2ba ee6a f73a
00000200: 9489 d73b 762b b1bc 4810 943c 8339 c3b8
00000210: 96e3 153c cb21 1abd f42e 893a 3715 2a3d
00000220: 44da b03c cea6 44bb 8d98 52b9 d21b ecbb
00000230: 881d b43c 2d52 b83b 0564 58bc 4991 c3bb
00000240: ac4e b7bb ebf1 a1bc be41 053c 77f8 9938
00000250: 3ff8 6dba 57e6 0cbb a2fd 143d 46fb 77bc
00000260: 8426 e039 349a a5bc b0b4 853c 099a a9bc
00000270: a906 073c 9ef0 473c 371d 62bb 370f a73c
00000280: b529 893c b792 07bc e20e 9d3c 6fd0 3f3c
00000290: 9636 6cbc 9136 263b de9f eebb f083 463c
000002a0: 8c8e e6bb 3f0e abbb b3b2 2fbc 967d 7f3b
000002b0: 61d7 a2bc 5ce3 39bb 6d85 743c ec34 373b
000002c0: 139e 093c 4a38 a4bc f367 8ebc 915b 03bb
000002d0: 6af7 1d3c d697 373b c1ed 293b d2b2 443c
000002e0: 43ae eb3b 0b83 4f3d 0b11 29bc dfbc 57bc
000002f0: 0797 dbbc 92ec 773c 3f72 10bd f743 0cbb
00000300: 8eed 903c 0c75 083c 2de2 a33b 1325 35bc
00000310: 3291 3abc c08d 35bc 9d50 bebb 4f41 b1ba
00000320: 1b12 2a3c a51b e8bc 42fb 8bba 1b28 f23b
00000330: 9d0b 573c 1f4f 7d3c 1088 4cbc ab04 81bb
00000340: ef0d fbbb 4ef4 1d3c 67bd 98bc b77d 133b
00000350: c303 083c 39da 93bc a985 b2bc 6bf2 b6bb
00000360: 4aee 5ebb a329 a13a 99ab abbb 8757 92bb
00000370: 2a8f 02bc 4c81 21bb c01c b0bb 597a aabb
00000380: c84c 47bc 557f a73b f8bc 2ebc 4f6d a5bc
00000390: d8e0 363c 5ca1 543b 5e91 d9bb 1578 2d3c
000003a0: 9841 003d 2b83 89bc fae6 e2bc bde3 083b
000003b0: 57de 0ebc fe84 bebb f990 54bc 6bbd b2bc
000003c0: 514f 84bb 8602 293a 01da f4bb 9042 823b
000003d0: 9127 ca3c bd6d 453b 552b 32bc 4512 f0bc
000003e0: 2870 4f3b bf26 dc3a 9fa7 483b 1a86 923b
000003f0: 9077 bdbb 2f54 0bbc 6b64 97bb 3834 c3bb
0.007743588 0.021787362 -0.009687077 0.019139571 0.0033141046 0.0047921613 -0.020638976 -0.02462143
-0.018701077 1.933913e-05 0.00246955 -0.004514215 -0.0020521532 -0.01925652 -0.011561647 -0.008392235
0.002615852 0.034468006 -0.005278526 0.010700094 0.0054342397 -0.016314382 0.0064072344 0.010780484
-0.00042890332 0.015135373 -0.007838199 0.003015344 -0.010886711 -0.002824099 -0.0120284315 -0.0052683903
0.0030738227 0.010615862 -0.016818909 -0.008475293 0.0046792026 0.004361682 0.012448137 0.013733258
-0.0026057526 0.019575862 0.015521428 -0.020871904 -4.8754595e-05 0.0049747108 -0.006069109 -0.013341054
-0.012494477 0.0039574057 -0.0047325045 -0.007855843 0.008693164 -0.015366569 -0.0026616536 0.005572929
-0.0020291975 0.0005702213 0.010362642 0.015160479 0.01568272 -0.00092761306 0.010655625 0.022355806
0.0040845317 -0.0032534155 -0.003956455 0.002298748 -0.009325246 0.021409696 -0.005643278 0.0022510495
-0.01117381 0.014782065 -0.0070640505 -0.010375817 -0.0046162545 -0.0025847587 -0.009518575 -0.008550455
0.021780081 -0.0050658938 0.0011255307 -0.009018619 -0.016015816 0.01088618 0.024731547 0.0047676065
-0.0021088386 0.012693193 0.0030122276 0.007873151 -0.0026164525 -0.011609009 0.012018969 -0.0012446395
0.024272336 0.010366277 -0.020051314 -0.021350628 -0.011831141 -0.00803709 -0.012814028 -0.011404156
-0.0069329287 0.021668361 0.0149804205 -0.004768559 -0.00091533345 0.0038626255 -0.009405201 0.026009466
0.0058219186 -0.0054004407 0.007236676 0.004925466 -0.024904102 -0.021625975 -0.020217182 0.011024829
-0.006622079 -0.01269645 0.0031972567 -0.019478079 -0.019626802 -0.011465013 -0.0018524602 0.0018876472
0.00657768 -0.02162717 0.01807417 -9.309037e-05 0.009148499 -0.037629884 0.0010466264 0.04152414
0.021588452 -0.003000665 -0.0002008399 -0.007205465 0.021986738 0.0056250305 -0.01320744 -0.005968247
-0.005594095 -0.019768676 0.00813335 7.341889e-05 -0.0009077824 -0.0021499598 0.036374696 -0.015135592
0.00042753306 -0.020215131 0.01632151 -0.020703332 0.008241334 0.012203364 -0.0034502277 0.020392997
0.01674352 -0.008274726 0.019172136 0.011707409 -0.014417311 0.0025362114 -0.0072822412 0.012116417
-0.007036036 -0.005220204 -0.010723758 0.0038984767 -0.019878091 -0.0028364277 0.014924389 0.0027955128
0.008399504 -0.020046372 -0.017383551 -0.0020043592 0.009641508 0.0028014085 0.0025929066 0.012005525
0.0071924045 0.05066208 -0.010319005 -0.013167589 -0.026805414 0.015132086 -0.035265204 -0.0021402815
0.0176914 0.008328687 0.0050013275 -0.011056202 -0.011387156 -0.011081159 -0.0058079497 -0.0013523492
0.010380293 -0.028333494 -0.0010679739 0.007390035 0.013125327 0.0154607585 -0.012483612 -0.003937324
-0.007661573 0.009640766 -0.018645002 0.0022505352 0.008301678 -0.018048393 -0.02179225 -0.0055830977
-0.0034016543 0.0012295734 -0.005238962 -0.0044660005 -0.007968703 -0.0024643717 -0.005374521 -0.0052025733
-0.012164302 0.0051116147 -0.010665171 -0.020193724 0.011162005 0.003244481 -0.0066396436 0.010587712
0.031312555 -0.016786179 -0.027698029 0.0020887696 -0.008720002 -0.0058141937 -0.012974017 -0.021818837
-0.0040377756 0.00064472144 -0.007472277 0.00397522 0.02467707 0.0030125224 -0.010874589 -0.029305587
0.0031652544 0.0016796215 0.0030617488 0.0044715526 -0.005782075 -0.008503958 -0.004620125 -0.0059571527

action_model._discrete_distribution.branches.0.bias f4 [9]
00000000: 33ad 22bb 800f c63b 7618 d93b 6acf cb39
00000010: 5817 04bb c3b8 a5ba 106a e4b9 38ae f439
00000020: 4b4e d0bb
-0.0024822473 0.006044328 0.0066252304 0.00038873713 -0.0020155516 -0.0012643564 -0.00043566572 0.0004666911
-0.0063569895
