Assets/My Behavior-499978.onnx (onnx, 201642 bytes, 4 tensors)

network_body._body_endoder.seq_layers.0.weight f4 [128, 254]
00000000: 40f4 863d 044f 84bd 092b 5dbd c60b 003d
00000010: 9754 9ebd ae8a b03b 9fe5 263d e857 a5bd
00000020: 2be3 703b fc98 d2bc 1d65 f43a bc44 993c
00000030: 60c6 9fbc 5be5 613d d453 843b 7c72 8cbd
00000040: 8478 f2bc 0f2a 4f3c fbdc e43d 197a 12bb
00000050: b675 4d3d fabe d43d 4e7a 363e cb3f 993c
00000060: bfd7 313b 0c6c 143c 3952 a4bc ca8d 513c
00000070: b51f 253d 20e7 193d f0d5 093e 54d7 cc3d
00000080: 56da 06bd e593 16bd d371 f03c 1aa3 03be
00000090: 8fd8 a3bd 1b93 1dbd 2096 50bd 9d57 53bd
000000a0: 0963 1a3d ce04 263d 7922 503d 22b6 b03d
000000b0: b640 0d3e cfb1 633d 06b3 2a3d ea62 233d
000000c0: 081d 2d3d f6a3 133d 3eb8 83bd ca33 57bd
000000d0: db67 7e3b 4eea bd3d c7ed 903d c6b5 59be
000000e0: 1479 34bd 86c4 e83c b4f4 67bd be07 96bb
000000f0: b36b 3abd cb15 2cbd 06b9 d43c c50d 473c
00000100: e6a8 2f3d dc09 9e3d a97a a63c 84ab 09bd
00000110: 6629 863d e45e 223e a4d4 0f3e 9dd6 75bd
00000120: 18fb 643d 8198 ac3c ba18 65bc 0d59 7fbc
00000130: 8f1a 40bc c4cc 333d 1e6b 403c e02d 84bd
00000140: 5510 c6bd 00ea cebc 83ff 423d 49ce 523d
00000150: 8747 533d 9c72 d43d 470f 5d3b eb0f 703d
00000160: 2a96 90bd e974 173d f398 87bd 2d99 91bb
00000170: 9cbb c03d 130d 30bd f27a 9c3b 3abc 23bc
00000180: c7ed 283d 05ed f83d ffac 18bc 257a 8ebd
00000190: 492d 54bd 8ea6 94bc 6a1e e63d 0582 ac3c
000001a0: 8500 f43b bec8 b3bb 6781 e23c 1055 0d3e
000001b0: 1759 903d 119f 2dbd 7b9d aabc 693e eabc
000001c0: 54b1 06bd eb95 55bc d6bf bbbd 1110 87bd
000001d0: 8016 833c afc6 98bb deb0 30bb bec9 c83c
000001e0: 115d 343d e321 ad3c 3bb9 b3bc 506d a1bc
000001f0: 798b 2e3d 430a 1c3e b82b f0bd c6cc 083c
00000200: 6c18 e1bb 9395 cdbd d806 a03c 4e72 94bd
00000210: 9848 03ba 2040 8fbd 3524 c23d 1012 4f3d
00000220: bed0 53bc d610 38bc 4de1 953d b407 c7bc
00000230: 2f93 d1bc c7df fc3d c03e a2bc 92d3 60bd
00000240: b136 193d 9a75 973d 9351 e53c f55e f83d
00000250: a9b4 dc3d 2d8d 943d 9131 4d3d fa83 a03d
00000260: 69d7 893d f268 913d 4fcb 22bd c7c1 a03d
00000270: e167 02be 5c26 85bd 398f 24ba 2fa6 013d
00000280: 3641 13bd ee69 d7bc ec0a 0a3d 147f c93c
00000290: 3afd 103d b16d 92bd 8933 063d f576 8bbd
000002a0: eda8 28bd 2c44 65bd e755 27be 6dd7 68bc
000002b0: e501 363d 9af5 f0bb 17e5 ab3d b99b cfbd
000002c0: 3751 433d d03c b43c e3aa 373d 52aa e83c
000002d0: 00ff b039 4cd4 0a3d 83e0 1bbc 5942 8a3b
000002e0: 16c1 4dbd c568 93bd 768e 483d 9b98 3abd
000002f0: 4bd7 b4bd 6d70 47bb fca8 3fbd 4011 273d
00000300: e676 b73d f60c b0bd c04c 68bc 93c6 2ebe
00000310: 4af3 94bd 22ca 31bc d928 91bd 7834 853d
00000320: 8b45 923d bcd4 8fbc ce15 f43c cdb9 9d3c
00000330: d7ab a4bb addd 7abd 7b7e 443d fe85 8a3d
00000340: 2f8b 3bbd 3c75 193c 1bbb bebd 96e3 79bd
00000350: bdcf 9f3c b7e4 133d 7027 13be 4443 1dbc
00000360: 739e 91bd 7a43 b1bd 8bfd 1fbe 7bc5 fa3d
00000370: 97e3 233d d5b2 a8bc 64e5 223e 45b5 e03c
00000380: 943e 653d cc95 90bd 3d1d f43c 4c8f c8bb
00000390: b486 f63c 22f1 a2bd d30a 92ba 4ec6 c33d
000003a0: 85b0 403d 61b7 4c3c 26be 03bc 7cfa a2bd
000003b0: a76b 0a3e a68f 823d e103 693d 02f6 49bc
000003c0: 9b29 423d e38d c53b bf3d 21bd 2e11 13bd
000003d0: d7b6 d9bc 440b aebc 9b4d 1abd 8c04 02be
000003e0: b8ae cdbc 06fa 82bd 9f50 3a3d 28ee f0bc
000003f0: 4921 b9bc 1209 95bc 6986 af3d 452e 0cbe
0.06589556 -0.064603835 -0.05399612 0.031261228 -0.07730978 0.0053876257 0.040746327 -0.080734074
0.0036756496 -0.025707714 0.0018645857 0.018709533 -0.019503772 0.05515037 0.0040383134 -0.06857774
-0.029598482 0.012644305 0.11174961 -0.0022350608 0.050161086 0.103879884 0.17820093 0.018707177
0.0027136651 0.0090589635 -0.020058738 0.012790153 0.04031344 0.037573934 0.13460517 0.10002008
-0.032923065 -0.036762137 0.02935115 -0.12855187 -0.0800029 -0.03847037 -0.05092442 -0.051597226
0.037692104 0.040531926 0.050814126 0.08628489 0.13794217 0.055589493 0.041674636 0.039889254
0.042264014 0.036045037 -0.06431626 -0.052539624 0.0038819227 0.09273206 0.070766024 -0.21260747
-0.04406078 0.028414022 -0.05662985 -0.0045785597 -0.045512866 -0.04201297 0.025967132 0.012149279
0.042885683 0.07716724 0.02032216 -0.033610836 0.06550865 0.1585651 0.1404596 -0.060019124
0.055903524 0.021068813 -0.013982946 -0.015585196 -0.011725082 0.04389645 0.011744289 -0.064540625
-0.09671084 -0.025258064 0.047606956 0.05146626 0.051581886 0.103734225 0.003373103 0.05860893
-0.070598915 0.03697673 -0.066209696 -0.004443309 0.09410784 -0.04298122 0.0047753984 -0.009993607
0.041242387 0.12154583 -0.009318589 -0.06956891 -0.051801 -0.018145826 0.1123627 0.021058092
0.007446351 -0.005486577 0.027649594 0.1380198 0.070482425 -0.042388026 -0.020827046 -0.028594213
-0.032883957 -0.0130362315 -0.09167449 -0.06594861 0.01600194 -0.004662357 -0.002696089 0.02451026
0.044034068 0.021134323 -0.02193891 -0.019705445 0.04261348 0.1523829 -0.11727089 0.008349603
-0.0068693664 -0.10038295 0.019534513 -0.072483644 -0.0005008071 -0.06994653 0.09479562 0.050554335
-0.012928186 -0.011234483 0.07318363 -0.024295665 -0.025582878 0.1234737 -0.019805312 -0.05488927
0.037405673 0.073954776 0.027993 0.121274866 0.10776646 0.0725349 0.0500961 0.078376725
0.06730539 0.07100095 -0.03974467 0.0784946 -0.12734939 -0.06501457 -0.00062774454 0.031652626
-0.035950862 -0.026295628 0.033701822 0.024596728 0.035397746 -0.07149828 0.03276399 -0.06809799
-0.041176725 -0.055973217 -0.16341363 -0.014211518 0.0444354 -0.0073534967 0.08393305 -0.101371236
0.047684874 0.022001654 0.044840705 0.028401528 0.00033759326 0.03389387 -0.009513977 0.004219335
-0.05023297 -0.071977176 0.048963986 -0.045555692 -0.088301264 -0.0030432001 -0.046792015 0.040787935
0.08958225 -0.08596222 -0.014178455 -0.17067938 -0.07272966 -0.010851415 -0.07087869 0.06504148
0.071421705 -0.017557494 0.029795554 0.019253636 -0.0050253677 -0.061246563 0.047972184 0.06763838
-0.045787033 0.00936633 -0.09313031 -0.06100806 0.019508237 0.03610679 -0.14370513 -0.009598557
-0.071103 -0.08655448 -0.15624063 0.12244698 0.04001197 -0.020593086 0.15907818 0.027430186
0.055967882 -0.070598215 0.029799098 -0.006120598 0.030093528 -0.07956149 -0.0011142142 0.09559308
0.047043342 0.012494893 -0.00804094 -0.07957932 0.13517629 0.06375055 0.056888465 -0.012326719
0.04740296 0.006028877 -0.039365526 -0.035905056 -0.026576443 -0.021245606 -0.037671667 -0.12697047
-0.025107726 -0.063953444 0.045487043 -0.029410437 -0.02259888 -0.018192802 0.085705586 -0.13689525

network_body._body_endoder.seq_layers.0.bias f4 [128]
00000000: 0000 0000 0000 0000 0000 0000 0000 0000
00000010: 0000 0000 0000 0000 0000 0000 0000 0000
00000020: 0000 0000 0000 0000 0000 0000 0000 0000
00000030: 0000 0000 0000 0000 0000 0000 0000 0000
00000040: 0000 0000 0000 0000 0000 0000 0000 0000
00000050: 0000 0000 0000 0000 0000 0000 0000 0000
00000060: 0000 0000 0000 0000 0000 0000 0000 0000
00000070: 0000 0000 0000 0000 0000 0000 0000 0000
00000080: 0000 0000 0000 0000 0000 0000 0000 0000
00000090: 0000 0000 0000 0000 0000 0000 0000 0000
000000a0: 0000 0000 0000 0000 0000 0000 0000 0000
000000b0: 0000 0000 0000 0000 0000 0000 0000 0000
000000c0: 0000 0000 0000 0000 0000 0000 0000 0000
000000d0: 0000 0000 0000 0000 0000 0000 0000 0000
000000e0: 0000 0000 0000 0000 0000 0000 0000 0000
000000f0: 0000 0000 0000 0000 0000 0000 0000 0000
00000100: 0000 0000 0000 0000 0000 0000 0000 0000
00000110: 0000 0000 0000 0000 0000 0000 0000 0000
00000120: 0000 0000 0000 0000 0000 0000 0000 0000
00000130: 0000 0000 0000 0000 0000 0000 0000 0000
00000140: 0000 0000 0000 0000 0000 0000 0000 0000
00000150: 0000 0000 0000 0000 0000 0000 0000 0000
00000160: 0000 0000 0000 0000 0000 0000 0000 0000
00000170: 0000 0000 0000 0000 0000 0000 0000 0000
00000180: 0000 0000 0000 0000 0000 0000 0000 0000
00000190: 0000 0000 0000 0000 0000 0000 0000 0000
000001a0: 0000 0000 0000 0000 0000 0000 0000 0000
000001b0: 0000 0000 0000 0000 0000 0000 0000 0000
000001c0: 0000 0000 0000 0000 0000 0000 0000 0000
000001d0: 0000 0000 0000 0000 0000 0000 0000 0000
000001e0: 0000 0000 0000 0000 0000 0000 0000 0000
000001f0: 0000 0000 0000 0000 0000 0000 0000 0000
0.0 0.0 0.0 0.0 0.0 0.0 0.0 0.0
0.0 0.0 0.0 0.0 0.0 0.0 0.0 0.0
0.0 0.0 0.0 0.0 0.0 0.0 0.0 0.0
0.0 0.0 0.0 0.0 0.0 0.0 0.0 0.0
0.0 0.0 0.0 0.0 0.0 0.0 0.0 0.0
0.0 0.0 0.0 0.0 0.0 0.0 0.0 0.0
0.0 0.0 0.0 0.0 0.0 0.0 0.0 0.0
0.0 0.0 0.0 0.0 0.0 0.0 0.0 0.0
0.0 0.0 0.0 0.0 0.0 0.0 0.0 0.0
0.0 0.0 0.0 0.0 0.0 0.0 0.0 0.0
0.0 0.0 0.0 0.0 0.0 0.0 0.0 0.0
0.0 0.0 0.0 0.0 0.0 0.0 0.0 0.0
0.0 0.0 0.0 0.0 0.0 0.0 0.0 0.0
0.0 0.0 0.0 0.0 0.0 0.0 0.0 0.0
0.0 0.0 0.0 0.0 0.0 0.0 0.0 0.0
0.0 0.0 0.0 0.0 0.0 0.0 0.0 0.0

network_body._body_endoder.seq_layers.2.weight f4 [128, 128]
00000000: 7e2e 0abc df17 f6bd 91da aabc 99d3 a23d
00000010: 6329 233e de55 04be e34d a03c 889b 17bd
00000020: 5f95 193d c04d af3d bf8d 743e 68b0 0a3b
00000030: b724 efbd d29b d93c 1631 9f3d 4005 803d
00000040: afba 15bc 6dc2 f03c efae 56bd 283f ab3c
00000050: 59aa 82bd 409e d2bd 9f25 38bc cbb8 24bd
00000060: 39c5 f23c 5f36 4ebe 6d11 c1bd ad4f b0bd
00000070: 4c4e 143d 6bb8 2c3e 7971 1ebd 83bc 82bd
00000080: 0999 433d e3ec 143e d0c1 b93b cc1a 34bd
00000090: 8f73 1a3c 8e82 393d 4be0 073d a5e9 3bbd
000000a0: 6d0a cebd 89e9 ad3d 2ddd 103e a8be adbd
000000b0: 0251 f2bb c94c a8bd 1448 42bc 7b52 d63c
000000c0: b62f 143e bbc7 233c 690e 143c c75a 303e
000000d0: d043 fcbd cc0b 2b3e 2401 88bc 2c29 71be
000000e0: 5339 a53b 3227 d13c eb12 44bd 5613 8c3d
000000f0: 7a33 883d a634 a43c d4af 613d 9a10 ddbc
00000100: 3afd 583e b547 e9bc 744c 92bd 26f0 53bb
00000110: 442b 813d 1bf9 0a3d 2e40 a2bd 2125 f4bd
00000120: b1c7 753d 2382 093d 65fe 14bd 9e3c 13be
00000130: e4f8 f1bc d7fe 92bd 9dd7 3dbd f095 00be
00000140: af5c 0bbe 51b6 22bd 182d 2e3e 2e53 b83d
00000150: 7993 8cbd 7c70 0abe aeda b9bc cbfc f93b
00000160: bf30 62bc 1f39 e43d 9e08 11be 5804 af3d
00000170: 5920 7f3c b339 2b3e 3b55 2a3d 66c7 96bd
00000180: 941c 1b3d faf3 c4bd 8591 23bd 3b20 9fbd
00000190: 3636 3bbd f8db e739 87d5 55be 31e6 99bd
000001a0: 3247 2cbd 7b3f c2bd 8073 d33d 65a3 89bc
000001b0: 06e0 493d cbb9 fbbc 458e bcbd 8b3a 27be
000001c0: 874c d0bd 57ae db3c b5ec 09be b1a9 923d
000001d0: b5ff 193e b658 d03d bf51 0ebe 2671 15be
000001e0: 744a fe3d bac3 843d f139 da3c f5ef 2fbe
000001f0: fc9d b4bc e3eb 333d a2b6 dcbd 3b7f 3cbe
00000200: c997 bdbd 6dc5 24be ab32 cfbd 9d0d 0abe
00000210: 258a 743d b3b1 33bd 8a57 c1bd b527 06be
00000220: 3e16 19be 1c0d 8abc 463c 34be 2db0 3a3b
00000230: d79f 36bd 9f77 58bd c383 e3bd cba5 29bd
00000240: 7cb0 183d 45ac b4bc e255 7e3d 0c2b 7b3e
00000250: 9a6c 15be 8037 803b 7b96 82bd be07 09bd
00000260: 2291 5e3d 5394 2d3e 0433 adbd 3629 f1bb
00000270: 4f5e 96bd 310c 85bb 85a6 bfba 2081 ac3c
00000280: 5e69 2d3d 83f4 05be da90 44be f93f bebd
00000290: caca c5bb bb33 02be 0fb4 9e3d 53ee 19be
000002a0: feff fa3b fad6 a4bc 2af6 823d a14a 13bd
000002b0: 1f25 35bc 1c9b 383b fbd6 17bd 1db7 91bd
000002c0: 1650 a23c e852 df3c 73de 0d3d a186 6a3c
000002d0: 9e3a 243e 3f2e 00bd d999 29bc 2012 efbd
000002e0: 2e5a be3d 8839 d3bd 7ccc 333d 5ba6 3c3c
000002f0: 54ea a73c 4cd1 f13b 6d31 2cbd 3670 663e
00000300: 1431 3b3e 3324 f0bc 6f50 e73b 0092 8f3d
00000310: b8a0 fcbc 8bcf 66bd 4e7c 0cbd 9d05 75bd
00000320: bba5 a5bd 183d f6bd efc1 96bc 8f49 ab3d
00000330: 5f9b 35bd c16c 57bb 0dc5 bb3d 3518 abbd
00000340: 44ae db3c fc1f 41be 05cc 9a3d bc12 1c3d
00000350: 3620 173b a338 883b 6fb5 2bbe 7407 bf3d
00000360: a5e1 093d a608 123e 8589 34be 96a0 fdbc
00000370: eadc 58bd 1539 a73d 3278 453e d9e9 bcbd
00000380: c438 c33d 380f 60bd 4176 283e 71a2 f53c
00000390: ce5b 393e 62a4 0ebe c0f1 3cbd 8579 afbd
000003a0: 860e 143d 1a74 06be 157c e2bd 557e 283c
000003b0: 1e87 a23d f5ef 8ebc 9e96 023c 8e15 9b3d
000003c0: ee85 b33c 5a32 ad3c 5a91 3ebd 116c 39bd
000003d0: c99f b1bd ca7b aebd e362 803d af37 c5bd
000003e0: 11fa ef3d 5794 2d3b d3e4 913c 431a 0cbe
000003f0: a61e 593e 5d57 29be 82df 913d c010 3dbe
-0.008433936 -0.12016272 -0.020856174 0.07950515 0.15933757 -0.1292338 0.01956839 -0.03701356
0.037495967 0.085597515 0.23882197 0.0021162275 -0.11676925 0.026563559 0.07773034 0.06251001
-0.009138747 0.029389584 -0.052412923 0.020904139 -0.063801475 -0.1028409 -0.011239438 -0.040215295
0.029635059 -0.20137928 -0.09427152 -0.08608947 0.036207482 0.16867225 -0.038682435 -0.06383612
0.047753368 0.1454349 0.005668856 -0.043970868 0.009426965 0.045290522 0.033172887 -0.045877118
-0.10060582 0.08491809 0.14146872 -0.084836304 -0.007394911 -0.082177706 -0.011858005 0.026162377
0.14471325 0.00999635 0.009036639 0.17222129 -0.12317622 0.16703719 -0.016602106 -0.23550862
0.005042234 0.025531385 -0.047869604 0.068396255 0.066504434 0.020044636 0.055099323 -0.026985455
0.21190348 -0.028476575 -0.071434885 -0.0032339185 0.063070804 0.03392897 -0.079223976 -0.11921144
0.060004894 0.033571374 -0.036375422 -0.14378592 -0.029537626 -0.07177513 -0.046348203 -0.12557197
-0.13609575 -0.03972465 0.1700939 0.0900024 -0.06864066 -0.13519472 -0.022687282 0.007629012
-0.013805567 0.111437075 -0.14163443 0.085457504 0.015571677 0.1672123 0.04158519 -0.07362251
0.03786905 -0.09616847 -0.0399337 -0.07769819 -0.045705996 0.00044223643 -0.20882235 -0.07514609
-0.042060085 -0.09484764 0.10324764 -0.016801545 0.04928591 -0.030728241 -0.09206823 -0.16330926
-0.101708464 0.02681653 -0.13469203 0.07161272 0.1503895 0.1017317 -0.13898371 -0.14593944
0.124165446 0.064826444 0.026638957 -0.1718138 -0.02204799 0.04392613 -0.10777022 -0.1840791
-0.09257466 -0.16090937 -0.10117086 -0.13481756 0.059702057 -0.04387064 -0.09440525 -0.13101085
-0.14949891 -0.016851954 -0.17601117 0.0028486357 -0.04458603 -0.052848455 -0.11109116 -0.041417878
0.037277684 -0.0220548 0.062093623 0.2452814 -0.1459221 0.003912866 -0.06376358 -0.03345465
0.05433763 0.16951112 -0.08456996 -0.007359649 -0.07342207 -0.004060291 -0.001462177 0.021057665
0.042336814 -0.13081555 -0.19195881 -0.092895456 -0.006036137 -0.12715046 0.07749187 -0.1503232
0.007659911 -0.02012204 0.06394608 -0.035959844 -0.011056214 0.0028168624 -0.037070256 -0.07115004
0.019813579 0.027261212 0.034635972 0.014314325 0.16037986 -0.031294104 -0.010351622 -0.11673379
0.09294544 -0.103137076 0.043896183 0.011514272 0.020497479 0.0073796865 -0.042039324 0.22503743
0.1828044 -0.029314136 0.007059149 0.07010269 -0.030838355 -0.056350272 -0.034298234 -0.059819806
-0.08088251 -0.120233715 -0.018403022 0.083636396 -0.044337627 -0.003287122 0.09168444 -0.083542265
0.026816495 -0.18859857 0.07558445 0.038103804 0.002305997 0.0041571422 -0.1676843 0.093275934
0.033662457 0.14261112 -0.17630585 -0.030960362 -0.052945055 0.081651844 0.19284132 -0.092242904
0.095323116 -0.054702014 0.1645136 0.029984685 0.18101427 -0.13929895 -0.04612899 -0.085681
0.036146663 -0.13130227 -0.11058823 0.010284026 0.07935928 -0.017448405 0.00797048 0.075724706
0.021914449 0.021142174 -0.046525337 -0.045269076 -0.08673055 -0.08519705 0.06268861 -0.096297614
0.11717618 0.0026486123 0.017809307 -0.13681893 0.21203098 -0.16537233 0.07122709 -0.18463421

action_model._discrete_distribution.branches.0.weight f4 [1, 128]
00000000: 51a8 483a c6db 90ba 57d0 6cbb d3ab 1fbc
00000010: 2b6b acba d3ff 993c 02b6 a4bb 2f30 193c
00000020: 0f25 b5bb 09d9 c93a 48ed ffbb 1ed7 403c
00000030: 2aa3 59bc 4be0 dfba f7f2 a7bc 2016 69bc
00000040: 6322 84bc d276 f43b b745 0a3b c44f 9fbc
00000050: faf1 713c 63bf 87bc 0b53 653c 3c5d c23b
00000060: dab6 60bc cd4b ebbb 1d8f 3cbb 38e0 fd38
00000070: a5a6 eebb bbfd 2d3b f39d 693c 7f4d 1abc
00000080: 8dae 08bb 9b18 edbb 8a06 8ebc 6b17 c73b
00000090: f0b6 83bb 37f8 e7bb 023e 4b3a e87f 99bb
000000a0: 2dcc d639 2989 8dbc fedf c7bb 5ed2 19b9
000000b0: ca57 53bb edbf b7bb b646 a53c 82e1 603b
000000c0: 0d9f 6fba 1bd6 cfba 4b4e a0ba 8f4e 9a3c
000000d0: ef39 ea3a 9761 56bb 2445 04bc 4280 9e3c
000000e0: 1260 d83b bf1f 4dbc b42d a138 6bba afbb
000000f0: bfdf 0cbb b4bf 213c c565 3dbc fbbe 7ebb
00000100: 4cc4 8d3c 955e 183c 1b1a ec3a 01b6 42bc
00000110: 5a1d aebb c34e 15bc 3f97 e4bb 7b0b 463b
00000120: 174f 97ba 3523 5d3a 4f82 2abb 95cb 01bc
00000130: 5175 8e3c 4719 d6bb 0eb5 acb9 09b3 9c3b
00000140: 2247 65bb c3ce 963c 8229 cdba 07f4 e9bb
00000150: 1452 4a3c cd2f f2bb aa1f 9eba f71d 2dbc
00000160: a7bc df3b a703 553c 4f50 bdbc e618 0ebb
00000170: e1c6 91ba 972c 2b3b aba0 893a 78b5 ea3b
00000180: 04c9 1cbc 3566 df3b 5241 57bc 4b58 b53b
00000190: b041 0f3b 77c6 16bc d70b a8bb 2fae 61bc
000001a0: d9c5 3d3b c74b 833c 4586 d9bb 64b6 04bc
000001b0: 0f45 f93b e266 313b 7d66 003b 004b 063c
000001c0: ca55 463b 5771 f03a 6df9 c7ba 1fe4 41bc
000001d0: cd91 afbb 6852 ac3c 17eb 8d3b c391 19bc
000001e0: 1e63 2f3c 3ed2 a83b 2a7d 19bc a725 0bbc
000001f0: d50f 6a3c f8a2 0bbc eb8d bb3c 7b7f 683c
0.00076544756 -0.0011051826 -0.0036134922 -0.009745556 -0.0013154497 0.018798744 -0.00502658 0.009349867
-0.0055280994 0.0015399765 -0.0078102686 0.011770038 -0.01328353 -0.0017080394 -0.020501597 -0.014226466
-0.016129678 0.0074604535 0.0021098682 -0.019447215 0.014767164 -0.016570752 0.01399685 0.0059315246
-0.01371547 -0.007180667 -0.0028771826 0.00012105744 -0.007283049 0.002654894 0.014258849 -0.009417891
-0.0020855993 -0.007235599 -0.017337102 0.0060757897 -0.0040196106 -0.00707915 0.00077530753 -0.004684437
0.00040969384 -0.017277317 -0.0060997 -0.00014669585 -0.0032248371 -0.005607596 0.02017532 0.00343141
-0.0009140827 -0.0015856655 -0.0012230364 0.018836288 0.0017870049 -0.0032711977 -0.008073125 0.019348267
0.0066032493 -0.012519776 7.685591e-05 -0.005362799 -0.0021495668 0.009872366 -0.011559908 -0.0038871157
0.017305516 0.009299894 0.0018013151 -0.011884213 -0.0053135576 -0.009113017 -0.0069760378 0.0030219245
-0.0011543956 0.0008435727 -0.0026017611 -0.007922073 0.017389925 -0.006533775 -0.00032941293 0.004782085
-0.0034985025 0.018409139 -0.0015652629 -0.007139686 0.0123486705 -0.007390952 -0.001206388 -0.010566226
0.006827909 0.013001359 -0.023109583 -0.002168232 -0.0011121893 0.0026119107 0.0010500153 0.007162746
-0.00956941 0.006817604 -0.013138132 0.005534207 0.002185922 -0.009202591 -0.0051283645 -0.013774439
0.0028957038 0.016027344 -0.0066383206 -0.008100126 0.0076071094 0.002706938 0.0019592338 0.008196592
0.0030263537 0.0018344325 -0.001525683 -0.011834173 -0.005357957 0.021035388 0.0043310034 -0.009373131
0.010704784 0.005152016 -0.00936822 -0.008492864 0.014286001 -0.0085227415 0.02289482 0.01419055
