Assets/My Behavior-499983.onnx (onnx, 201642 bytes, 4 tensors)

network_body._body_endoder.seq_layers.0.weight f4 [128, 254]
-0.069913186 -0.0046408107 -0.062682845 -0.07083978 0.007698421 0.0047701993 -0.03771672 0.022838209
-0.0775797 0.02591894 -0.11159045 0.11616476 -0.020320684 -0.07894705 -0.04531911 -0.06748223
-0.016926298 -0.01115235 -0.019029465 -0.08730524 0.0074609024 -0.050416157 -0.08714676 0.026667569
0.0143749425 0.13241619 -0.062932804 -0.086019486 0.06305496 -0.04662261 -0.11168716 -0.06474152
0.0541075 0.030871216 0.015524191 0.008899164 -0.03096051 0.12954767 -0.010696512 -0.01652561
-0.07715414 -0.00044991032 0.10563105 -0.13193607 -0.10394702 -0.0049750353 0.0030458658 0.09695977
0.009426542 0.05856081 -0.03205028 -0.1328916 -0.027064301 -0.036178444 -0.115097314 -0.047718007
-0.006491354 0.0010366666 0.11647976 -0.019457355 0.025341708 0.025515677 0.12450973 -0.024830716
-0.02162775 -0.07819908 -0.117551476 0.047135595 0.019815633 -0.024978004 -0.06461068 -0.038870994
-0.0854906 -0.012432776 -0.032793563 0.011859788 0.001957195 0.019615145 0.017350273 -0.04308704
0.004059278 0.049414486 -0.06260288 -0.052165538 0.0960821 -0.015748022 -0.031492714 -0.013791878
-0.04123301 0.07166638 -0.02185111 -0.0048749396 -0.020252854 0.04324832 0.04295832 -0.012761345
0.012663367 0.0764761 0.021328304 -0.02700202 -0.0075881956 -0.003860752 0.028405342 0.021533977
-0.04809271 -0.10818207 0.06506112 -0.015282498 -0.027275437 0.14655979 0.017643426 0.056878943
-0.038605582 -0.041920822 0.04012828 -0.065504625 0.054551568 -0.01813119 0.099984474 0.08441613
-0.060787663 0.070261806 -0.1360557 0.046161022 0.043096296 -0.011584201 0.031708553 -0.10025772
-0.092107065 0.047451727 0.03273836 0.07767677 0.0892127 -0.10588379 -0.065056406 0.0854037
-0.040265 -0.066390924 0.033870038 -0.00699122 -0.11875883 -0.00786235 0.052547388 0.046874996
0.04619104 0.07679809 -0.08395128 -0.0059282 -0.038780343 0.055633012 0.014998968 -0.07301436
0.02887347 0.061690804 -0.032827448 -0.13827729 0.025353124 0.058693353 0.087285824 -0.06366024
-0.028842356 0.029443981 -0.12435854 0.06757261 -0.022968363 0.09849557 0.0009295113 -0.009660374
0.016573265 -0.15433036 -0.10851921 0.025725424 -0.08931157 0.03141476 0.17332456 -0.09604484
-0.04148437 -0.05398059 -0.021456433 0.053270593 -0.008335937 0.03391225 -0.028271334 0.10944138
0.027644126 -0.0013577235 0.17587873 0.046440195 0.023341458 0.1667519 -0.02227689 -0.025140306
-0.02058466 0.05509831 -0.05376024 0.032717638 -0.0049445005 0.014619991 0.060322803 0.07155881
-0.035772584 -0.083896875 -0.07357522 0.09170829 0.072820514 0.0319498 0.09106004 0.0050321543
0.105875336 -0.020361466 0.106458746 -0.048645418 0.0172385 0.020712376 0.018687924 -0.05201694
-0.07798357 -0.04803056 0.08013288 -0.05574136 -0.052564856 0.07779269 0.019639455 -0.011928761
-0.0058083115 0.048246805 -0.12757435 0.07558085 0.045620315 -0.042685065 -0.0021795796 -0.05415088
-0.064204946 -0.18491282 0.045672897 0.020922277 0.030239342 0.07486736 -0.024814304 -0.057553828
-0.059312794 -0.024670763 0.056433186 -0.03351461 -0.08417964 0.081193775 -0.04725676 0.0660548
-0.115558155 -0.048683204 0.042534765 -0.034156326 0.01933529 -0.05217358 -0.010481028 0.03403295
00000000: a52e 8fbd f111 98bb dd5f 80bd 7214 91bd
00000010: 0943 fc3b 554f 9c3b d97c 1abd 3217 bb3c
00000020: 1be2 9ebd f553 d43c 8989 e4bd cae7 ed3d
00000030: 9077 a6bc feae a1bd 88a0 39bd 2034 8abd
00000040: 05a9 8abc 59b8 36bc aee3 9bbc 17cd b2bd
00000050: 967a f43b 2c81 4ebd 007a b2bd f275 da3c
00000060: e184 6b3c 1c98 073e eae2 80bd fc2a b0bd
00000070: f522 813d 5af7 3ebd 3dbc e4bd 3497 84bd
00000080: d39f 5d3d a2e5 fc3c 2d59 7e3c cdcd 113c
00000090: e5a0 fdbc 25a8 043e 6c40 2fbc b760 87bc
000000a0: fd02 9ebd f1e1 ebb9 1855 d83d 401a 07be
000000b0: 2de2 d4bd 9f05 a3bb 269d 473b d892 c63d
000000c0: c871 1a3c 76dd 6f3d 2847 03bd bc14 08be
000000d0: f4b5 ddbc d92f 14bd 24b8 ebbd f573 43bd
000000e0: 6db5 d4bb c2e0 873a f18c ee3d 0865 9fbc
000000f0: 6a99 cf3c 4106 d13c f5fe fe3d c969 cbbc
00000100: ae2c b1bc d726 a0bd d4be f0bd 4111 413d
00000110: 6554 a23c ac9e ccbc 9b52 84bd 3137 1fbd
00000120: b215 afbd d8b2 4bbc 8b52 06bd 8e4f 423c
00000130: 4944 003b f1af a03c 2922 8e3c 097c 30bd
00000140: b103 853b d866 4a3d f035 80bd 88ab 55bd
00000150: b1c6 c43d ff01 81bc 81fe 00bd 54f7 61bc
00000160: f2e3 28bd d3c5 923d 1901 b3bc f5bd 9fbb
00000170: 50e9 a5bc 2725 313d 10f5 2f3d f614 51bc
00000180: 037a 4f3c 809f 9c3d b2b8 ae3c 5733 ddbc
00000190: 66a6 f8bb ac04 7dbb 52b2 e83c 0668 b03c
000001a0: ddfc 44bd 908e ddbd c43e 853d 7163 7abc
000001b0: bd70 dfbc c513 163e f288 903c e5f9 683d
000001c0: e320 1ebd 2bb5 2bbd 8d5d 243d 4a27 86bd
000001d0: 7771 5f3d dd87 94bc a9c4 cc3d 5de2 ac3d
000001e0: 7cfc 78bd 6ce5 8f3d 2f52 0bbe 5713 3d3d
000001f0: be85 303d a9cb 3dbc d4e0 013d eb53 cdbd
00000200: a1a2 bcbd be5c 423d a918 063d 0015 9f3d
00000210: 26b5 b63d 9ad9 d8bd 4b3c 85bd 23e8 ae3d
00000220: eaec 24bd f7f7 87bd 4fbb 0a3d 9b16 e5bb
00000230: d437 f3bd 16d1 00bc ee3b 573d ffff 3f3d
00000240: d132 3d3d 5148 9d3d a6ee abbd 5941 c2bb
00000250: 23d8 1ebd 71df 633d 3bbe 753c 8e88 95bd
00000260: 0e88 ec3c 7faf 7c3d 1376 06bd 9098 0dbe
00000270: 5bb1 cf3c 7168 703d e9c2 b23d 4d60 82bd
00000280: ce46 ecbc 8134 f13c b1af febd 8263 8a3d
00000290: 2628 bcbc 0cb8 c93d 73aa 733a 8c46 1ebc
000002a0: a8c4 873c c708 1ebe 523f debd 20be d23c
000002b0: fce8 b6bd c3ac 003d fe7b 313e 28b3 c4bd
000002c0: 84eb 29bd c01a 5dbd 67c5 afbc 4432 5a3d
000002d0: 7493 08bc 92e7 0a3d 4999 e7bc cd22 e03d
000002e0: ef75 e23c a4f5 b1ba 8e19 343e 1338 3e3d
000002f0: 9636 bf3c 03c1 2a3e 067e b6bc 0bf3 cdbc
00000300: 29a1 a8bc c4ae 613d b333 5cbd ee02 063d
00000310: 7a05 a2bb b088 6f3c 0b15 773d 6d8d 923d
00000320: 4686 12bd 20d2 abbd 9bae 96bd 8ed1 bb3d
00000330: ec22 953d cbdd 023d b07d ba3d c5e4 a43b
00000340: 2bd5 d83d 17cd a6bc 0b07 da3d 6b40 47bd
00000350: c137 8d3c 00ad a93c 6b17 993c b70f 55bd
00000360: dab5 9fbd b1bb 44bd b51c a43d 0d51 64bd
00000370: 3f4e 57bd c651 9f3d ece2 a03c da70 43bc
00000380: a653 bebb 719e 453d daa2 02be 22ca 9a3d
00000390: 5edc 3a3d 89d6 2ebd 47d7 0ebb 50cd 5dbd
000003a0: e27d 83bd c959 3dbe 8113 3b3d 3265 ab3c
000003b0: 7fb8 f73c 0f54 993d 5e47 cbbc 90bd 6bbd
000003c0: f9f1 72bd 571a cabc 7c26 673d 9e46 09bd
000003d0: 6066 acbd ec48 a63d 4e90 41bd bd47 873d
000003e0: c1a9 ecbd 0a68 47bd ef38 2e3d 81e7 0bbd
000003f0: 0b65 9e3c f7b3 55bd 9eb8 2bbc 2266 0b3d

network_body._body_endoder.seq_layers.0.bias f4 [128]
0.0 0.0 0.0 0.0 0.0 0.0 0.0 0.0
0.0 0.0 0.0 0.0 0.0 0.0 0.0 0.0
0.0 0.0 0.0 0.0 0.0 0.0 0.0 0.0
0.0 0.0 0.0 0.0 0.0 0.0 0.0 0.0
0.0 0.0 0.0 0.0 0.0 0.0 0.0 0.0
0.0 0.0 0.0 0.0 0.0 0.0 0.0 0.0
0.0 0.0 0.0 0.0 0.0 0.0 0.0 0.0
0.0 0.0 0.0 0.0 0.0 0.0 0.0 0.0
0.0 0.0 0.0 0.0 0.0 0.0 0.0 0.0
0.0 0.0 0.0 0.0 0.0 0.0 0.0 0.0
0.0 0.0 0.0 0.0 0.0 0.0 0.0 0.0
0.0 0.0 0.0 0.0 0.0 0.0 0.0 0.0
0.0 0.0 0.0 0.0 0.0 0.0 0.0 0.0
0.0 0.0 0.0 0.0 0.0 0.0 0.0 0.0
0.0 0.0 0.0 0.0 0.0 0.0 0.0 0.0
0.0 0.0 0.0 0.0 0.0 0.0 0.0 0.0
00000000: 0000 0000 0000 0000 0000 0000 0000 0000
00000010: 0000 0000 0000 0000 0000 0000 0000 0000
00000020: 0000 0000 0000 0000 0000 0000 0000 0000
00000030: 0000 0000 0000 0000 0000 0000 0000 0000
00000040: 0000 0000 0000 0000 0000 0000 0000 0000
00000050: 0000 0000 0000 0000 0000 0000 0000 0000
00000060: 0000 0000 0000 0000 0000 0000 0000 0000
00000070: 0000 0000 0000 0000 0000 0000 0000 0000
00000080: 0000 0000 0000 0000 0000 0000 0000 0000
00000090: 0000 0000 0000 0000 0000 0000 0000 0000
000000a0: 0000 0000 0000 0000 0000 0000 0000 0000
000000b0: 0000 0000 0000 0000 0000 0000 0000 0000
000000c0: 0000 0000 0000 0000 0000 0000 0000 0000
000000d0: 0000 0000 0000 0000 0000 0000 0000 0000
000000e0: 0000 0000 0000 0000 0000 0000 0000 0000
000000f0: 0000 0000 0000 0000 0000 0000 0000 0000
00000100: 0000 0000 0000 0000 0000 0000 0000 0000
00000110: 0000 0000 0000 0000 0000 0000 0000 0000
00000120: 0000 0000 0000 0000 0000 0000 0000 0000
00000130: 0000 0000 0000 0000 0000 0000 0000 0000
00000140: 0000 0000 0000 0000 0000 0000 0000 0000
00000150: 0000 0000 0000 0000 0000 0000 0000 0000
00000160: 0000 0000 0000 0000 0000 0000 0000 0000
00000170: 0000 0000 0000 0000 0000 0000 0000 0000
00000180: 0000 0000 0000 0000 0000 0000 0000 0000
00000190: 0000 0000 0000 0000 0000 0000 0000 0000
000001a0: 0000 0000 0000 0000 0000 0000 0000 0000
000001b0: 0000 0000 0000 0000 0000 0000 0000 0000
000001c0: 0000 0000 0000 0000 0000 0000 0000 0000
000001d0: 0000 0000 0000 0000 0000 0000 0000 0000
000001e0: 0000 0000 0000 0000 0000 0000 0000 0000
000001f0: 0000 0000 0000 0000 0000 0000 0000 0000

network_body._body_endoder.seq_layers.2.weight f4 [128, 128]
0.1351968 0.04503773 0.13869554 0.058300607 -0.086443834 0.05640915 -0.034946714 -0.06466209
0.07667273 0.03437808 -0.029409017 0.23305432 -0.21370363 -0.046374094 -0.04130523 -0.032406367
-0.048825033 -0.07487785 -0.04630343 0.086858355 -0.038029928 -0.120453775 0.037236728 0.008366021
-0.0026577052 -0.11527594 0.12514757 -0.053432047 0.14906283 -0.030756341 -0.064462215 -0.019540388
0.2743388 -0.021155283 -0.04729102 -0.09957807 -0.023617623 -0.16756873 -0.10718466 -0.081434846
0.0040267673 -0.0913002 -0.08060756 0.06678103 0.0014925366 0.10307028 -0.056664236 -0.030020488
0.021299051 -0.038520113 -0.11869439 0.08680387 0.12354372 0.03475022 -0.013123734 0.039503876
-0.056407988 0.08725481 -0.1187151 0.040084302 -0.060783215 0.027121926 -0.014864628 -0.1438686
0.16740152 -0.021118067 0.10323628 -0.009720536 -0.09530897 0.030716235 0.024164602 -0.030719424
-0.038382452 0.1109113 -0.056039877 0.021133734 0.0045032245 0.098884806 0.051196206 -0.0944831
0.050304845 -0.016067186 -0.03417665 -0.08179479 0.032870684 -0.027276961 0.06936677 0.11588186
0.014203126 0.060420215 -0.095502995 -0.069056444 0.011379684 -0.03398773 0.17384474 -0.10440627
-0.09743339 0.059729643 0.054927077 0.04242612 0.12112625 0.09258443 -0.07665791 -0.0015405864
-0.18623807 0.11775897 0.07738553 0.13205056 0.018670326 0.14856242 0.089056745 0.15728591
0.06367352 -0.17205465 -0.029312894 -0.068370745 0.16136065 -0.05386409 -0.0009942328 0.051604126
0.10181207 -0.014823782 0.0960595 0.08548436 -0.024227489 -0.004908779 0.0045466865 0.050239976
-0.050363027 0.26247737 -0.036049522 -0.07036976 -0.23176976 -0.011447499 0.04049938 0.09471627
-0.14483963 -0.15301767 0.07543842 -0.047749486 0.07792715 -0.089355335 0.0023154325 -0.03577394
0.0053460654 -0.06260591 -0.0053155595 -0.047951296 0.007085817 -0.037882388 -0.06714671 -0.11064811
0.105391376 0.048649836 -0.035868295 0.033311293 -0.08186158 0.033902183 0.037455525 0.009394166
-0.22083373 0.006533421 0.09368772 0.020086145 -0.10095914 -0.06542263 0.0027686711 -0.010786871
0.054051626 -0.024164772 -0.112211876 -0.09791943 0.024370482 0.02606053 -0.07821636 -0.124330886
0.015843354 -0.041406084 -0.097779214 0.09960894 -0.117246516 -0.025554983 -0.068410225 0.116688855
0.1620595 -0.01818 -0.04725945 -0.0066685495 0.21570866 0.14345467 0.13155249 -0.094785064
-0.041937824 0.011907986 0.0670877 0.06602075 -0.074491605 -0.018674998 0.016215498 -0.044677865
0.030916065 -0.005456593 0.044628516 0.04628879 0.095067926 -0.21735004 0.005323758 0.07446492
-0.10329423 0.13912888 -0.05856026 -0.025836239 0.021796336 -0.07277566 -0.1394678 -0.07057741
0.12522517 0.05925542 -0.046217084 0.08348448 0.060375832 -0.08292795 0.124786764 -0.053261705
-0.040499292 0.05500059 0.016072659 -0.056648184 -0.06419284 0.015353076 0.13628393 -0.10472916
0.0060023405 0.05187459 0.086256534 0.1034914 -0.1075661 -0.17479153 -0.0011442907 0.012346071
0.07586484 -0.21055025 0.17578784 0.05733751 -0.016432397 0.043251928 -0.0060932697 0.100840695
0.044921007 -0.105996646 -0.039995123 0.0035974625 0.013330806 0.16218905 -0.08645222 0.03830452
00000000: 0871 0a3e 7c79 383d 3406 0e3e 9ecc 6e3d
00000010: 7709 b1bd 480d 673d 4924 0fbd 8f6d 84bd
00000020: 9806 9d3d 08d0 0c3d 2eeb f0bc cba5 6e3e
00000030: 20d5 5abe c3f2 3dbd ac2f 29bd 8abc 04bd
00000040: c2fc 47bd 8f59 99bd aaa8 3dbd cbe2 b13d
00000050: 45c5 1bbd 78b0 f6bd 8a85 183d a311 093c
00000060: e52c 2ebb cb15 ecbd af26 003e 90db 5abd
00000070: eda3 183e b9f4 fbbc c404 84bd 2a13 a0bc
00000080: 2376 8c3e d84d adbc 3bb4 41bd 96ef cbbd
00000090: bf79 c1bc 2397 2bbe a283 dbbd 50c7 a6bd
000000a0: f9f2 833b 99fb babd 9415 a5bd 7ec4 883d
000000b0: 38a1 c33a 8316 d33d c218 68bd 87ed f5bc
000000c0: 597b ae3c 44c7 1dbd 0b16 f3bd 3ac6 b13d
000000d0: 7d04 fd3d 3f56 0e3d ee04 57bc d1ce 213d
000000e0: 100c 67bd a6b2 b23d e720 f3bd 702f 243d
000000f0: d2f7 78bd cd2e de3c c58a 73bc 4a52 13be
00000100: 4e6b 2b3e ccff acbc 8b6d d33d e242 1fbc
00000110: 5931 c3bd 9da0 fb3c d8f4 c53c 4da7 fbbc
00000120: eb36 1dbd 7725 e33d 128a 65bd a720 ad3c
00000130: c98f 933b 1e84 ca3d 1db3 513d 5b80 c1bd
00000140: 740c 4e3d 559f 83bc d1fc 0bbd 0784 a7bd
00000150: 69a3 063d ef73 dfbc 2a10 8e3d 7853 ed3d
00000160: 3ab4 683c 307b 773d 1397 c3bd 776d 8dbd
00000170: db71 3a3c b836 0bbd 5b04 323e f4d2 d5bd
00000180: 288b c7bd 12a7 743d 37fb 603d 03c7 2d3d
00000190: 0a11 f83d e89c bd3d d3fe 9cbd 80ed c9ba
000001a0: 31b5 3ebe 9d2b f13d 4e7c 9e3d 4338 073e
000001b0: 83f2 983c bf20 183e 6263 b63d 8f0f 213e
000001c0: 4367 823d 182f 30be 9821 f0bc f605 8cbd
000001d0: ba3b 253e 98a0 5cbd eb50 82ba d95e 533d
000001e0: d982 d03d 73df 72bc d8ba c43d 6d12 af3d
000001f0: ba78 c6bc d3d9 a0bb 5ffc 943b 6fc8 4d3d
00000200: 7649 4ebd 6f63 863e aaa8 13bd 051e 90bd
00000210: 0d55 6dbe 4a8e 3bbc aee2 253d 9bfa c13d
00000220: d750 14be aab0 1cbe 757f 9a3d f794 43bd
00000230: 4598 9f3d eeff b6bd 83be 173b b287 12bd
00000240: 0c2e af3b 8737 80bd 252e aebb 9468 44bd
00000250: 2430 e83b 902a 1bbd 3784 89bd 7a9b e2bd
00000260: 6fd7 d73d 0d45 473d a2ea 12bd 6c71 083d
00000270: 0ba7 a7bd 04dd 0a3d f76a 193d fde9 193c
00000280: 3d22 62be 4f16 d63b 59df bf3d b38b a43c
00000290: aac3 cebd 4dfc 85bd 9872 353b 6bbb 30bc
000002a0: 3d65 5d3d 33f5 c5bc 57cf e5bd fb89 c8bd
000002b0: 9ba4 c73c e57c d53c e62f a0bd 31a1 febd
000002c0: ecc9 813c 6d99 29bd 7840 c8bd c6ff cb3d
000002d0: f11e f0bd af58 d1bc a91a 8cbd 91fa ee3d
000002e0: edf2 253e 39ee 94bc 2093 41bd d983 dabb
000002f0: bbe2 5c3e c8e5 123e b2b5 063e ac1e c2bd
00000300: ffc6 2bbd b719 433c 4765 893d e335 873d
00000310: 0e8f 98bd 4ffc 98bc 5dd6 843c 2300 37bd
00000320: b043 fd3c 38cd b2bb 64cc 363d 5099 3d3d
00000330: f9b2 c23d 0291 5ebe eb72 ae3b 1081 983d
00000340: ed8b d3bd cd77 0e3e e2dc 6fbd 85a6 d3bc
00000350: 3b8e b23c 680b 95bd a6d0 0ebe e48a 90bd
00000360: 073b 003e d0b5 723d 204e 3dbd e9f9 aa3d
00000370: a64c 773d 21d6 a9bd 3490 ff3d f228 5abd
00000380: 96e2 25bd 4c48 613d cfaa 833c ed07 68bd
00000390: 8977 83bd 788b 7b3c 048e 0b3e 3e7c d6bd
000003a0: 48af c43b 737a 543d 44a7 b03d 4df3 d33d
000003b0: 9e4b dcbd 8dfc 32be 06fc 95ba 2d47 4a3c
000003c0: 065f 9b3d 7c9a 57be ba01 343e bdda 6a3d
000003d0: 3c9d 86bc ef28 313d 0daa c7bb 9185 ce3d
000003e0: 17ff 373d c514 d9bd edd1 23bd 68c3 6b3b
000003f0: 7469 5a3c e314 263e dd0d b1bd 33e5 1c3d

action_model._discrete_distribution.branches.0.weight f4 [1, 128]
-0.0047244006 -0.0059591345 0.0042192205 -0.018793955 -0.007574258 0.0041221417 0.003530562 -0.002265481
-0.014146881 -0.0034367044 -0.0005825166 0.01903536 -0.002469175 0.0018483981 0.014590706 -0.0035813358
-9.9003024e-05 0.012839496 -0.012578084 -0.0077359723 -0.010073154 0.003076073 0.006427835 0.0175291
0.010932993 -0.006632903 0.012714003 0.00055686 0.014047587 -0.015245639 0.00085366116 -0.0012682958
-0.0017343004 -0.0065197432 -0.01843789 -0.0012255043 0.003980016 -0.00091672194 -0.0037883034 0.007271984
0.0023133445 -0.0028082866 0.00082352286 0.0023153801 0.0006807207 0.0040787966 -0.0069587715 0.0041108215
0.00048526996 -0.014126155 0.009629424 -0.0018845604 0.0056903255 -0.005324211 -0.015879618 0.0060785986
-0.009616494 0.0074690687 -0.020474095 -0.0085677495 0.0012445946 -0.008093708 0.005383144 -0.011098617
-0.0057123895 0.0067819874 -0.006732022 0.009058083 -0.014907866 0.0012700367 -0.00016904373 0.0019134488
-0.015414608 0.013390893 -0.008665065 0.0014127701 0.012082284 -0.00932535 0.005814077 0.0029105896
0.004789737 0.0048598484 0.0006503617 0.004448766 -0.00020455864 0.015496162 0.016539168 -0.0038903411
0.0034320701 0.007626615 0.009923962 -0.008632386 -0.0008806255 0.0045436393 0.007671387 -0.0028576215
0.008656159 -0.028021563 0.0005983951 -0.0035281654 -0.0062399 -0.00954261 0.0079088155 -0.0014772244
0.0063253096 -0.0041701626 -0.0074043325 0.0054610665 -0.010755419 0.0046523814 -0.0036414077 -0.0075826617
0.0056402697 -0.0053591635 0.021429833 0.004358221 -0.0072420663 -0.0067038983 -0.0018511415 0.012291662
0.01343063 0.015003348 -0.0020497486 -0.0052611367 -0.003013309 0.012247218 -0.0031032986 0.010666676
00000000: 25cf 9abb d844 c3bb 6341 8a3b c8f5 99bc
00000010: 7b31 f8bb 0813 873b 0061 673b 7778 14bb
00000020: 52c8 67bc 553a 61bb 07b4 18ba 0bf0 9b3c
00000030: e2d1 21bb f345 f23a db0d 6f3c d8b4 6abb
00000040: d89f cfb8 c05c 523c 4f14 4ebc 0a7e fdbb
00000050: df09 25bc f197 493b 97a0 d23b 3099 8f3c
00000060: 4c20 333c d358 d9bb 654e 503c 3efa 113a
00000070: da27 663c d8c8 79bc 3bc8 5f3a f23c a6ba
00000080: 7751 e3ba 92a3 d5bb 0f0b 97bc 1aa1 a0ba
00000090: cb6a 823b 2b50 70ba 2f45 78bb d349 ee3b
000000a0: 7b9b 173b 3b0b 38bb afe1 573a a2bd 173b
000000b0: 6572 323a 6da7 853b 6806 e4bb 12b4 863b
000000c0: d56b fe39 6371 67bc bbc4 1d3c 5b03 f7ba
000000d0: e975 ba3b b876 aebb f915 82bc fb2e c73b
000000e0: 808e 1dbc 17bf f43b 4ab9 a7bc bf5f 0cbc
000000f0: aa21 a33a 799b 04bc 1665 b03b f9d6 35bc
00000100: ff2e bbbb 6f3b de3b 4b98 dcbb 5b68 143c
00000110: 1f40 74bc 5c77 a63a 5541 31b9 b0cc fa3a
00000120: 8d8d 7cbc 7a65 5b3c ebf7 0dbc b32c b93a
00000130: c6f4 453c 5ac9 18bc 0384 be3b 97bf 3e3b
00000140: 3af3 9c3b 5d3f 9f3b 097d 2a3a f4c6 913b
00000150: cb7e 56b9 9de3 7d3c 267d 873c 18f5 7ebb
00000160: 95ec 603b afe8 f93b 1d98 223c da6e 0dbc
00000170: c7d9 66ba cfe2 943b 4260 fb3b ef46 3bbb
00000180: 90d2 0d3c 7a8d e5bc 9edd 1c3a cb38 67bb
00000190: 1378 ccbb 9b58 1cbc fa93 013c 6d9f c1ba
000001a0: 8b44 cf3b dca5 88bb 0ba0 f2bb bff2 b23b
000001b0: 7f37 30bc 0173 983b afa4 6ebb fa77 f8bb
000001c0: 03d2 b83b ec9b afbb 9e8d af3c 68cf 8e3b
000001d0: db4e edbb 60ac dbbb 00a2 f2ba f862 493c
000001e0: 250c 5c3c 9ad0 753c 1355 06bb 9d65 acbb
000001f0: f07a 45bb 8ea8 483c b660 4bbb 48c3 2e3c
